m1/time_series_pattern_recognition/src_final/parameters_20_4000/NN/model_2_300.pth (torch, 9367 bytes, 5 tensors)

lstm.weight_ih_l0 f4 [80, 1]
0	0xbe7990c0	-0.24371624
1	0xbe26fc2b	-0.16307132
2	0x3e5d2c28	0.21598876
3	0x3dcb8708	0.099378645
4	0x3e1ebe10	0.1550219
5	0x3cb358e8	0.02189298
6	0xbd877c46	-0.066155
7	0xbd330959	-0.043710086
8	0x3ef095b0	0.46989202
9	0x3c95e13d	0.018295879
10	0x3cfe5a84	0.03104902
11	0xbe06de37	-0.13170706
12	0x3e9c8a18	0.30574107
13	0x3eb1428e	0.3462109
14	0x3ebdb894	0.37054884
15	0xbddefd0a	-0.10888107
16	0xbc81f52a	-0.015863974
17	0x3c4c80a1	0.012481839
18	0xbe0392c8	-0.12848961
19	0x3f13105e	0.5744685
20	0x3d9e5910	0.07731831
21	0x3db64ea7	0.089017205
22	0x3dc29481	0.09500981
23	0xbe1c8219	-0.15284003
24	0x3e00b4ef	0.1256902
25	0x3e79d3b9	0.24397172
26	0xbe1b983a	-0.15194789
27	0xbdcabb29	-0.09898979
28	0xbcf234a4	-0.029566117
29	0xbedd0d49	-0.43174198
30	0x3d9f0a19	0.07765598
31	0x3e3d6006	0.18493661
32	0x3dfc77c1	0.12327529
33	0xbe098b3b	-0.13432018
34	0x3df9d3c2	0.12198593
35	0x3e6aaa98	0.22916639
36	0x3e314750	0.1731236
37	0x3d9ed23f	0.07754945
38	0x3d8e982a	0.06962617
39	0xbea6ee62	-0.32603747
40	0xbe3da817	-0.18521152
41	0x3e49cb2f	0.19706415
42	0x3de59bdd	0.11211369
43	0xbdbab633	-0.09116783
44	0x3e0632c0	0.13105297
45	0x3e2495d0	0.16072774
46	0x3e07979c	0.13241428
47	0xbe2ae201	-0.16687776
48	0xbe09c6a0	-0.13454676
49	0xbde78c37	-0.11306041
50	0xbe16e1f4	-0.14734632
51	0x3e365fda	0.17810002
52	0x3ddaa3ed	0.106757976
53	0xbdf83704	-0.121198684
54	0x3e01b837	0.12667929
55	0x3e42917a	0.19000807
56	0xbe3334b6	-0.17500576
57	0xbe233e6e	-0.15941784
58	0x3e223bc4	0.15843111
59	0x3dd077e7	0.101791196
60	0x3ebaab6d	0.36458912
61	0x3e12780a	0.14303604
62	0x3ed5e552	0.4177652
63	0x3f28e9ff	0.6598205
64	0x3ee544ff	0.44779202
65	0xbce1d5fb	-0.027567854
66	0x3ec05618	0.37565684
67	0x3ea47eeb	0.3212808
68	0x3f139277	0.5764536
69	0x3ee24f43	0.44201097
70	0x3ebe8976	0.3721425
71	0x3efe6dad	0.4969305
72	0x3f1a28d3	0.6021854
73	0x3ef11c2b	0.47091803
74	0xbe416438	-0.18885887
75	0x3f000a3e	0.5001563
76	0x3eb0d25b	0.34535488
77	0xbe42dde4	-0.19029957
78	0x3ed1e4bb	0.4099482
79	0x3f1d6bf9	0.6149288

lstm.weight_hh_l0 f4 [80, 20]
0	0x3e8d5522	0.27604014
1	0xbdec16bf	-0.11527776
2	0x3ced36d3	0.028956806
3	0xbe0a879b	-0.13528292
4	0xbdb0177f	-0.085982315
5	0xbe75434e	-0.23951456
6	0xbed85d77	-0.42258808
7	0xbd25912b	-0.040421646
8	0x3ec62997	0.38703606
9	0x3e9569a7	0.2918217
10	0xbdbfa2f2	-0.09357251
11	0xbe2cb8b1	-0.16867329
12	0x3e78ff54	0.2431615
13	0x3e80a2fe	0.25124353
14	0xbd6bb353	-0.057544064
15	0x3be20de1	0.006898627
16	0xbdd15a57	-0.10222309
17	0x3ea8979e	0.32928175
18	0xbeb38c0c	-0.35067785
19	0xbd527d16	-0.051388822
20	0x3eadd2a3	0.33949766
21	0x3d7605ad	0.060064007
22	0x3bc2e54b	0.005947744
23	0x3eb41c8a	0.35178024
24	0xbe2a75a6	-0.16646442
25	0xbdbfce4c	-0.0936552
26	0xbf3a928b	-0.72879857
27	0xbbfbd16a	-0.007684876
28	0x3e60dfbf	0.21960352
29	0x3efc22c5	0.49245277
30	0x3e628b49	0.22123446
31	0xbd3691e3	-0.044572722
32	0xbd1822e0	-0.037142634
33	0x3e61c37f	0.22047232
34	0xbea9b10a	-0.33142883
35	0xbe85b723	-0.26116285
36	0x3d3cde29	0.046110306
37	0x3ecfba9a	0.40572053
38	0xbed427aa	-0.4143651
39	0xbeea5887	-0.45770666
40	0x3efdc25f	0.49562356
41	0xbd8eefd3	-0.069793366
42	0xbd64d50a	-0.055867232
43	0x3e8caf38	0.2747743
44	0xbe50f284	-0.20405012
45	0xbe9b96a8	-0.3038838
46	0xbe337b5b	-0.17527525
47	0x3ecad0e6	0.39612502
48	0x3d1a5540	0.037678957
49	0x3e5ff4e7	0.21870767
50	0xbd18b9ad	-0.03728645
51	0xbb3f93c1	-0.0029232355
52	0xbe5c65c5	-0.21523197
53	0x3db926c7	0.09040599
54	0xbe73859d	-0.23781438
55	0xbe80145c	-0.25015533
56	0x3d8747b3	0.066054724
57	0x3e92accd	0.28647462
58	0xbdefa158	-0.11700696
59	0xbe1dd4bf	-0.15413187
60	0x3cfec824	0.031101294
61	0x3e289023	0.16461234
62	0xbde866f2	-0.1134776
63	0x3e990a83	0.29890832
64	0xbd850e89	-0.06496913
65	0xbe167c33	-0.14695816
66	0x3b9c1609	0.004763369
67	0x3e92192d	0.28534833
68	0xbdafef21	-0.08590532
69	0x3ed228fb	0.4104689
70	0x3e075af9	0.13218297
71	0x3e316b31	0.17326047
72	0x3e8d2bcf	0.27572486
73	0x3e03cc11	0.12870814
74	0x3e2a3d47	0.16624938
75	0xbe5b2531	-0.21400906
76	0x3cae9a28	0.021313742
77	0xbdabaf13	-0.08383002
78	0xbe4e0803	-0.20120244
79	0xbe5f744b	-0.21821706
80	0x3e2cc956	0.16873679
81	0xbeb874bc	-0.3602656
82	0xbd38bc2c	-0.04510133
83	0x3e4c9394	0.19978172
84	0xbdcf3545	-0.10117582
85	0xbe01ecee	-0.12688038
86	0xbf0eacb1	-0.55732256
87	0x3ec6198e	0.38691372
88	0x3e02da43	0.12778573
89	0x3f01a450	0.50641346
90	0x3e3bcd8f	0.18340133
91	0xbd5ea45e	-0.05435597
92	0xbe86fccb	-0.2636474
93	0x3e9d6e53	0.30748233
94	0xbe180378	-0.14845073
95	0xbd84e86c	-0.064896435
96	0x3e19438e	0.14967176
97	0x3e8c7a5f	0.27437112
98	0xbf0125aa	-0.50448096
99	0xbedfbf0c	-0.43700445
100	0x3f1067b0	0.56408215
101	0xbef7a1fd	-0.48365775
102	0xbe846d14	-0.2586447
103	0x3f02e3b5	0.51128703
104	0xbf0a6286	-0.54056585
105	0xbded1346	-0.11575942
106	0xbf338566	-0.70125425
107	0x3ed10fd3	0.40832385
108	0x3e5b9154	0.21442157
109	0x3f4da3ed	0.80328256
110	0x3ef2c711	0.474175
111	0xbe3bdbe9	-0.18345608
112	0xbda7e43a	-0.08197828
113	0x3ebff5c9	0.37492207
114	0xbf0dc4d9	-0.5537849
115	0xbdfd8ca3	-0.1238034
116	0x3de84cec	0.11342797
117	0x3ebc810e	0.3681721
118	0xbe8f8bbe	-0.28036302
119	0xbec7f5d8	-0.3905475
120	0xbd283aa0	-0.041071534
121	0x38dd262d	0.00010545212
122	0xbe5f1b67	-0.21787797
123	0xbe337ba3	-0.17527632
124	0xbe075e7d	-0.13219638
125	0xbe32e81c	-0.17471355
126	0x3d553c28	0.052059323
127	0xbd5ab7b3	-0.053397845
128	0x3ea16402	0.31521612
129	0x3ceece48	0.029151097
130	0x3e629a33	0.22129135
131	0xbe0852b5	-0.133128
132	0x3e0cd570	0.13753295
133	0x3dbdb8e6	0.09263782
134	0xbd8b2058	-0.067932785
135	0xbeb171e0	-0.34657192
136	0x3e99449e	0.29935163
137	0x3e9481ec	0.29005373
138	0x3ca86436	0.020555597
139	0x3e73ea4a	0.23819843
140	0xbd5e72fd	-0.05430888
141	0x3bdaf6f3	0.0066822707
142	0x3e76c913	0.24100141
143	0xbeb1eaf4	-0.34749568
144	0x3e27a3b4	0.16371042
145	0xbe8dd46c	-0.27701128
146	0xbdc0993b	-0.094042264
147	0xbc9358aa	-0.017986614
148	0x3e8b85f6	0.27250642
149	0x3d8589ef	0.06520449
150	0x3d635870	0.055504262
151	0x3ddd8b2d	0.10817561
152	0x3e5aef84	0.2138043
153	0x3cb6ed65	0.022329995
154	0xbcf3122b	-0.02967175
155	0x3d2d9633	0.04237957
156	0xbdd6592d	-0.10466228
157	0x3e6a751f	0.2289624
158	0xbe576406	-0.2103425
159	0x3e23a23d	0.15979858
160	0x3ef83650	0.48478937
161	0xbe194397	-0.1496719
162	0xbeb36871	-0.3504062
163	0x3efd14b8	0.4942987
164	0xbe88e92c	-0.26740396
165	0xbe9c9dcb	-0.30589136
166	0xbec0ecd4	-0.37680686
167	0x3ecc7d3a	0.3993929
168	0x3e07edd5	0.1327432
169	0x3f1f0601	0.62118536
170	0x3e712919	0.23550834
171	0xbecb99ba	-0.39765722
172	0xbd02d0d5	-0.03193744
173	0x3ee2b251	0.4427667
174	0xbe89aa7b	-0.2688788
175	0xbe73bcec	-0.23802537
176	0x3ed12a79	0.40852717
177	0x3e36f0e2	0.17865327
178	0xbf2efcba	-0.6835438
179	0xbece0769	-0.40240029
180	0x3d636c14	0.055522993
181	0xbc5d25d4	-0.013497788
182	0x3e4d9dc3	0.20079713
183	0x3dbb90e6	0.091584966
184	0x3e5d7d4c	0.21629828
185	0x3de63f1b	0.11242505
186	0xbe6597ce	-0.2242119
187	0x3e8fa257	0.28053543
188	0xbe114fcd	-0.14190598
189	0x3e614182	0.21997645
190	0x399136a7	0.00027697274
191	0x3c9df42e	0.019281473
192	0x3dda8fc9	0.10671956
193	0xbdbe3484	-0.0928736
194	0x3eba3f26	0.36376303
195	0xbe703475	-0.23457511
196	0xbe281709	-0.16415037
197	0xbe44894e	-0.19193003
198	0xbdabe5e5	-0.08393458
199	0x3d58a77d	0.052894104
200	0x3f02c2d0	0.5107851
201	0xbe1d2d5b	-0.15349333
202	0x3cd07fdd	0.025451595
203	0x3f0d3e9e	0.5517367
204	0xbe05356b	-0.13008659
205	0xbe545602	-0.20735934
206	0xbec71116	-0.38880223
207	0x3a148d3c	0.00056667975
208	0x3e60f8fc	0.2196998
209	0x3f3ce6f9	0.73789936
210	0x3eb74d5d	0.3580121
211	0xbcafbbca	-0.02145185
212	0xbe9e863e	-0.30961794
213	0x3eb02678	0.3440435
214	0xbe9977ba	-0.29974157
215	0x3d59520e	0.05305677
216	0x3e8b301c	0.27185142
217	0x3e45ef3a	0.19329539
218	0xbe0243f8	-0.1272124
219	0xbe57bc76	-0.21067986
220	0x3f22fc22	0.63665974
221	0xbce0bfed	-0.027435267
222	0xbe838656	-0.25688428
223	0x3f167449	0.5877119
224	0xbeb23f61	-0.3481398
225	0xbe7007aa	-0.23440424
226	0xbf3dce56	-0.7414297
227	0x3d921d24	0.071344644
228	0x3efb8002	0.491211
229	0x3f48cf36	0.7844118
230	0x3ecfd0bb	0.40588936
231	0xbeb44cd7	-0.35214874
232	0xbce98230	-0.028504461
233	0x3ed49264	0.41517937
234	0xbef19e0d	-0.47190896
235	0xbebf6208	-0.3737948
236	0x3e119a25	0.14218958
237	0x3e15e505	0.14638145
238	0xbe76387d	-0.24044986
239	0xbf5354fe	-0.8255156
240	0x3efa417f	0.48878095
241	0xbe96efa8	-0.29479718
242	0xbeae2140	-0.34009743
243	0x3f168fb7	0.5881304
244	0xbe81dec5	-0.25365272
245	0xbd08796a	-0.033318914
246	0xbf0d951e	-0.5530566
247	0x3eba9f1e	0.36449522
248	0x3e170b3e	0.14750382
249	0x3ecbef05	0.39830795
250	0x3d0d3c90	0.034481585
251	0xbdfa487e	-0.12220858
252	0xbd3137f2	-0.043266244
253	0x3df77a84	0.12083915
254	0xbd1af91b	-0.03783522
255	0xbeb0742d	-0.34463635

lstm.bias_ih_l0 f4 [80]
0	0x3e9ca063	0.30591115
1	0x3d9cbe18	0.07653445
2	0x3e4aba24	0.1979757
3	0x3edc3df9	0.4301603
4	0x3f4c07a8	0.7969918
5	0xbd08cd2d	-0.033398796
6	0x3f576450	0.8413744
7	0x3d89084c	0.06691036
8	0x3f41b376	0.7566446
9	0x3f392121	0.72316176
10	0x3eaeab44	0.3411504
11	0x3ec2e779	0.38067225
12	0x3edad045	0.42737022
13	0x3ee91ffa	0.4553221
14	0x3f140e01	0.5783387
15	0x3ebc254b	0.36747202
16	0x3e094e1f	0.13408707
17	0x3ebcca53	0.3687311
18	0x3ee1c6fe	0.44097131
19	0x3f496cfe	0.78681934
20	0x3db51349	0.08841569
21	0xbd5c8590	-0.053838313
22	0xbe30b867	-0.17257844
23	0xbf02e9c4	-0.5113795
24	0xbe7d88b2	-0.24759176
25	0x3e1b1bef	0.15147375
26	0xbdbbc8c2	-0.09169151
27	0x3d2aed0e	0.04172998
28	0xbc94347f	-0.018091438
29	0xbed31e08	-0.4123385
30	0x3c7f56b6	0.015584638
31	0x3e4bc16b	0.19898002
32	0xbebd00bf	-0.36914632
33	0xbc8b439e	-0.017000016
34	0xbe345db5	-0.17613871
35	0x3e9c58fb	0.30536637
36	0xbddd1051	-0.10794128
37	0xbc3594a7	-0.011082805
38	0xbe903676	-0.2816655
39	0xbeb165d6	-0.34648007
40	0x3eb2b13e	0.3490085
41	0xbf2e58cc	-0.68104243
42	0xbecef3af	-0.4042029
43	0x3e8f0a42	0.27937514
44	0xbe819536	-0.2530915
45	0xbeb2e482	-0.34939963
46	0xbec4f34c	-0.3846687
47	0x3ecf5c42	0.40500075
48	0x3e8a30c1	0.2699032
49	0x3e539bb2	0.20664862
50	0x3f04d5e6	0.51888883
51	0xbf1f9743	-0.6234018
52	0xbea365fc	-0.31913745
53	0x3ecab09c	0.39587867
54	0xbe6b705d	-0.22992082
55	0xbeeb9ef2	-0.46019703
56	0x3e9536bd	0.29143324
57	0x3eba566b	0.36394057
58	0xbefa65e7	-0.4890587
59	0xbe685408	-0.22688305
60	0x3f9a8dee	1.2074564
61	0x3f4b54b7	0.7942614
62	0x3ec8bd9b	0.39207157
63	0x3f230997	0.6368651
64	0x3f751e16	0.9574903
65	0x3f57ae81	0.84250647
66	0x3f880624	1.0626874
67	0x3f7ee0cc	0.9956176
68	0x3fb0c684	1.3810582
69	0x3f69dc41	0.91351706
70	0x3f2058f2	0.6263572
71	0x3f6ee03e	0.93310916
72	0x3f2eabcc	0.6823089
73	0x3f4c6441	0.79840475
74	0x3efa0107	0.4882891
75	0x3f3dfdb0	0.7421522
76	0x3f536590	0.8257685
77	0x3f59cb4f	0.8507585
78	0x3fa46dcf	1.2846011
79	0x3f54a01e	0.8305682

lstm.bias_hh_l0 f4 [80]
0	0x3f04e4c0	0.51911545
1	0x3eaf1764	0.34197533
2	0x3e40acd6	0.18815932
3	0x3ee1e73e	0.44121736
4	0x3f494a29	0.78628784
5	0x3e78caf9	0.24296178
6	0x3f7a540b	0.9778449
7	0x3d78581c	0.060630903
8	0x3f092789	0.5357595
9	0x3f779449	0.9671064
10	0x3e99d63f	0.3004627
11	0x3e52e576	0.20595345
12	0x3e78752c	0.24263448
13	0x3f00663a	0.50155985
14	0x3e8b242a	0.27176028
15	0x3ee2f851	0.44330075
16	0xbba9fd91	-0.005187698
17	0x3eaacead	0.33360806
18	0x3eb55da7	0.35423014
19	0x3f35bd63	0.70992106
20	0xbb81e3c5	-0.00396392
21	0x3eac5356	0.3365733
22	0xbe72da85	-0.23716171
23	0xbeecb681	-0.4623299
24	0xbe8899fa	-0.26679975
25	0xbd737b38	-0.059443682
26	0xbe5eed6b	-0.21770255
27	0x3da9b518	0.08286494
28	0x3dd1ddc5	0.10247377
29	0xbf017526	-0.5056938
30	0xbdbfd74a	-0.09367235
31	0x3e3e2ff1	0.18572976
32	0xbce66cbd	-0.028128022
33	0x3e380a9d	0.17972799
34	0xbeda38d4	-0.4262148
35	0x3e12c74e	0.14333841
36	0xbd9da291	-0.07697023
37	0xbe026228	-0.12732756
38	0xbe3e0534	-0.18556672
39	0xbf06fe04	-0.5273135
40	0x3f22ce88	0.6359639
41	0xbeafc78d	-0.34331933
42	0xbe4a5713	-0.19759779
43	0x3e382888	0.17984211
44	0xbedb1824	-0.42791855
45	0xbf004093	-0.5009853
46	0xbe9533f5	-0.29141203
47	0x3efb6335	0.49099126
48	0x3ecbb9c1	0.39790156
49	0x3ece4ddd	0.4029378
50	0x3e798c61	0.24369957
51	0xbe952ad3	-0.29134235
52	0xbe8016ce	-0.250174
53	0x3e6abec9	0.22924341
54	0xbed3035b	-0.41213498
55	0xbf04d3c7	-0.51885647
56	0x3f17712d	0.5915707
57	0x3ee4ab89	0.4466212
58	0xbea82f55	-0.3284861
59	0xbea5be0b	-0.32371554
60	0x3f8d1e4f	1.1024874
61	0x3f15df15	0.5854352
62	0x3ec6e024	0.3884288
63	0x3f556bd1	0.8336764
64	0x3f47d6a0	0.78061867
65	0x3f53bf34	0.8271363
66	0x3f8f1aa8	1.118001
67	0x3f902f41	1.1264421
68	0x3f80b244	1.0054402
69	0x3f8ea7ea	1.1144993
70	0x3f3fef58	0.74974585
71	0x3f681bd5	0.9066747
72	0x3f495d26	0.7865776
73	0x3f261b47	0.6488537
74	0x3f2ddc07	0.6791386
75	0x3f13828c	0.57621074
76	0x3f74550a	0.9544226
77	0x3f53082b	0.8243434
78	0x3fa5c56b	1.2950872
79	0x3f756f93	0.95873374

linear.weight f4 [1, 20]
0	0xbf3e809f	-0.7441501
1	0x3f2bb326	0.67070234
2	0x3f09ac89	0.5377889
3	0xbf20da72	-0.6283332
4	0x3ef916f1	0.48650315
5	0x3f1d1e21	0.613741
6	0x3ef2a16d	0.47388783
7	0xbf26ecae	-0.65204895
8	0xbed866ea	-0.42266017
9	0xbf05e780	-0.52306366
10	0xbf01abaf	-0.50652593
11	0x3f304783	0.6885912
12	0x3f04be45	0.5185283
13	0xbefd2335	-0.49440923
14	0x3f343480	0.7039261
15	0x3f07af4d	0.5300186
16	0xbf096b4a	-0.53679335
17	0xbf2a37c8	-0.66491365
18	0x3f0ca38a	0.5493704
19	0x3f026956	0.5094198
