m1/time_series_pattern_recognition/src_final/parameters_20_4000/NN/model_2_0.pth (torch, 9367 bytes, 5 tensors)

lstm.weight_ih_l0 f4 [80, 1]
000000 04 27 1c be 9e e4 cd bd c4 86 89 3e ca 61 e5 3c
       -0.15249258 -0.10053371 0.2686063 0.028000731
000010 7c 48 0b bb 58 eb 8d 3e d2 a4 4f be 42 2a 06 3e
       -0.002125292 0.27718616 -0.20277718 0.13102058
000020 85 39 8b 3e 4f 4e 66 be a0 0b 3d 3d 1e aa f5 bd
       0.2719232 -0.2249081 0.046153665 -0.11995338
000030 0d 97 15 3e cd 37 91 3e 66 a7 15 3e 03 69 56 bd
       0.14608403 0.28362885 0.14614639 -0.05234624
000040 9a 84 e9 3d 85 26 a6 3d 6c e0 0f 3d 46 6f d2 3d
       0.11402245 0.08112816 0.035126135 0.1027513
000050 3e 4c b6 bd 4c b7 fa bb 55 6f 07 3e 8a e5 1f be
       -0.08901261 -0.007651245 0.13226064 -0.15614906
000060 d8 69 ef 3d 91 02 5c 3e d2 9e 44 be e8 66 88 be
       0.1169011 0.21485354 -0.1920121 -0.2664101
000070 f1 af d5 bc e0 96 e0 bd 84 8d 01 3d 09 7c ab 3d
       -0.026084872 -0.10966277 0.0316291 0.08373267
000080 e8 bf 39 3e 6d 6a fe bd b3 dd b1 3d 6c 07 b2 3d
       0.18139613 -0.12422643 0.08684864 0.08692822
000090 ff 02 41 3d bd 00 bb 3d 21 aa 1d 3c 97 fc 50 be
       0.047121998 0.09131 0.009623081 -0.20408855
0000a0 b4 b6 0b be 56 a3 94 3e 2d 1e ca 3d dc 93 97 3d
       -0.13643914 0.29030865 0.09869037 0.07401249
0000b0 c7 48 1d 3d e9 9d 4c 3e 96 cb 0c be e4 76 0c be
       0.038399484 0.19982113 -0.13749537 -0.13717228
0000c0 23 47 9b bd a2 04 14 3e 70 83 2c be fe a4 71 3e
       -0.075819276 0.14454892 -0.16847014 0.23598096
0000d0 9a b3 b3 3b b7 e2 dc bd 49 64 a4 bc 0b 50 5a 3e
       0.0054840567 -0.1078543 -0.020067351 0.21319596
0000e0 f2 e6 06 be 3d 52 1a be c0 4b c6 3d 33 a1 b1 bd
       -0.13174036 -0.15070434 0.09682417 -0.086733244
0000f0 34 14 5b be 9c a1 1a bd 17 11 6b 3e 1f 46 04 3e
       -0.21394426 -0.03775178 0.22955738 0.12917374
000100 0a d6 2d bc 9d 7d 13 bd 39 cc 8a be ab 48 7a be
       -0.010610113 -0.036008466 -0.27108935 -0.24441783
000110 56 92 07 bb 6e f7 0c be 5f f0 0b 3e 1c 9f 1a 3e
       -0.0020686588 -0.13766262 0.13665913 0.15099758
000120 35 45 05 3e eb a0 66 3e 69 1c 61 be b9 a3 6f 3e
       0.13014682 0.22522323 -0.21983494 0.23402299
000130 36 30 eb bd 63 7e ac bd 77 44 01 be ce 3b 7c 3d
       -0.11483805 -0.08422544 -0.12623774 0.06158047

lstm.weight_hh_l0 f4 [80, 20]
000000 9b 9d 0d 3e a0 37 26 be 70 a1 45 be 13 1e f0 3b
       0.13829653 -0.16232157 -0.19299865 0.007327804
000010 22 a9 6a bd 97 93 81 bd 6b 5c 21 be 4c c7 a7 bc
       -0.057290204 -0.06326979 -0.15757911 -0.020480774
000020 d6 29 79 3e bd 6c a0 3d 0c e7 8b bc 8d b7 17 be
       0.24332365 0.0783324 -0.017077945 -0.14816113
000030 c3 2a 08 3d bf 28 3a 3e 89 ea 2d be 89 8a 81 3b
       0.033243906 0.18179606 -0.16984 0.0039532823
000040 f4 37 37 bd 98 a4 20 3e a8 b5 65 bd 9c 7a 9c 3d
       -0.044731095 0.15687788 -0.056081444 0.076405734
000050 16 42 33 ba bf 0f 83 3e dd 7e e9 3d a8 fd 9a 3d
       -0.00068381557 0.2559795 0.114011504 0.07567912
000060 4e 0c ad 3d 82 a5 50 3e f2 37 71 bd e6 40 63 be
       0.084496126 0.20375636 -0.058891244 -0.22192726
000070 f4 61 ff bd 6b 2b 0c bd 97 e5 da 3c 6b 66 52 3e
       -0.12469855 -0.034221094 0.026720805 0.20546882
000080 16 01 05 3e c0 26 9c bd f9 50 16 be ca b2 ee bc
       0.12988696 -0.076245785 -0.14679326 -0.029137988
000090 6f ba 0e be 7f fd 95 3d 26 c0 97 3b 97 c3 8f bc
       -0.13938306 0.07323741 0.00463106 -0.01754932
0000a0 8b fb 1d 3e f1 45 41 3e e1 f8 29 3e 19 a3 36 bc
       0.15427987 0.18874337 0.16598846 -0.011147284
0000b0 63 80 c4 3d e7 75 ce bd 9f 84 e9 3c ed f9 15 3e
       0.095948 -0.10081082 0.028505621 0.1464612
0000c0 6b 94 68 be e6 0c c5 bd 02 39 89 be 39 9b 78 3e
       -0.22712867 -0.09621601 -0.26801306 0.24277963
0000d0 ab d7 2a 3d ed 62 17 be 08 ee c0 3d 44 01 ec bc
       0.041709583 -0.14783831 0.09420401 -0.028809197
0000e0 8b ca 5a be 6f 79 e5 3c e5 eb 26 3e ff 32 c4 3d
       -0.21366327 0.028012006 0.16300924 0.09580039
0000f0 57 80 04 bd eb aa d0 3d 0f b1 0d be 60 fc 13 3e
       -0.032348957 0.1018885 -0.13837074 0.14451742
000100 9a bc 29 be bb 0d 80 be 4e e0 41 3e cf 8c 49 3e
       -0.16575852 -0.25010476 0.18933222 0.1968262
000110 e6 4c 92 3c 99 5d cc 3d b9 b4 3d 3e b3 7e fa 3d
       0.017858934 0.0997879 0.18525971 0.12231197
000120 cc e2 42 3e ea 77 6a 3e 06 30 ec 3d 97 68 7c be
       0.19031829 0.22897306 0.11532597 -0.24649273
000130 05 0e 9d 3d 35 63 5c 3d 4e ac 22 be bc 1e b1 bd
       0.0766869 0.05380555 -0.15886042 -0.0864844
000140 1d e1 51 be 51 d5 14 be b1 9d 06 3e e4 b2 5f be
       -0.2049603 -0.14534499 0.13146092 -0.21845585
000150 1b 48 65 3e 70 ef 33 3e c6 8f d2 bd 24 d1 e4 3d
       0.22390787 0.17571807 -0.10281329 0.11172703
000160 b1 89 38 be 9a 4d a4 bd 57 8a 22 bd 96 fd 3e 3e
       -0.18021275 -0.08022614 -0.039682712 0.18651423
000170 10 d0 66 bd 44 80 9d 3c 5c a6 e1 3d 20 cd 2d 3e
       -0.056350768 0.0192262 0.11018059 0.1697278
000180 d0 e4 b3 bd 4a 49 31 bd 6f bc b2 bd a5 4a 80 3d
       -0.08783877 -0.043282785 -0.08727347 0.06264237
000190 63 ab 8c 3d 75 0f d5 bd f4 c8 85 bc ec 28 cd 3d
       0.06868627 -0.10403339 -0.016331173 0.10017571
0001a0 5a 3c 2c be 91 02 78 3e 32 c4 08 be 45 20 d6 3c
       -0.16819897 0.24219729 -0.13356093 0.026138434
0001b0 2e a3 42 be 0e 7f 85 3e d2 84 15 3e 79 25 4b 3e
       -0.1900756 0.26073498 0.14601448 0.19838513
0001c0 e6 70 7a 3e cd 79 ae 3c 95 7e 33 be 37 32 76 3e
       0.2445713 0.021298314 -0.17528756 0.24042593
0001d0 eb 7d 86 be 6f f0 59 bc 34 df 30 3e 73 2b 30 3d
       -0.26267943 -0.013301953 0.17272645 0.043010186
0001e0 b2 41 03 be 1b ce 94 3d a2 22 50 be a8 7b 41 be
       -0.1281803 0.07265874 -0.20325711 -0.18894827
0001f0 19 78 9f bd 93 30 ac bd 98 7c 18 3e 52 ee be bd
       -0.07786579 -0.08407702 0.14891279 -0.093228
000200 ef a0 52 3e 6d 34 2e bc e8 64 38 3e f3 42 6c bd
       0.20569204 -0.0106326165 0.18007243 -0.057681035
000210 cd d6 42 3e a3 bb 87 3c b6 50 a6 bb ee c0 8a be
       0.19027252 0.016568964 -0.0050755395 -0.2710032
000220 58 88 83 3e 14 39 42 3e d7 cf c9 3d e7 f5 87 3e
       0.2568996 0.18967086 0.098540954 0.26554796
000230 f8 fc 1b be d6 85 65 3b 54 89 da 3d 3a b4 40 be
       -0.15233219 0.00350224 0.106707245 -0.18818751
000240 f7 e6 0a 3e f0 0c 8a bd 7d 85 0c 3d 65 80 ff bd
       0.13564669 -0.06740749 0.03430699 -0.12475661
000250 55 20 5d 3e aa b4 d9 3d db 20 9d 3d 90 9c 08 3e
       0.21594365 0.10630162 0.07672282 0.13340974
000260 e0 cf 0e 3c 4d cb c3 bd b3 8f 4f be 92 b6 b0 3d
       0.008716553 -0.09560261 -0.2026966 0.086285725
000270 aa e7 a0 bd d7 42 ba 3d b3 b7 a1 3c b1 bc 3d 3e
       -0.078566864 0.0909478 0.019740915 0.18529011
000280 21 32 66 bd fe f9 32 3e 3d e7 e9 bd 16 b5 cd bd
       -0.05620015 0.17478177 -0.11421058 -0.10044305
000290 91 ee 1a 3e ce fe 38 bc d0 84 05 3e 69 61 12 bd
       0.15130068 -0.011291219 0.13038945 -0.03573743
0002a0 6f 54 84 be 9c a2 7a bd a0 98 57 bd 01 1b 94 bd
       -0.25845668 -0.061190233 -0.05263579 -0.07231713
0002b0 2d 63 8d 3e 00 a6 17 3e f4 d2 2f 3e 59 73 82 3d
       0.27614728 0.14809418 0.17170316 0.06369657
0002c0 9f 45 19 3d c9 1c 2b be b6 11 22 be d0 32 14 3e
       0.03741991 -0.167102 -0.15827069 0.14472508
0002d0 b0 c8 58 3d 23 3f a5 bd c1 2e 05 3e 72 40 d0 3d
       0.052925766 -0.08068683 0.13006116 0.10168542
0002e0 cd e9 c6 3d 84 ee 1e 3d e5 e8 55 bc 2a 5c 88 3e
       0.09712563 0.038801685 -0.013056015 0.26632816
0002f0 b1 f0 7a bd 4d 48 8b bd ab 55 87 3d 74 d7 b8 bc
       -0.061264697 -0.068009 0.06608137 -0.022563674
000300 50 dd 10 3c 9e e4 eb bc 45 fe 7c 3e 3b 1d 8b be
       0.0088418275 -0.028795537 0.24706371 -0.2717074
000310 8e 04 90 bd ca cf b7 bd 60 ab c9 bd 46 6d cc 3d
       -0.07032119 -0.089751795 -0.0984714 0.0998178
000320 36 b5 ed 3d 44 39 a3 3d 23 f8 15 3e 6d 3d 73 3e
       0.11606829 0.07969907 0.14645438 0.23753901
000330 8e 2c 03 3e d6 08 62 3d 33 e4 a5 3d 09 58 89 be
       0.12809965 0.055184208 0.08100166 -0.26824978
000340 b8 9b 99 bd 92 ef 8e 3e 64 8f 04 3e ea af 73 3e
       -0.07500404 0.27917153 0.12945324 0.23797575
000350 cf 76 ee bd 16 75 b1 3d 53 1c 1f bd 07 bc 91 3e
       -0.11643755 0.086649105 -0.03884537 0.28463766
000360 ca 52 17 3d d5 ae d7 bd a8 4f 88 3e 81 38 26 3e
       0.03694419 -0.105313934 0.26623273 0.16232492
000370 51 f9 13 3e 1a d1 8a 3e 01 7d a9 bd e5 6e 3f 3e
       0.14450575 0.27112657 -0.08275796 0.18694647
000380 10 00 a8 3c f3 1a ff 3d 23 f9 85 bd 13 ea 89 be
       0.020507842 0.12456312 -0.0654166 -0.26936397
000390 a6 5f 79 3d 0b 8d 13 3e fb 70 f2 3d 7b 84 db 3b
       0.060882233 0.14409272 0.118379556 0.0066991425
0003a0 68 ce 72 3e bc 37 e8 3c 96 57 21 be 31 35 44 bd
       0.2371155 0.028346889 -0.15756068 -0.04790229
0003b0 ab d9 19 be 1b 0e 8f be 95 d3 89 3e f5 8d 90 be
       -0.1502444 -0.2794045 0.26919237 -0.28233305
0003c0 41 9f 33 3e 76 49 f1 bd 35 a6 37 be 29 7b 1b 3e
       0.1754122 -0.1178159 -0.17934497 0.151837
0003d0 aa 23 56 bd 93 53 cd 3d 8b e1 52 be eb c7 ba 3d
       -0.052280106 0.10025706 -0.2059385 0.091201626
0003e0 1f 4a 12 bd 23 23 b0 bd 37 77 0f be 82 da 58 3d
       -0.03571522 -0.08600452 -0.1401032 0.05294276
0003f0 1a 7f 3f 3e 91 7f 59 bd e7 7f 56 3e eb 6a 3b be
       0.18700829 -0.053100172 0.20947228 -0.18302505

lstm.bias_ih_l0 f4 [80]
000000 c7 3d a4 bd aa 4c 12 be 04 67 36 3e 79 2e 07 3d
       -0.080195956 -0.14287058 0.17812735 0.033003304
000010 6c fc b0 3d 3f 95 b0 bd fc d6 61 bd e6 9b ba bb
       0.08641896 -0.086222164 -0.055136666 -0.005694854
000020 bf 63 60 3e 73 f2 35 be b2 21 30 3d a4 1d 46 3d
       0.2191305 -0.17768268 0.043000884 0.04836811
000030 26 49 02 3c ef d6 4e bd cf 37 3e 3e ec 7c 97 3d
       0.00795201 -0.050497945 0.18575977 0.07396874
000040 92 33 1e 3d 3f b3 ad bd fa f8 fc bd b5 60 8c bc
       0.0386234 -0.08481454 -0.12352176 -0.017135957
000050 aa bf 4b 3d d7 8e de bd f0 a3 a5 ba ce 47 64 be
       0.049743332 -0.10867088 -0.0012637358 -0.22293016
000060 5e 89 d2 bd f9 97 37 3e 33 ad bb bc c2 53 20 3d
       -0.10280107 0.17929067 -0.022909736 0.039142378
000070 15 d1 11 3e 75 11 96 3d 48 0c 0f bc a8 a0 09 3e
       0.14239915 0.073275484 -0.008730955 0.13440192
000080 03 ea c7 bd b6 9c 3b 3d d7 a9 4e 3d 07 54 1b 3e
       -0.09761431 0.045803748 0.05045494 0.15168773
000090 cd c2 12 be 2d 03 ef 3d 6a 7a 65 be 67 77 26 bd
       -0.14332123 0.116705276 -0.22409979 -0.040641215
0000a0 54 ff 31 be 32 5c ec bd 5e 04 83 3d 95 49 b7 bd
       -0.17382556 -0.11541022 0.06397317 -0.089495815
0000b0 c3 2a 9d 3d 5d 4c 80 bb 12 7e 01 be c2 00 08 be
       0.07674172 -0.003915353 -0.12645748 -0.13281539
0000c0 a0 76 21 be fb 76 44 be b8 da a3 3d 81 a9 ca bd
       -0.15767908 -0.19186012 0.08000702 -0.098956116
0000d0 22 78 1d 3e 09 ca 28 3d b4 f3 67 3e 0c 28 46 3b
       0.15377858 0.0412083 0.22651559 0.0030236272
0000e0 f8 04 0b be f0 39 c6 3c db ce 06 be d5 d7 61 3d
       -0.13576114 0.024197549 -0.13164847 0.055137474
0000f0 d6 e0 c0 3d 3c 78 82 3e d6 9e a8 3c 6c 9d 59 bd
       0.09417884 0.25482357 0.020583551 -0.053128645
000100 13 fa 35 bc 9e 3d 73 3e 98 52 50 be 75 4b c2 bc
       -0.011106986 0.23753974 -0.20344007 -0.023717621
000110 e4 82 8d 3e 95 d3 94 bd 24 d3 a6 3d 3b aa 8a 3e
       0.27638924 -0.072669186 0.08145741 0.27083
000120 8a 47 29 3d a3 ab 94 3d 16 8e 37 be 3d ee 56 3e
       0.04132799 0.072592996 -0.17925295 0.20989318
000130 ea 1e db bd 5d f4 82 3e 18 4c 4b 3d f0 81 96 bd
       -0.10699256 0.2557706 0.049633116 -0.07349002

lstm.bias_hh_l0 f4 [80]
000000 c2 32 08 3e d1 05 fb 3d b9 59 2c 3e 4a 78 34 3d
       0.13300613 0.12256969 0.16831101 0.04406003
000010 53 10 9b 3d e3 b3 42 3e 33 92 a6 3d f5 2f 44 bc
       0.07571473 0.19013934 0.08133354 -0.0119743245
000020 f5 26 e6 ba 6b b4 87 3d 22 a2 17 3b ed 61 01 be
       -0.0017559218 0.06626209 0.002313741 -0.12635012
000030 79 07 35 be 63 9d 8b bb 0c 70 f7 bd 95 64 19 3e
       -0.17678632 -0.0042607053 -0.12081918 0.14979775
000040 5c 22 ce bd e6 a1 f5 bd a1 4f 57 be 82 94 c0 bd
       -0.10065147 -0.1199377 -0.2102647 -0.094033256
000050 e9 a2 2e bd 57 40 90 3e 99 da 86 bd 97 0d 32 be
       -0.042635832 0.28174087 -0.06584663 -0.17387997
000060 ab df f9 bd 56 8a 01 bd 9f 7e 18 be 42 68 a4 3d
       -0.122008644 -0.031626068 -0.14892052 0.08027698
000070 01 a3 86 3e 8d 7f a4 bc ba a3 f1 bd 60 1e f8 3d
       0.26296237 -0.020080352 -0.117988065 0.121151686
000080 fb 3e 79 3e 0d 5a 78 3e 37 69 4c be 54 6e 29 bc
       0.24340431 0.24253102 -0.19962011 -0.010341246
000090 05 18 e6 bd 70 79 f1 39 bd 12 03 be aa c9 62 be
       -0.1123505 0.0004605758 -0.12800117 -0.22147241
0000a0 1e b0 e7 3d a5 a6 63 3e 29 89 8a 3e 1f 91 41 be
       0.113128886 0.22231539 0.2705777 -0.18903016
0000b0 88 df c8 bd 45 3b 1f be c6 fc 07 bd e8 cb 3f bd
       -0.0980826 -0.15549953 -0.033200048 -0.04682532
0000c0 7e 25 f3 bc 52 0f 91 3b f7 dc 47 be a0 b2 6e 3e
       -0.029680964 0.004426875 -0.19517885 0.23310328
0000d0 b2 16 64 3e e5 6f 00 be d6 76 35 3d d5 e2 63 bd
       0.22274283 -0.12542684 0.044302784 -0.055636246
0000e0 c2 52 28 3e f6 e2 da 3d eb f2 ec 3c c1 c8 2a bd
       0.1643782 0.106878206 0.028924426 -0.04169536
0000f0 bf c9 30 bc 56 66 3c 3d d4 c7 8a 3c 34 22 13 3e
       -0.0107902875 0.045996033 0.016940989 0.14368516
000100 5c 7d 40 be 74 80 63 3e 4d ae 17 be 25 5c db 3d
       -0.18797821 0.2221697 -0.14812584 0.107109345
000110 ec 38 cb bd 07 64 03 3e 52 c3 51 3e e4 42 7a 3e
       -0.09922966 0.12831126 0.20484665 0.24439579
000120 84 17 15 3e 6f 9c 9d bd 37 00 3e 3c af 07 34 3d
       0.14559752 -0.07695853 0.011596731 0.04395264
000130 4a 73 b1 3c fc db 6a 3e 7a 3e 76 3d cd f5 5f 3d
       0.02166142 0.2293548 0.060118176 0.054677773

linear.weight f4 [1, 20]
000000 f7 1c 5c 3c 38 b9 35 3e ef 6e 79 3e 4d 50 94 bd
       0.01343464 0.17746437 0.24358724 -0.07241879
000010 9e d9 d7 3d e6 1c 71 3e 54 d6 d1 3d 06 d7 28 3d
       0.10539554 0.2354618 0.10245958 0.041220687
000020 f9 f6 a2 bd 35 c0 29 be 8a 5f 19 be ad 26 3e 3e
       -0.079572625 -0.16577227 -0.14977852 0.18569441
000030 5b 09 14 3e e7 0b 83 be f7 47 fe 3d 17 3b 2c 3d
       0.14456694 -0.25595018 0.1241607 0.04204854
000040 bc 97 3e bb 36 8a 7f be 75 27 ac bc 01 bb 04 3e
       -0.002908214 -0.24955067 -0.021014908 0.12961961
