m1/time_series_pattern_recognition/src_final/parameters_20_4000/NN/model_2_1000.pth (torch, 9367 bytes, 5 tensors)

lstm.weight_ih_l0 f4 [80, 1]
00000000: 40d0 c0bd 9c5a 77bd ef29 44bd 7479 aabd
00000010: a548 95bd 199e 23bd 8116 32be 59f4 adbd
00000020: f394 013e 3807 1ebe 6591 60bd a3ba 51bd
00000030: 32a5 a13c 448c 2c3d 0922 0a3e c1a9 8fbd
00000040: 5236 ebbc 9eb9 f2bc e680 afbd 3006 833e
00000050: 0fd1 37bd 43f6 2ebc 471b 09bd 082a 12bf
00000060: da09 32bd 3a25 d93e f738 ffbe 4c76 11be
00000070: 9c98 97be c8c9 2ebf 8ed3 d4bb 771b 0c3e
00000080: 2953 02be a092 b1be a120 5abe 2d79 043f
00000090: 1fe7 f03d 2825 a8bd 3138 283b 2ef2 26bf
000000a0: a41d 59be 6293 6f3e d60c 2b3e 0415 0abe
000000b0: 30a0 293e f0f7 5c3e 698a 1d3e f076 4bbe
000000c0: 3575 1fbe 4ca2 14be b109 3ebe 3141 643e
000000d0: 8bb5 1a3e 18c2 18be 7630 263e 48f9 713e
000000e0: eac5 5bbe 6735 41be 2187 3c3e f50a f73d
000000f0: b8f2 d53d 7402 103e 6fa6 d73e 772f 863f
00000100: a57b 8a3e f861 543e 1d6d e53d 6161 183e
00000110: 3500 063f bb25 1f3e f558 6e3e 6ad4 c13e
00000120: 2456 803f a378 bd3e eea4 1ebe bc1a f73e
00000130: 0e71 933e 048e bdbd 1c7d 1d3e c95a 283f
-0.094147205 -0.060389146 -0.047891553 -0.083239466 -0.072892465 -0.039945696 -0.17391397 -0.08493871
0.12654476 -0.15432441 -0.05482616 -0.05120338 0.019732092 0.042125955 0.13489546 -0.070148
-0.028712425 -0.029629525 -0.08569507 0.25590658 -0.04487711 -0.010678831 -0.03347328 -0.57095385
-0.043466426 0.42411214 -0.49848148 -0.14205283 -0.2960862 -0.68276644 -0.006494946 0.13682352
-0.12727036 -0.34682178 -0.2130151 0.517474 0.11762833 -0.08210212 0.0025668258 -0.65213287
-0.21202713 0.23396066 0.16704115 -0.1348458 0.16565013 0.21578956 0.1538483 -0.1986959
-0.15572055 -0.14515036 -0.18558384 0.22290494 0.15108316 -0.14917791 0.16229424 0.2363025
-0.21462217 -0.18868028 0.18410923 0.12062637 0.104466856 0.14063436 0.42119166 1.0483235
0.27047458 0.20740497 0.11202452 0.14880897 0.52344066 0.15541737 0.23276122 0.37857372
1.0026288 0.370061 -0.15492603 0.48262584 0.2879719 -0.09255603 0.15379757 0.6576353

lstm.weight_hh_l0 f4 [80, 20]
00000000: cbf0 8a3e 7e62 4abe 0f94 59bc 6c30 1ebe
00000010: 4b98 c7bd 532b c6be f2ff cbbe d355 37bd
00000020: db03 b73e 4a51 763e eb54 f5bd 334d a7be
00000030: 5c46 823e 398b 833e 807e 5dbd fe5c 05be
00000040: 9c76 e9bc 9578 ac3e 9d09 b9be c728 02bd
00000050: 2fd9 073f 255a e6bd ca11 07be c183 e63e
00000060: 15ab 9abe ea16 8bbe a81b 4bbf 490c bd3d
00000070: e0e7 a93e 31e6 0f3f cdd3 b23e 4db7 94be
00000080: 176e e2bd c0be 993e d3a4 fbbe 2ede 0abf
00000090: 6b5b 4a3e 9a74 0e3f 601b 10bf b2e2 11bf
000000a0: 1e12 fd3e e153 dcbd 07ae 0cbd 5a8c 6b3e
000000b0: b2b4 34be 5934 94be 3fd4 b0bd cee8 a43e
000000c0: c54e fdbc 6406 f13d c9df cabd d85d b4bd
000000d0: a90c 09be 0e28 6e3c 2067 4dbe 1ced a3be
000000e0: f511 443d 4429 623e 890f b8bd 5362 b0bd
000000f0: 5ced eabd eb7c 6c3e cd9f 29bc 1579 0e3e
00000100: 3dda 963d a076 c6bd 1360 193e edb1 073e
00000110: 1d1a 74be 886a 583e c431 ef3a 077d 3e3e
00000120: 0ffe c13e 27a6 1f3c c566 b33e 322f 3bbe
00000130: e092 9ebd 0446 92be fea3 5a3b 35f5 a2bd
00000140: c8a9 04ba e8f7 5dbe 0b8c 1e3e 7a3a c8bc
00000150: 473f b73d 9038 643c 2736 8cbe cc2a fb3d
00000160: 3e29 15be 344d 533e a7e3 d2bc b67d 463d
00000170: ce6a b7bc 14b7 a73d c4af c63d 3fd5 be3c
00000180: bfcf 91bd e926 143d d724 88be a275 38be
00000190: 8b9e 6040 6b3e 6ac0 ef90 43c0 d4bd 0740
000001a0: cd47 44c0 2458 3ac0 9c43 36c0 ae2f 3e40
000001b0: a70c 4d40 2b0e 4540 3294 5340 a33e 46c0
000001c0: 3eaa 26c0 fb2e 4f40 9ae3 37c0 703c 37c0
000001d0: 9fef 4040 92a2 5040 9d45 42c0 c371 42c0
000001e0: e4b8 44be 3b30 c43d 9779 3fbd b7e4 b8be
000001f0: 4777 0a3d 227b f8bd a3b0 7f3e ee5f 77be
00000200: 487d dd3d d0e4 64be 5dcf e73c f43a 05be
00000210: fd47 a23e 2112 f1bd e5f2 053e a7c2 9dbe
00000220: f3dc 133e 4bdb a03d 3f4b 7a3e 0cb6 cf3e
00000230: f650 963d 6f78 2dbe d5c4 fa3d 4f17 7ebe
00000240: c303 663d a401 d2be c8ec 2fbe 1b0d 313d
00000250: cc22 b23e f75a fe3d 8cb0 163e 23ef ccbd
00000260: f391 eb3d feb3 be3d e705 07be da76 1abe
00000270: 7c77 da3c d5de 9e3e 948a 99be 0b6b e53d
00000280: b4e3 b73e fbb0 6ebd f02b 81be 5425 8b3e
00000290: f0c4 dbbd d680 82be a130 0dbe 1876 433e
000002a0: ccaf a63c 9af1 b93e 6d41 b63d 6e79 c3be
000002b0: 13cb 133e 120f 823e 591e 3abd 5b12 71be
000002c0: 8975 873e 9d35 6d3b 0a07 fbbe d180 42be
000002d0: 4307 dbbc 45df 743c 20bc 933e 94e9 6b3c
000002e0: d1aa 923e 1cea 0d3e a300 cdbd c95c 3f3e
000002f0: c64f 65be fa44 353d 4cf9 46bd 2104 8c3c
00000300: 0187 2a3e 50a8 48be ca80 f73e 390b 85be
00000310: c591 5fbe 1e13 a0be aa91 fb3c 9e5b 193e
00000320: e4e7 073f 4a02 32be 8c44 ea3d 7c7f df3e
00000330: a687 2fbd b7f4 13be c0a9 80be bb4f bfbd
00000340: 9f3d c63d b18c 163f 9454 8b3e 1bd9 91bd
00000350: c838 35be 6a43 813e afb8 72be 032f 233b
00000360: d07d 4f3e dc19 e53d c8a0 bbbd a6c7 d0bd
00000370: d70e 9b3f cacc 21bf e9eb 1ebf b761 203f
00000380: ac96 30bf 5043 44bf 386f 77bf 92b2 dd3e
00000390: b686 623f 9262 823f 8408 4f3f e117 66bf
000003a0: 848e 8ebe 3ba3 3a3f 41a9 58bf d532 99bf
000003b0: 98ef 103f 0cdb 203f d6a9 33bf f4cd 94bf
000003c0: 7d45 a43e 4122 32be c530 46be 2981 cc3e
000003d0: 096b b2bd 76d2 9e3d dc86 9abe efa1 0b3e
000003e0: 1248 0abd 2228 163e a514 26be 4e90 38bd
000003f0: a836 093e 3386 5fbd 1331 1f3e 0d6f 99be
0.27136835 -0.19764134 -0.013279929 -0.15448159 -0.097458445 -0.3870493 -0.39843708 -0.044759583
0.3574513 0.24054447 -0.119790874 -0.32676086 0.25444305 0.25692156 -0.054075718 -0.13023755
-0.02849894 0.33685747 -0.36140147 -0.03177717 0.5306577 -0.112476625 -0.1319038 0.45022395
-0.3020865 -0.2716592 -0.79339075 0.09230859 0.3318472 0.5621062 0.34927216 -0.29046097
-0.11056154 0.30028343 -0.49149188 -0.5424527 0.19761436 0.5564667 -0.5629177 -0.56986535
0.49427885 -0.10758186 -0.034345653 0.23002759 -0.17647055 -0.28946188 -0.08634233 0.32208866
-0.03092135 0.11768797 -0.09905965 -0.08806962 -0.13383736 0.014535917 -0.2005887 -0.32016838
0.047868688 0.22086054 -0.08987338 -0.08612504 -0.11471054 0.23094527 -0.010353041 0.13913377
0.073658444 -0.09690595 0.14978056 0.13251467 -0.23838086 0.21134388 0.0018249084 0.18602382
0.37889144 0.009744204 0.35039344 -0.18279722 -0.07742858 -0.28569043 0.0033361907 -0.07956926
-0.00050607 -0.216766 0.1548311 -0.024441946 0.08947616 0.013929501 -0.27385065 0.12264022
-0.14566514 0.2063492 -0.025743319 0.04845973 -0.022389796 0.08189216 0.097014934 0.023295043
-0.071197025 0.03616992 -0.26590607 -0.18013623 3.5096767 -3.6600597 -3.055721 2.1209612
-3.0668824 -2.9116297 -2.8478765 2.9716601 3.2038972 3.0789897 3.3059201 -3.097573
-2.6041408 3.2372425 -2.8732667 -2.8630638 3.0146253 3.2599225 -3.0354989 -3.0381935
-0.19211155 0.09579512 -0.046746816 -0.36111996 0.033805158 -0.12132861 0.24969725 -0.24157688
0.10814911 -0.2235291 0.02829712 -0.1301077 0.31695548 -0.11771036 0.13080938 -0.3081257
0.14439754 0.07854327 0.24442767 0.40568578 0.07339661 -0.16940473 0.12244574 -0.24813579
0.05615593 -0.41016877 -0.17180169 0.04322539 0.34792173 0.12419694 0.14715785 -0.10006549
0.11502447 0.093116745 -0.13185845 -0.15084401 0.026668303 0.31029382 -0.2998854 0.112020575
0.3591591 -0.05827425 -0.25228834 0.27176917 -0.10730922 -0.2548892 -0.13788082 0.19088018
0.020347498 0.3631714 0.08899198 -0.3817858 0.14432935 0.25402123 -0.045439098 -0.23542158
0.2645686 0.0036195286 -0.49028808 -0.18994452 -0.026736861 0.01494581 0.28854465 0.014398951
0.28645948 0.13858837 -0.10009887 0.18687738 -0.22393712 0.044255234 -0.04857759 0.017091813
0.16653062 -0.19595456 0.48340446 -0.25985125 -0.2183295 -0.31264585 0.030709106 0.14976355
0.5308821 -0.17383686 0.114388555 0.4365195 -0.042853974 -0.1444882 -0.2512951 -0.09341379
0.09679722 0.5880843 0.27212965 -0.07121488 -0.17697442 0.25246745 -0.23703264 0.0024899847
0.20262837 0.11186573 -0.09161526 -0.1019433 1.2113904 -0.6320311 -0.6207872 0.626491
-0.6897991 -0.7666521 -0.9665408 0.433003 0.884868 1.0186331 0.8087237 -0.89880186
-0.27843106 0.7290532 -0.8463326 -1.1968638 0.5661559 0.6283424 -0.70181024 -1.1625352
0.32084265 -0.1739588 -0.19354542 0.3994229 -0.087118216 0.07754986 -0.30181015 0.13635992
-0.033760138 0.14663747 -0.16218813 -0.045059495 0.13399756 -0.05457134 0.15546064 -0.29967538

lstm.bias_ih_l0 f4 [80]
00000000: 6fbe 37bc 01a0 82be 9eac 3e3e 5665 8d3e
00000010: 3fa2 073f 3946 0ebf a23f 1d3f be17 9ebd
00000020: d026 2c3f e80b 033f 44b9 043e 154c 21be
00000030: d1c4 df3e 0672 de3e 0332 ea3e 77e5 b4be
00000040: 4f85 b7bd c1ce e83d 963b 6a3e 7ed8 843f
00000050: bfc0 24be ffee 8abe a638 e5be b0c2 29bf
00000060: b3e9 f4be a438 be3e 9572 62be 3185 fdbd
00000070: 0c71 a1be 11d3 e7be 02ff 2fbe 46ee 493e
00000080: e520 34bf f083 90be 8079 ecbe d322 1c3f
00000090: 4576 6bbe 937c 7ebe 32f6 f9be 6cc2 cdbe
000000a0: fead cd3e 097e 4bbf 1bc9 09bf c2dd d13e
000000b0: a34b abbe cd8b febe a279 e3be be25 fd3e
000000c0: 089c a83e 89b7 953e 01ec 203f cffb 41bf
000000d0: 87f9 d1be 924a fb3e 8acc a5be 7b51 18bf
000000e0: 1714 d43e 8d07 eb3e 278b 14bf 08a3 90be
000000f0: 1747 593f 7262 2e3f 662e 6d3f ebd2 ad3f
00000100: a7dd 873f 0362 8c3f 0e45 8b3f 974c 753f
00000110: d763 d93f e952 823f 6d9e 383f d529 663f
00000120: 4b0f b63f 3f28 933f 4e23 b43e 10e9 433f
00000130: a5e2 7e3f 03ce 4b3f 900d 913f b24f ab3f
-0.0112148365 -0.25512698 0.18620536 0.27616376 0.5298194 -0.555759 0.6142522 -0.07719372
0.67246723 0.5119004 0.12961298 -0.15751679 0.43704847 0.43446368 0.4574128 -0.35331318
-0.089609735 0.1136756 0.22874293 1.0378568 -0.16089152 -0.27135465 -0.44769782 -0.66312695
-0.47834548 0.37152588 -0.22114022 -0.1237892 -0.3153156 -0.45278218 -0.17187122 0.197198
-0.70362693 -0.2822566 -0.46186447 0.6099064 -0.22994335 -0.24852209 -0.48820645 -0.40187395
0.40171808 -0.7948919 -0.5382249 0.409895 -0.33456144 -0.49716035 -0.44428736 0.49442858
0.32931542 0.2924159 0.62860113 -0.75774854 -0.41010687 0.4908033 -0.32382613 -0.5949933
0.41421577 0.45904198 -0.5802483 -0.28249383 0.848741 0.68118966 0.92648923 1.3579992
1.0614518 1.0967411 1.0880449 0.9581999 1.6983594 1.0181552 0.7211674 0.8990758
1.4223417 1.1496657 0.35183185 0.765275 0.9956458 0.79611224 1.1332264 1.3383696

lstm.bias_hh_l0 f4 [80]
00000000: 15d6 4e3e 34fe 283c 329f 343e 9c0e 933e
00000010: b6e4 043f bf0d 8fbe 5c2f 403f 17f4 aabd
00000020: 4635 e73e 137f 413f 5a1e b63d 7f1a aabe
00000030: 6a2f 813e 721e f63e dc74 1a3e 1b12 8ebe
00000040: 9860 6abe 82e0 a03d 4a69 113e 0401 763f
00000050: adac 81be fcd4 f33d c924 03bf 4e34 1dbf
00000060: 58bf febe 6676 243e c8bd b1be ba46 a9bd
00000070: ce6c 47be accf 0bbf 30f0 8fbe e25c 3c3e
00000080: 41a8 b9be 2f29 afbd b641 36bf de50 e53e
00000090: 7bbf 4bbe a7c2 babe 11c2 c8be 3a2c 15bf
000000a0: 674c 303f 3d12 eabe 0fca a9be c7e7 9e3e
000000b0: 4667 02bf 8214 26bf 4bba b3be 0596 143f
000000c0: 0225 ea3e 9537 fa3e 36f3 b43e 14f3 d9be
000000d0: 4faa aebe 94f9 a53e ee8b 01bf a055 27bf
000000e0: cbdf 363f b8ae 0a3f 75df d6be 1037 c2be
000000f0: e767 3e3f 29da f13e a93f 6c3f 0f04 c73f
00000100: 0473 623f 426a 8a3f 9459 923f 1665 8b3f
00000110: b34f a93f b80c 9c3f ce34 583f 6c65 5f3f
00000120: f167 c33f e803 803f 26ed 0a3f e86d 193f
00000130: a3e8 8f3f e40a 453f 2e65 923f ffb6 bb3f
0.20198853 0.010314513 0.17638853 0.28722084 0.51911485 -0.27940175 0.75072265 -0.08347338
0.45157832 0.75584525 0.08892508 -0.3322334 0.25231487 0.48070103 0.15083641 -0.27748188
-0.2288841 0.078553215 0.14200321 0.960953 -0.25327054 0.11905858 -0.51228005 -0.61407936
-0.4975536 0.1606079 -0.34715104 -0.08265443 -0.194751 -0.5461376 -0.28112936 0.18394807
-0.3626118 -0.08552777 -0.71194017 0.4478826 -0.19897263 -0.36476633 -0.3921056 -0.5827061
0.6886658 -0.4571704 -0.3316197 0.31036207 -0.5093883 -0.6487504 -0.35103068 0.5804141
0.4573136 0.4887053 0.35341805 -0.42568266 -0.3411431 0.32416975 -0.5060414 -0.6536503
0.7143523 0.5417285 -0.4196736 -0.37932634 0.7437729 0.47236755 0.9228464 1.5548114
0.8845675 1.0813677 1.1433587 1.0890224 1.3227447 1.2191381 0.84455574 0.8726413
1.5266095 1.0001192 0.5426811 0.5993333 1.124287 0.7696974 1.1437128 1.4665221

linear.weight f4 [1, 20]
00000000: da8d 27bf cd2f 383f 22e5 213f ced2 2bbf
00000010: 3a04 013f 443b 5b3f 48b9 073f b157 32bf
00000020: bf0e c3be 7d07 0fbf 7975 17bf 1285 443f
00000030: 7884 f83e b9fc f0be 5a20 313f 8b1a 433f
00000040: 7a5c 2cbf bbb2 26bf 1440 153f a5d3 de3e
-0.65450823 0.7194794 0.63240254 -0.6711854 0.50397074 0.8563731 0.5301709 -0.69665056
-0.38097188 -0.558708 -0.59163624 0.7676555 0.48538566 -0.47067812 0.6918999 0.76212376
-0.6732861 -0.6511647 0.583009 0.43520847
