m1/time_series_pattern_recognition/src_final/parameters_20_4000/NN/model_2_900.pth (torch, 9367 bytes, 5 tensors)

lstm.weight_ih_l0 f4 [80, 1]
-0.11098621 -0.036306184 -0.031168219 -0.12767613 -0.07221141 -0.01765098 -0.17231825 -0.07548683
0.203893 -0.14189847 -0.048315782 -0.04986974 0.040239755 0.061378703 0.20567237 -0.104290426
-0.03142681 -0.010193665 -0.086689316 0.34563592 -0.05839779 0.02801375 -0.04289241 -0.54686886
-0.025779994 0.43876368 -0.4487337 -0.13868003 -0.26479065 -0.6780324 -0.039403986 0.11663222
-0.09027894 -0.30657992 -0.16288288 0.4947798 0.0912401 -0.081032336 -0.001125492 -0.65534127
-0.20629859 0.23075987 0.16260543 -0.13676493 0.15952167 0.21142797 0.14764892 -0.20167966
-0.1542566 -0.14697216 -0.1770585 0.21742728 0.13616306 -0.14336047 0.15767021 0.23742537
-0.21043232 -0.18959342 0.18121804 0.12540813 0.08337388 0.16044246 0.44109583 1.0255842
0.29054314 0.22089894 0.11314594 0.16084763 0.5538935 0.21612677 0.24812615 0.35522842
0.97538376 0.34795502 -0.15515257 0.50854033 0.2841774 -0.09269226 0.18664908 0.65093756
00000000: bd4c e3bd cbb5 14bd 7e54 ffbc 88bd 02be
00000010: 93e3 93bd ca98 90bc 3274 30be d798 9abd
00000020: 54c9 503e d54d 11be c5e6 45bd 3644 4cbd
00000030: 71d2 243d 3c68 7b3d c79b 523e 3896 d5bd
00000040: 66b9 00bd 5403 27bc 2b8a b1bd 31f7 b03e
00000050: 8532 6fbd 187d e53c f4af 2fbd 99ff 0bbf
00000060: 9130 d3bc a2a5 e03e 6cc0 e5be 2302 0ebe
00000070: a492 87be 8893 2dbf 1366 21bd e0dc ee3d
00000080: 2ae4 b8bd 0bf8 9cbe c5ca 26be c753 fd3e
00000090: 17dc ba3d 48f4 a5bd 3f85 93ba 72c4 27bf
000000a0: f03f 53be 514c 6c3e 0a82 263e 1b0c 0cbe
000000b0: a659 233e 9380 583e 4731 173e 1d85 4ebe
000000c0: 71f5 1dbe df7f 16be d34e 35be 42a5 5e3e
000000d0: 546e 0b3e 16cd 12be 4d74 213e a31f 733e
000000e0: 927b 57be c724 42be 3991 393e fd6a 003e
000000f0: edbf aa3d 074b 243e 50d7 e13e 5846 833f
00000100: 12c2 943e 5533 623e 0fb9 e73d 3eb5 243e
00000110: f7cb 0d3f 5650 5d3e c814 7e3e 80e0 b53e
00000120: c0b2 793f 2927 b23e 51e0 1ebe b32f 023f
00000130: b37f 913e 71d5 bdbd f020 3f3e d8a3 263f

lstm.weight_hh_l0 f4 [80, 20]
0.29941496 -0.20279498 -0.04220268 -0.12254769 -0.12170234 -0.3820975 -0.43192238 -0.018909622
0.37634006 0.2693524 -0.09707139 -0.34306335 0.2309797 0.29040018 -0.079197094 -0.13186623
-0.009470523 0.35401982 -0.38411266 -0.06269928 0.5071762 -0.08266461 -0.0940763 0.42657855
-0.26925462 -0.23318648 -0.77450895 0.055030596 0.29037124 0.5287789 0.31454358 -0.25341815
-0.08326088 0.28304476 -0.44455612 -0.48966765 0.16171712 0.51964974 -0.52958286 -0.54416084
0.50632375 -0.12626386 -0.05805937 0.25426206 -0.19522636 -0.3044207 -0.10742025 0.34222955
-0.017890446 0.14341 -0.080365576 -0.09610582 -0.15774111 0.044572122 -0.21372987 -0.33383462
0.06837005 0.2366535 -0.10481559 -0.10522097 -0.11943739 0.24563807 -0.013177255 0.14987111
0.08597806 -0.07519746 0.14726865 0.13166979 -0.25403363 0.20983529 0.0061544273 0.20451978
0.37801647 0.011232501 0.3533493 -0.17398284 -0.08246258 -0.28570065 0.0032748892 -0.07431585
0.027323259 -0.22835012 0.12561296 0.013541216 0.07180221 0.0025896311 -0.30449733 0.15175404
-0.12868272 0.23124997 -0.0028819104 0.03350343 -0.04523161 0.11078951 0.083589904 -0.0014126189
-0.04152511 0.060713056 -0.28494263 -0.19904983 2.934886 -2.9746482 -2.4435365 2.043552
-2.5628736 -2.416088 -2.4659417 2.4094872 2.5614007 2.6103764 2.744506 -2.4520426
-2.1657672 2.6374617 -2.4070737 -2.507015 2.4183578 2.7146204 -2.5413144 -2.4734106
-0.14049068 0.049494494 -0.10602112 -0.30911672 -0.009081018 -0.15833542 0.21381691 -0.2037276
0.1455567 -0.17095298 0.0801623 -0.1572017 0.2718733 -0.06619638 0.09563657 -0.34279877
0.18975575 0.11895856 0.20135345 0.35815176 0.09799123 -0.18983139 0.092177786 -0.21556066
0.023142103 -0.43771768 -0.20458587 0.082874365 0.37224212 0.16027233 0.17633453 -0.1275392
0.09076897 0.13109052 -0.15288508 -0.16731209 0.053811174 0.3381938 -0.3244272 0.076239474
0.3755906 -0.06837631 -0.27799597 0.32156444 -0.13386531 -0.24117495 -0.16698724 0.21712637
0.03677177 0.395611 0.11928607 -0.37426022 0.12073941 0.28310412 -0.077242486 -0.23279436
0.2967716 0.02757425 -0.51611 -0.21575381 -0.030330716 0.018360136 0.29456824 0.010222914
0.29499468 0.15626095 -0.09616561 0.16983601 -0.24077131 0.038689405 -0.05514362 0.028353747
0.17589346 -0.19837488 0.49868387 -0.24093227 -0.22802244 -0.32304206 0.038895015 0.1524057
0.55665165 -0.20488368 0.07906134 0.4775888 -0.065699704 -0.1891865 -0.29465163 -0.060129847
0.12048051 0.6261582 0.3093618 -0.08855078 -0.21456753 0.28146258 -0.26674357 -0.025599008
0.23167555 0.14682199 -0.11380305 -0.13174419 1.27515 -0.6765278 -0.69616425 0.7980736
-0.77546096 -0.80128396 -1.0662732 0.49896038 0.95494825 1.1093919 0.89393187 -0.94061595
-0.39830336 0.8152683 -0.92871827 -1.2132763 0.6292545 0.70394784 -0.77244127 -1.2377317
0.3401214 -0.20647523 -0.20989949 0.4267805 -0.10640089 0.05661017 -0.33069932 0.16276817
-0.023750553 0.16687462 -0.13928376 -0.067900866 0.114653274 -0.023750527 0.14287546 -0.31655225
00000000: eb4c 993e 7da9 4fbe b8dc 2cbd 49fa fabd
00000010: 143f f9bd 49a2 c3be ee24 ddbe 5ae8 9abc
00000020: a5af c03e 8fe8 893e 5dcd c6bd 00a6 afbe
00000030: f185 6c3e 55af 943e 1632 a2bd f107 07be
00000040: 412a 1bbc 1642 b53e 6aaa c4be 7b68 80bd
00000050: 4dd6 013f 104c a9bd 13ab c0bd 8168 da3e
00000060: bedb 89be 70c8 6ebe 3846 46bf c367 613d
00000070: 8aab 943e 0e5e 073f db0b a13e 06c0 81be
00000080: ae84 aabd 3eeb 903e dc9c e3be b8b5 fabe
00000090: 2c99 253e c407 053f be92 07bf 204e 0bbf
000000a0: 6f9e 013f 504b 01be a9cf 6dbd a32e 823e
000000b0: 6be9 47be 08dd 9bbe 26ff dbbd b638 af3e
000000c0: fc8e 92bc 12da 123e b596 a4bd 21d3 c4bd
000000d0: e386 21be 4291 363d 01dc 5abe 5fec aabe
000000e0: 9905 8c3d 4c55 723e 8ea9 d6bd 187e d7bd
000000f0: 979b f4bd 8c88 7b3e 6ae5 57bc d077 193e
00000100: 4415 b03d 2001 9abd 98cd 163e 72d4 063e
00000110: b210 82be 10df 563e 14ab c93b a26d 513e
00000120: 608b c13e 8608 383c 33ea b43e 8f28 32be
00000130: 24e2 a8bd 5b47 92be 869f 563b e932 98bd
00000140: 07d5 df3c 9dd4 69be afa0 003e fadb 5d3c
00000150: 090d 933d cdb6 293b 13e7 9bbe 6965 1b3e
00000160: 67c5 03be cbcc 6c3e 6fde 3cbb e53a 093d
00000170: c844 39bd 9ce5 e23d 2f31 ab3d a027 b9ba
00000180: 3c16 2abd 41ae 783d 00e4 91be b8d3 4bbe
00000190: 2cd5 3b40 a360 3ec0 e762 1cc0 8ec9 0240
000001a0: 1f06 24c0 30a1 1ac0 fdd1 1dc0 0a35 1a40
000001b0: fded 2340 6810 2740 fca5 2f40 44ee 1cc0
000001c0: ee9b 0ac0 2ccc 2840 7f0d 1ac0 ef72 20c0
000001d0: 60c6 1a40 57bc 2d40 e5a4 22c0 5c4c 1ec0
000001e0: cadc 0fbe bdba 4a3d 9a21 d9bd 8c44 9ebe
000001f0: 8dc8 14bc ae22 22be d2f2 5a3e f89d 50be
00000200: d10c 153e 4c0e 2fbe 222c a43d 7cf9 20be
00000210: fa32 8b3e f891 87bd 1bdd c33d 5283 afbe
00000220: 554f 423e 8ca0 f33d 992f 4e3e ab5f b73e
00000230: a0af c83d 2963 42be b5c7 bc3d efbb 5cbe
00000240: 8294 bd3c 881c e0be f57e 51be 09ba a93d
00000250: 8596 be3e 6e1e 243e 0a91 343e a399 02be
00000260: 15e5 b93d 983c 063e e88d 1cbe dc53 2bbe
00000270: 1b69 5c3d bd27 ad3e 521b a6be 7123 9c3d
00000280: 694d c03e e108 8cbd 7d55 8ebe 18a4 a43e
00000290: fd13 09be 91f6 76be b4fe 2abe 6056 5e3e
000002a0: ff9d 163d 868d ca3e 414c f43d 099f bfbe
000002b0: 3946 f73d 06f3 903e 4f31 9ebd a561 6ebe
000002c0: 72f2 973e 65e3 e13c c91f 04bf 91ee 5cbe
000002d0: 1f78 f8bc ff67 963c a6d1 963e 027e 273c
000002e0: 8b09 973e df02 203e 7af2 c4bd 7ee9 2d3e
000002f0: c18c 76be c878 1e3d 47de 61bd 1e46 e83c
00000300: 6a1d 343e c922 4bbe 7e53 ff3e f3b6 76be
00000310: b77e 69be c565 a5be 6150 1f3d 3d10 1c3e
00000320: b980 0e3f 07cd 51be e9ea a13d 8586 f43e
00000330: 918d 86bd 1bba 41be 94dc 96be b74a 76bd
00000340: 7cbe f63d e74b 203f ab64 9e3e 1d5a b5bd
00000350: 97b7 5bbe dd1b 903e 9d92 88be 03b5 d1bc
00000360: 5b3c 6d3e 8158 163e 9311 e9bd f3e7 06be
00000370: 1d38 a33f ed30 2dbf d237 32bf 8d4e 4c3f
00000380: 9c84 46bf f220 4dbf a47b 88bf bc77 ff3e
00000390: 7d77 743f 8e00 8e3f b8d8 643f 35cc 70bf
000003a0: 6bee cbbe 6cb5 503f 7bc0 6dbf a34c 9bbf
000003b0: d316 213f ed35 343f b6be 45bf fe6d 9ebf
000003c0: 6424 ae3e 3e6e 53be e4ef 56be f982 da3e
000003d0: b6e8 d9bd 11e0 673d 6c51 a9be b3ac 263e
000003e0: 8590 c2bc 2ee1 2a3e 67a0 0ebe 9c0f 8bbd
000003f0: 56cf ea3d 7790 c2bc f24d 123e 2313 a2be

lstm.bias_ih_l0 f4 [80]
-0.025429644 -0.22094637 0.19813056 0.29197547 0.54250634 -0.5095959 0.63587093 -0.05279691
0.70738107 0.5446698 0.1594158 -0.14487845 0.46963462 0.39700165 0.52755064 -0.26778665
-0.097353935 0.14158213 0.2560516 1.0339009 -0.14836195 -0.21686779 -0.43604234 -0.6591998
-0.44213474 0.39337638 -0.20442908 -0.08842189 -0.27077612 -0.46464822 -0.18003722 0.20211615
-0.6517346 -0.2338423 -0.44159693 0.6045655 -0.22620323 -0.22979777 -0.47389925 -0.4352852
0.39165062 -0.7742609 -0.5229717 0.39184347 -0.32237598 -0.48237196 -0.43363994 0.4848325
0.3302649 0.28116393 0.6234117 -0.7403514 -0.41445008 0.46736988 -0.32789123 -0.57589364
0.39892718 0.4471518 -0.56879455 -0.26153657 0.80921614 0.6847463 0.8854979 1.2867817
1.0310367 1.0868168 1.0631381 0.9533657 1.6554208 1.0392905 0.7230963 0.8255975
1.3552661 1.0481913 0.38946474 0.80320954 0.9443561 0.8133754 1.1693014 1.2586966
00000000: d451 d0bc c43f 62be bde2 4a3e cf7d 953e
00000010: b2e1 0a3f e074 02bf 70c8 223f 9341 58bd
00000020: ed16 353f 7b6f 0b3f e53d 233e 045b 14be
00000030: f373 f03e cd43 cb3e 8f0d 073f 551b 89be
00000040: 8061 c7bd e8fa 103e 3219 833e dd56 843f
00000050: 32ec 17be 9712 5ebe f140 dfbe 51c1 28bf
00000060: 7c5f e2be a168 c93e db55 51be 8916 b5bd
00000070: 2ba3 8abe 5fe6 edbe ad5b 38be 89f7 4e3e
00000080: 14d8 26bf 5b74 6fbe fe18 e2be cec4 1a3f
00000090: d2a1 67be 1b50 6bbe eca2 f2be b4dd debe
000000a0: 6e86 c83e f635 46bf 79e1 05bf b59f c83e
000000b0: 770e a5be 75f9 f6be 0e06 debe f73b f83e
000000c0: 7b18 a93e b8f4 8f3e e997 1f3f ab87 3dbf
000000d0: cd32 d4be 1b4b ef3e 5ce1 a7be c46d 13bf
000000e0: 2f40 cc3e 15f1 e43e 859c 11bf 1fe8 85be
000000f0: ca28 4f3f 894b 2f3f feaf 623f 43b5 a43f
00000100: 03f9 833f d01c 8b3f e914 883f c60f 743f
00000110: d4e4 d33f 7907 853f d71c 393f 5c5a 533f
00000120: 5c79 ad3f 222b 863f ec67 c73e 249f 4d3f
00000130: 52c1 713f 5f39 503f abab 953f f81c a13f

lstm.bias_hh_l0 f4 [80]
0.1877741 0.04449476 0.18831374 0.30303225 0.5318019 -0.2332373 0.77234155 -0.059076585
0.4864937 0.78861463 0.118727796 -0.31959477 0.28490067 0.44323915 0.22097416 -0.19195664
-0.23662841 0.10645975 0.16931193 0.9569989 -0.24074057 0.17354526 -0.50062585 -0.6101522
-0.46134233 0.18245788 -0.3304394 -0.047287215 -0.15021186 -0.5580012 -0.2892943 0.18886621
-0.31072056 -0.03711356 -0.69167286 0.44254166 -0.19523272 -0.3460429 -0.37779987 -0.61611706
0.6785997 -0.43653768 -0.31636727 0.29231048 -0.49720296 -0.63396263 -0.34038323 0.57081866
0.45826307 0.47745344 0.34822878 -0.40828627 -0.34548625 0.30073634 -0.5101057 -0.6345507
0.6990646 0.5298404 -0.408218 -0.35836902 0.7042481 0.4759226 0.88185513 1.4835938
0.8541582 1.0714436 1.1184522 1.0841874 1.279806 1.2402736 0.8464847 0.7991631
1.459534 0.8986437 0.58031565 0.63726795 1.072994 0.7869605 1.1797878 1.3868489
00000000: db47 403e 2340 363d 51d5 403e 0b27 9b3e
00000010: 2b24 083f c2d5 6ebe 2db8 453f 4afa 71bd
00000020: b415 f93e a6e2 493f 8f27 f33d eda1 a3be
00000030: 80de 913e 3ef0 e23e 0d47 623e 4890 44be
00000040: b84e 72be 9207 da3d 1b60 2d3e e1fd 743f
00000050: b284 76be d9b5 313e 0429 00bf ef32 1cbf
00000060: 1035 ecbe 3dd6 3a3e 5a2f a9be 3db0 41bd
00000070: 23d1 19be 2bd9 0ebf 621e 94be 2566 413e
00000080: c416 9fbe 6304 18bd 7911 31bf d294 e23e
00000090: 16eb 47be 892c b1be fc6e c1be d9b9 1dbf
000000a0: b6b8 2d3f de81 dfbe e4fa a1be b8a9 953e
000000b0: 6391 febe 604b 22bf b646 aebe 2c21 123f
000000c0: 75a1 ea3e c774 f43e 0b4b b23e e60a d1be
000000d0: 93e3 b0be 1dfa 993e 4a96 02bf ea71 22bf
000000e0: e6f5 323f 9fa3 073f f301 d1be 257c b7be
000000f0: 9a49 343f 21ac f33e 42c1 613f 67e6 bd3f
00000100: 1daa 5a3f 1025 893f 7129 8f3f a7c6 8a3f
00000110: afd0 a33f 49c1 9e3f 39b3 583f f495 4c3f
00000120: 03d2 ba3f 830d 663f 918f 143f fe23 233f
00000130: de57 893f 3e76 493f 4903 973f 4484 b13f

linear.weight f4 [1, 20]
-0.62544364 0.7028175 0.6273349 -0.66501194 0.4794319 0.8540046 0.51232326 -0.70611286
-0.39232126 -0.55629784 -0.5987335 0.73931944 0.48794457 -0.4372962 0.7123868 0.76686126
-0.6531719 -0.6496612 0.5740613 0.42121175
00000000: 131d 20bf d9eb 333f 0599 203f 393e 2abf
00000010: 1978 f53e 0ca0 5a3f 9e27 033f d0c3 34bf
00000020: 55de c8be 8969 0ebf 9946 19bf 0a44 3d3f
00000030: dfd3 f93e 4ae5 dfbe fb5e 363f 0551 443f
00000040: 4636 27bf 3250 26bf aef5 123f 11a9 d73e
