m1/time_series_pattern_recognition/src_final/parameters_20_4000/NN/model_1_100.pth (torch, 9367 bytes, 5 tensors)

lstm.weight_ih_l0 f4 [80, 1]
00000000: 5c2f e23d d7f4 ce3e 942b 55bc 4d28 1dbd
00000010: f757 81bd 7f99 65bd 7742 0bbd da53 803e
00000020: 1468 ee3e 8211 9e3e d522 173f c04f 2c3f
00000030: 144a b23d 6177 ff3d b3bd be3b d29f f63d
00000040: 3871 193d e476 633e 1a7c 193e 08c9 acbc
00000050: 2bc5 09bf 5ae4 84bf 0e88 1abf d793 0dbf
00000060: 1527 4bbf 6b38 dfbe 814d 1ebf 9cdd 953d
00000070: 766c 21bf d722 14bf 240a c6be cb95 1abf
00000080: 9c90 cfbe 305a 0fbf e3d7 09bf 1f3a 0ebf
00000090: d84f 8cbe 4715 08bf 9d03 1cbf 83f7 2dbf
000000a0: 255d 2e3e 5a2b 123e c612 bf3d e1e9 323e
000000b0: a50d 2d3e e9d9 333e 4a6e 24be 7ed8 6dbe
000000c0: b7f0 3d3e d9a9 003e b7e6 0dbe 61a1 233e
000000d0: b7a8 9abe 202e 223e 509a 253e 46ea 28be
000000e0: ab46 17be a32e 05be 44c7 173e 419f 403e
000000f0: cff3 f13d 0ef0 623e d617 8c3d d17a a03f
00000100: 1ecc b43e 273a 123f 5677 513f f34e aa3e
00000110: 46a4 393b ef1b 853e 5755 a83e a6fa a9bd
00000120: 7d8d 973d c325 823f a992 4c3f 7675 3b3e
00000130: 7555 5a3f 2eff c13e 272a dd3e b461 873c
0.11044189 0.40421173 -0.013010878 -0.038368512 -0.06315606 -0.05605459 -0.033998933 0.25063974
0.4656378 0.30872732 0.59037524 0.6730919 0.087055355 0.124739416 0.0058209538 0.12042202
0.03746149 0.22213322 0.14988747 -0.021091953 -0.5381648 -1.0382187 -0.6036385 -0.5530371
-0.7935651 -0.4359773 -0.6183701 0.07317659 -0.63056123 -0.5786566 -0.38679612 -0.60384816
-0.40540016 -0.5599699 -0.5384504 -0.55557436 -0.27404666 -0.53157467 -0.60943013 -0.679558
0.1702772 0.1427435 0.093297526 0.1747203 0.16899736 0.17563595 -0.16057697 -0.23227116
0.18548857 0.12564792 -0.13857542 0.1597953 -0.30206844 0.15837908 0.16172147 -0.16495618
-0.14773051 -0.13006072 0.14822108 0.1881075 0.11814081 0.22161886 0.06840484 1.253748
0.3531198 0.57119983 0.8182272 0.33263358 0.0028326674 0.25997874 0.3287761 -0.082997605
0.074000336 1.0167774 0.79911286 0.18306527 0.8528665 0.3789 0.43196222 0.01652608

lstm.weight_hh_l0 f4 [80, 20]
00000000: aaf4 f33e 7663 1c3f a864 f23e db39 1e3e
00000010: 49bc c73d a81c 3b3f daea abbe 65c9 16c0
00000020: f1a5 133f 6f11 cb3e 6b31 96be 7c8d 373e
00000030: a43a 15c0 bf39 fc3e 3785 923e 56a8 e3be
00000040: 2186 f0be 3305 3ebf 0269 a73e 7768 bf3e
00000050: 0f78 2bbf cfb7 5abf deb7 63be cf0d 3abf
00000060: 8d04 14bf 4f18 fdbe f2ec 0b3f b447 483e
00000070: ea7b fbbe 2e18 51be a144 913e acd9 56bf
00000080: 5465 ea3d f6a7 41bf 1887 20bf 756c e73e
00000090: 4b4d 013f b305 133f aaea 16bf 3c5f 44bf
000000a0: 7705 04be b241 dbbe 6e95 60be a11f 7abd
000000b0: ee8a 36be ee4e 3bbe e7d9 62bd 071f 803d
000000c0: af1e efbd e55d 8dbe 7017 e6bc 47f9 053c
000000d0: 6f13 813e 1080 8abe 10f7 96be d3e1 f0bd
000000e0: 5370 143d 9a62 20be 5de5 2fbe a57f 1d3d
000000f0: 28ea d5be 4045 15be d58e 20be d0b8 89be
00000100: df4f 75be 949b 54be 808a f43d 17f8 20c0
00000110: 15f9 2d3e b0d1 a2be 6833 eb3c cc92 f2be
00000120: 71f7 14c0 1831 56be 90b9 1bbe 8b06 c63e
00000130: 4fa7 ca3e 8730 433e 0b60 18be e76a 30be
00000140: 9f09 afbe 248d 323e e397 0e3f 2641 34bd
00000150: 94be d3be cea3 e3bc ff61 f33e a3be 15c0
00000160: 9760 17bb bdcf a93c 68d7 e53d f4c7 5dbe
00000170: 1184 1cc0 c207 66be d7ee 87be e466 c93e
00000180: afba 9f3e 6f4a 7abd 7e6b 98be 2859 27be
00000190: 1bbb 96bf 11a7 45bf b21b 16bf 0a5b 91bf
000001a0: af8a c8bf 0063 78bf 7011 c33f 6836 3dbf
000001b0: 3120 aebe a94b 82bf 4dd0 6c3f 191a 8bbf
000001c0: 6f25 15bf 2520 a8bf d55d b8bf 7706 913f
000001d0: ab0b 803f 03ad 493f 479f a2bf 80fb b7bf
000001e0: c032 673f cada 5f3f 3326 7f3f eb9c 603f
000001f0: 86b0 633f 4372 843f 688e 38bf da06 1cc0
00000200: 9d3e 723f f4c5 5b3f e231 d4be 5760 173f
00000210: b0b6 09c0 eeb5 4f3f 8da5 063f 224e 01bf
00000220: ecee f5be 726c 63bf 5821 1b3f b86f 463f
00000230: 6a17 ef3d 5fe8 58bd e1cc 9abe 0488 e1bd
00000240: ba56 0b3e eb20 bebe 8a20 763d 3854 e1bd
00000250: 4b2e 5a3d c562 77bd 8901 bb3d 1ca5 fdbd
00000260: 716c ca3e c2ec e0bb ee96 503e f02f b33d
00000270: c977 4abe 91fc 9a3d 1da9 2f3e 6f15 bf3d
00000280: 5372 7dbf d2a7 3fbf 6ba8 01bf 5105 a4bf
00000290: d11a 9abf 8309 6abf 33f0 a93f 9e72 50bc
000002a0: 63d8 70bf 89fb 79bf 3a87 4c3f d9f3 9bbf
000002b0: 33da bcbc e20f 86bf 2389 87bf f5ef 843f
000002c0: 0472 6d3f 058a 693f bfdc 6abf 3b04 acbf
000002d0: 827c 43bf 0354 bebe 7f3b bcbe 5429 54bf
000002e0: 6410 41bf 2ac9 3dbe 82b1 3b3f c6c7 d2be
000002f0: e973 bdbe 130f 9ebe 3beb f03e 41fe 14bf
00000300: bd35 9d3d 11a3 3cbf 24f8 48bf 111d ca3e
00000310: 60d6 323f 0680 b93e f0b3 19bf e92f 03bf
00000320: 0544 cc3c 2571 0bbe 45fe 11be 2e48 80bd
00000330: f2bf 6f3d bad6 763e 3d57 f2bd 8bbb 88bf
00000340: 5a2b 2f3e 5e8d 76ba 0240 8a3c 9fc2 ccbc
00000350: d354 f5be b89b 07be 84d6 c2be 9b0d ef3d
00000360: 7cbb 44bd 4429 65bd 7683 58be 7d82 ae3d
00000370: 8b79 1b3f 17dd 473f ef95 fa3e e4fc cd3e
00000380: 7959 cd3e 3373 3a3f d5a7 35bf 8829 08c0
00000390: e4ad 813f 3f7c 9c3e 3762 b5be 54f5 003f
000003a0: e04e ccbf c60f f13e c573 3e3e d5e6 32bf
000003b0: a1e2 2bbf 8948 42bf 13c9 023f c7d4 b13e
000003c0: 1014 ddbd e06c a3be fe67 3fbb 6685 fe3e
000003d0: 15f4 383e 22be c23e 0fc1 19be 38a6 d3bc
000003e0: ca00 93be 5541 84be 3cd3 153e 099c c03e
000003f0: 29f4 483d ca73 c83e 0c16 7d3e 70bd c2be
0.476476 0.61089265 0.4734242 0.15451758 0.097527094 0.730906 -0.33577615 -2.3560421
0.5767508 0.39661738 -0.29334578 0.17925066 -2.3317041 0.49262807 0.2861726 -0.44464368
-0.46977332 -0.74226683 0.32697302 0.37384388 -0.6698007 -0.8543672 -0.22238109 -0.7267732
-0.57819444 -0.49432608 0.54658425 0.19558603 -0.49117976 -0.2041938 0.28372672 -0.8392589
0.11445108 -0.75646913 -0.62706137 0.45199934 0.50508565 0.5743057 -0.5895182 -0.76707816
-0.1289271 -0.4282356 -0.21932003 -0.06106532 -0.17826435 -0.18291828 -0.05538359 0.06255918
-0.11675774 -0.27610698 -0.028087348 0.008177108 0.2521014 -0.2705083 -0.2948537 -0.117618226
0.036239933 -0.15662614 -0.17177339 0.03845181 -0.4178021 -0.14577198 -0.15679486 -0.26898813
-0.2395625 -0.20762473 0.11940479 -2.5151422 0.16989549 -0.31800604 0.028711036 -0.47377622
-2.3276026 -0.20917165 -0.15207505 0.38676867 0.3958077 0.1906148 -0.14880387 -0.1722828
-0.34187028 0.17436653 0.5570051 -0.044007443 -0.41356337 -0.02778807 0.47535703 -2.3397605
-0.0023098344 0.02072894 0.11222726 -0.21658307 -2.4455607 -0.22463897 -0.26549408 0.39336312
0.31197116 -0.06110614 -0.2976951 -0.16342604 -1.177585 -0.7720805 -0.5863601 -1.1355908
-1.5667323 -0.9702606 1.5239697 -0.7391114 -0.34008935 -1.017934 0.9250534 -1.0867339
-0.58260244 -1.313481 -1.4403635 1.1330098 1.0003561 0.7877962 -1.2704858 -1.4373627
0.90311813 0.8744322 0.9966766 0.8773944 0.8894123 1.034737 -0.72092295 -2.4379182
0.9462679 0.8584893 -0.41444308 0.5913138 -2.1517754 0.8113698 0.5259636 -0.50509846
-0.48033845 -0.8883735 0.60597754 0.7751422 0.11674388 -0.05295598 -0.30234435 -0.11012271
0.13607302 -0.3713449 0.060089625 -0.110023916 0.053266805 -0.06039693 0.09131152 -0.12385008
0.3953586 -0.006864161 0.20370075 0.08749378 -0.19772257 0.075677045 0.17154355 0.0933026
-0.9900257 -0.7486545 -0.5064761 -1.2814122 -1.2039434 -0.91420764 1.3276428 -0.012722639
-0.9408018 -0.9764944 0.7989384 -1.2183791 -0.023053264 -1.0473597 -1.0588726 1.0385729
0.927521 0.91226226 -0.9174308 -1.3438791 -0.7636186 -0.3717347 -0.36764142 -0.8287556
-0.75415635 -0.18533769 0.7331773 -0.4116804 -0.37002495 -0.30870876 0.47054467 -0.5820046
0.076762654 -0.7368632 -0.7850363 0.394753 0.6985836 0.36230487 -0.6004019 -0.5124498
0.024934778 -0.1361738 -0.14257152 -0.06263767 0.058532663 0.24105349 -0.11833046 -1.0682234
0.17106381 -0.00094052206 0.016876224 -0.024995146 -0.47916278 -0.13242996 -0.38054287 0.11672517
-0.04803036 -0.055947557 -0.21143898 0.085209824 0.60732335 0.7807173 0.48942515 0.40232003
0.40107325 0.7283203 -0.70959216 -2.1275349 1.0131192 0.30563542 -0.35426494 0.5037434
-1.5961571 0.47082347 0.1859885 -0.6988347 -0.67142683 -0.7589193 0.51088065 0.3473265
-0.10794842 -0.31919003 -0.0029206271 0.4971115 0.1806186 0.38035685 -0.15015052 -0.025836095
-0.2871154 -0.25831094 0.14631361 0.37619045 0.049060974 0.3915084 0.24715441 -0.38035154

lstm.bias_ih_l0 f4 [80]
00000000: 5146 4a3e 13a6 a63e 2e03 b13d 644e 43be
00000010: 64d8 8b3d ecb0 653e 12c6 113e 9287 fa3d
00000020: c75e 9b3e 2223 0d3f 9407 453f b5fc c43e
00000030: f8a2 9e3e 3c60 493c e269 e03d 57aa 3b3e
00000040: 36f4 873e 0cf6 ef3e 1c59 103f a67c fcbc
00000050: 9fd7 9abe 9572 9abf 15c8 76bf 0e60 31bf
00000060: 9e28 2cbf f5b3 2ebf 49d6 81bf 6a4f aa3d
00000070: 1e1f 7ebf 3cf3 8ebf 8a53 8dbf 665c 3dbf
00000080: 0ed1 95be 3214 68bf a487 73bf 9677 3ebf
00000090: 3ef2 4ebf bd63 45bf 1162 f9be 15e7 5dbf
000000a0: 027c dabe a2ad 9dbe 0339 bfbe a5ae abbe
000000b0: a9cd b3be ee8e a7be 1d64 153f 6710 593d
000000c0: c7e2 e7be e3b6 1abe 29d3 953e 3af9 c2be
000000d0: b535 49bf 786d cbbe bf1e 04bf 61b1 9a3e
000000e0: fd96 b23e 0cf6 da3e eee4 d6be e1b8 c4be
000000f0: c9d8 b73e 0ff7 2cbe 3882 21be 0a94 ab3f
00000100: 3a3a e53e 31ea 853f c0b0 613f dba2 cc3d
00000110: 86b9 d73d dde4 043e 9a2d 2e3e 2608 8f3e
00000120: 08e9 b43e c1d7 5d3f 5a54 8c3f de4e 163e
00000130: c93f 803f d5ee b63e d5a8 1b3f 5455 663e
0.19753386 0.3254858 0.086431846 -0.19072872 0.068283826 0.22430772 0.14235714 0.12232889
0.30345747 0.55131733 0.7696469 0.3847405 0.3098371 0.0122910105 0.109576955 0.18326698
0.26553506 0.46867406 0.5638597 -0.030821156 -0.3024263 -1.2066218 -0.9639905 -0.6928719
-0.67249477 -0.6824334 -1.014352 0.08315928 -0.9926623 -1.1167979 -1.1041119 -0.73969114
-0.2926106 -0.90655816 -0.95128846 -0.74401224 -0.8083838 -0.77105314 -0.4870763 -0.8668073
-0.42672735 -0.30796534 -0.37348184 -0.3353168 -0.35117844 -0.32726234 0.58355886 0.052994158
-0.45290205 -0.15108828 0.29262665 -0.3808077 -0.78597575 -0.39731956 -0.51609415 0.30213454
0.3488082 0.42765844 -0.41971534 -0.384223 0.3590758 -0.1689112 -0.15772331 1.3404553
0.44770986 1.0462095 0.88160324 0.09992 0.10533433 0.1297793 0.17009583 0.27935904
0.3533404 0.8665734 1.0963242 0.14678523 1.0019466 0.3572909 0.6080449 0.22493488

lstm.bias_hh_l0 f4 [80]
00000000: 6853 903e f06b 1d3e 0cc3 7e3d 755d 42be
00000010: 09dd 853d a3bb ec3e bab5 6d3e b9c3 bbbd
00000020: 5012 e73e 3160 d23e aac3 3f3f 08fd ac3e
00000030: f46f 1b3f 61c0 b1bd 118b 93bd 25a3 8e3e
00000040: 9667 933e e604 a73e 23a0 c83e 4eb5 62be
00000050: 2329 25bf 7958 9ebf ff56 66bf 2eeb 58bf
00000060: 91c0 53bf 9995 89bf fb91 77bf 3ea0 bbbd
00000070: a54b 8bbf 39c2 6bbf 2b8c 52bf ac1f 6abf
00000080: 9052 c8be 4a00 18bf cec6 30bf 7a31 7ebf
00000090: fe40 54bf d30d 61bf c93b 0abf b52c 03bf
000000a0: 62e6 cabe aa3a c8be 43e8 e0bd 4515 08bf
000000b0: 404f f3be fba7 08bf c05e 493e 4aaf dd3e
000000c0: 2772 f4be dc96 f4be fafb ba3e 396c cebe
000000d0: bc25 32bf 7003 bcbe 5dfc 90be fcc3 fd3e
000000e0: 8b93 c03e 615a 603e 4ab0 98be aa39 07bf
000000f0: bb0d e03e fd61 2f3e b6f5 8d3d daef a43f
00000100: 6392 0b3e d869 543f f8e8 163f bc45 61bd
00000110: 4afb 9e3e 7f08 cf3e 0f5a abbc 15a6 c83e
00000120: b487 f03e 3d68 843f 2dfa 5e3f 86a0 873e
00000130: 020e 833f 17e2 453e 0750 db3e 3ae5 8a3e
0.28188634 0.15373206 0.06219773 -0.18980964 0.065363 0.46236905 0.23213854 -0.091681905
0.4513116 0.41089013 0.74907935 0.33786798 0.607177 -0.086792715 -0.07204259 0.27858844
0.28789967 0.32620925 0.39184675 -0.22139475 -0.64515895 -1.237075 -0.89976496 -0.84733856
-0.8271571 -1.0748779 -0.96707124 -0.09161423 -1.088246 -0.92093235 -0.8224513 -0.9145458
-0.3912549 -0.5937544 -0.6905335 -0.99294245 -0.8291167 -0.8791172 -0.53997475 -0.5124009
-0.39628893 -0.39107257 -0.109818004 -0.53157455 -0.475214 -0.5338132 0.1966505 0.43297797
-0.4774334 -0.47771347 0.36520368 -0.40316942 -0.6958883 -0.36721373 -0.28317538 0.49563587
0.37612566 0.21909477 -0.29821998 -0.52822363 0.43760476 0.17127223 0.06931631 1.2885697
0.13630061 0.82974005 0.5894923 -0.054998145 0.31051093 0.4043617 -0.020916967 0.3918921
0.46978533 1.0344311 0.8710049 0.26489657 1.023865 0.19324528 0.42834494 0.2712801

linear.weight f4 [1, 20]
00000000: ae82 fb3e fe0d d23e 53af 8a3e f07f 333f
00000010: f760 483f 32f3 183f e5de 21bf a9cb 22bb
00000020: 259b 073f 59a0 153f 3719 ecbe 6c58 1e3f
00000030: d0c6 a436 6945 103f 1cce 263f 4b73 f0be
00000040: f03b 09bf ff32 01bf a6ca 023f 494a 623f
0.49123138 0.410263 0.27086887 0.7011709 0.78272957 0.59746087 -0.63230735 -0.002484063
0.52971107 0.58447796 -0.46112987 0.6185367 4.9107257e-06 0.5635591 0.6515825 -0.46962962
-0.5360708 -0.5046844 0.51090467 0.883946
