m1/time_series_pattern_recognition/src_final/parameters_20_4000/NN/model_1_0.pth (torch, 9367 bytes, 5 tensors)

lstm.weight_ih_l0 f4 [80, 1]
00000000: 8254 933e dfe0 063e 4736 233e d0fa b83e
00000010: 0644 963e cd40 c93d 313f 273e 405d a13e
00000020: 0a0c f03e 364d 6f3e f50a 3d3e 3459 c53e
00000030: 3e92 89bc 5a92 903e ebb1 213e dd91 7c3e
00000040: 08dd 7d3e 8172 b23d fe8b 073e 517a f03e
00000050: 6c39 a1bd 06e4 3fbe f52b 82bd abc4 c93d
00000060: 9ad2 6bbe 5cf2 973e cafb 5f3e 9778 c33d
00000070: 3dc1 90bd 8f61 e33d fb1a 403e 5767 8a3d
00000080: 9229 23be fec2 553c b3a0 da3d bae2 193e
00000090: 50a6 b03e 261b 643e b754 4bbd 035c 48bd
000000a0: d790 a43e 2515 6bbd b87d 4d3e f1b2 9d3e
000000b0: 01e0 923e 482f a43e b190 85be 1914 cabe
000000c0: 1825 be3e c0ee 563e b971 22be 521d c43e
000000d0: 90ee 85bd 2525 9f3e f48b 843e 6012 a9be
000000e0: 479c 84be a641 24be c485 503e 193d 783e
000000f0: 47c2 373e 0b6f bd3d 9aa4 c23e 62a9 b13e
00000100: 0e9f a03e 681e 063e 9eb4 b53e cc7d d83e
00000110: 9aa0 e13d d92c 703e df81 023f 51e3 653d
00000120: 5af3 03bd 2341 dd3e 1953 e33d e6c8 a63e
00000130: 2d31 8d3e 2391 dd3e 33b7 573e 63be 813e
0.28775412 0.13171719 0.15938674 0.36128855 0.29348773 0.09826813 0.163327 0.31516457
0.46884185 0.23369297 0.18461211 0.3854462 -0.016793367 0.28236657 0.15790527 0.24665017
0.24791348 0.08713246 0.13236997 0.4696832 -0.078722805 -0.18739328 -0.063560404 0.098519646
-0.23029557 0.29677093 0.21873394 0.09544485 -0.07068107 0.11102592 0.18760292 0.06757992
-0.15933827 0.013046978 0.10675182 0.15027896 0.34501886 0.22275981 -0.049641337 -0.048915874
0.32141754 -0.057393212 0.20067489 0.30800584 0.28686526 0.32067323 -0.26086953 -0.39468458
0.37137675 0.20989513 -0.15863694 0.3830362 -0.06539643 0.31083027 0.25888026 -0.33021832
-0.2590048 -0.16040668 0.20363528 0.24242057 0.17945205 0.092496954 0.38016206 0.3469954
0.3137135 0.13097537 0.35489362 0.42283475 0.110169604 0.23454608 0.5097942 0.05612499
-0.0322145 0.43213758 0.11099834 0.32575148 0.2757658 0.43274793 0.21065979 0.25340566

lstm.weight_hh_l0 f4 [80, 20]
00000000: a12c a13e 60a6 093d f0c5 6bbe 5c28 803a
00000010: b574 a6bc c696 a93e a642 2bbe 1a4d 0f3d
00000020: 868a d5bd 9a7e 943d 339f 993a c93d b8b9
00000030: 3e48 c43d b173 a93e fcb5 6b3e 0812 83be
00000040: c755 8bbe bfdb a0be 6e4b 543e bfc9 a83e
00000050: 3b7b b13d ebb5 c9bd 88de 333e d300 ffbb
00000060: 5d12 e53d 6236 1b3e 319e 6cbe bda9 08bd
00000070: f318 9b3d b2aa 073f 10c3 02bf b8d7 b3bd
00000080: 7679 31bc 8cc5 f13b 9ac5 4e3e b041 5bbe
00000090: 7c87 2fbe 74a6 77bd 10cc 823e 53e8 46bd
000000a0: c8b4 803d 83d6 9abe 979c 1abe 25d7 893d
000000b0: 0902 03bd 30bb 74bd feea 4cbe ef96 2a3c
000000c0: 3e9d 853b 5537 b1bd 7606 71be 0cb1 3f3e
000000d0: 3055 d8bc 9697 87bd 92fc 2fbd 0d64 68be
000000e0: 6360 dabd fa13 82be dccb bd3d c8e1 223e
000000f0: a54f 87bc 2560 e5bd deee a5be 5e0b 783d
00000100: b6f0 173e db9c 703b ab52 75be 0487 6cbe
00000110: ce9d d1bb a619 f5bd ac73 49be 0595 a0bd
00000120: 4d04 8e3d 8ee8 4d3e aa46 6c3e 7f0e 7f3d
00000130: 1dc5 583d 9aca 853d 7de7 7b3e 4cdd 223e
00000140: 168e 52bd 3885 e53d c974 7bbb 7b02 213e
00000150: 0275 4dbe 36b3 143d 6530 733e 6a75 0abd
00000160: f357 93be f5d6 693d 47ee babc 9284 a23d
00000170: f2a1 973c e17e 0cbb 0145 b9bc 34f4 3a3e
00000180: a795 8c3c 5eea 83bd a75a 933c 377d 06bc
00000190: bba8 343e dfc4 1c3c 5bc2 c3be 2c85 b63e
000001a0: 3e58 20bd 1053 4a3e 8763 883d 1abf fcbd
000001b0: f903 af3e 8e42 ca3d c939 98be 3133 893e
000001c0: c2bc 833e e797 6b3d 8614 413d 14ea 7ebe
000001d0: b570 bfbe 237b 4fbe dcbb 1f3e bf30 1e3e
000001e0: 954a a93e 5888 1dbb ef16 433d b702 903e
000001f0: ee19 8c3e 08ff b23e 07ba 33be 5189 53be
00000200: 0229 cbbc 80b4 a83d bc6c 233e ffb8 033b
00000210: 6299 fd3d b7f5 403e 266a 99bd 54d5 433d
00000220: cb88 533d fc08 13be 8a62 143e 0a69 4c3e
00000230: e14d 4b3e dea3 d43d 542a 9fbe 9c54 883d
00000240: ab94 593e e2b9 b5bd d02d a0bd 7385 96be
00000250: 2697 c33d b334 77bd 5f84 a23d 7c82 af3d
00000260: df1a b33d c0a4 913e 42bd 9b3e 0b4a 7bbd
00000270: a7ab 9bbe 5662 1fbe 6b55 a93e e2b7 5e3e
00000280: 58e8 f43d 9fc4 38bd c27b dbbd 89ab fcbd
00000290: 44b3 14bd 2f28 cf3c 3393 533e 4929 5b3c
000002a0: 1f81 40bd e54a 05be ddc7 00be f0ad c9bd
000002b0: b29b ec3d 3dd4 f93d cb70 0a3e e0d4 7fbd
000002c0: 53aa 10be 63b7 9b3d 40d3 0f3e 8eb8 4ebe
000002d0: 878f cfbc 8c14 9fbd abed 88be e3d8 26bd
000002e0: cdb2 c53b 37ce a63e 7899 81bd 2b21 3abe
000002f0: ea1a 16bd 3d23 9e3e 594a 00be 22ed 333e
00000300: 17de c23e b03e d7bb c28d 553d 7e02 9cbe
00000310: 0099 cd39 f411 05be 72e9 213e d64f a13e
00000320: 945d 4c3e 3c16 b6be e77a ecbd f184 073e
00000330: 55d1 983e 33d9 843e c8a0 a5be e597 a4be
00000340: 368d 8d3d 442f 213d 3f6d 7ebd 83b4 ef3d
00000350: b02b 3c3e 95d9 623d feb2 87bd b7dc 8cbc
00000360: 6e4c 22be c7bf e33c 99fe 39bd ad7a be3e
00000370: e13d 683e c0b2 b5bc 8ac5 52be 1dbf e73c
00000380: 1665 6a3d 902d 4d3e 681f aabe bdfc 1dbe
00000390: 8420 843e 0cf3 35be ede7 853d 2759 263e
000003a0: 1924 813e 5cd9 ec3d 1cbe a8bd 5a29 99be
000003b0: 215c 98be a9eb 03be 5128 3b3e f695 3b3d
000003c0: c9b0 d7bd f489 9ebe 3ebc 3e3e c371 783e
000003d0: d9b4 123d 843c 533e 047f 213c 07e3 ae3d
000003e0: f891 ddbd 86b3 01bd 7127 c7bc 8339 4c3e
000003f0: 0b52 8fbd c75e 053e d2dc 583e a622 76be
0.31479362 0.033605933 -0.23024726 0.0009777653 -0.020319322 0.33122844 -0.16724643 0.03498564
-0.10426812 0.0725071 0.0011720419 -0.00035141248 0.095840916 0.33096078 0.2301864 -0.25599694
-0.2721388 -0.31417653 0.20731899 0.3296642 0.086660825 -0.09849151 0.17565358 -0.0077820807
0.11185143 0.15157464 -0.2310722 -0.033365 0.07573118 0.52994835 -0.5107889 -0.087813795
-0.010832181 0.0073782858 0.20192567 -0.21411777 -0.17141527 -0.060461476 0.25546312 -0.048561405
0.06284481 -0.30241784 -0.15098797 0.06730489 -0.031984363 -0.05974883 -0.20011517 0.010411962
0.0040775826 -0.08653132 -0.23537621 0.18719882 -0.026407808 -0.066207096 -0.04296548 -0.22694416
-0.106629156 -0.25405866 0.09267399 0.15906441 -0.01651747 -0.11199979 -0.32408804 0.060557716
0.14837918 0.0036714587 -0.23957317 -0.2309838 -0.0063969856 -0.11967783 -0.19673032 -0.07840923
0.06934414 0.20108244 0.23073831 0.062269684 0.052922357 0.06532784 0.24600025 0.1590473
-0.051405035 0.1120705 -0.003836917 0.15723602 -0.20064166 0.03630372 0.2374893 -0.03380338
-0.28778037 0.057089765 -0.022818698 0.07935442 0.018509839 -0.002143793 -0.022615911 0.18257219
0.017161204 -0.06441186 0.017987562 -0.0082085645 0.1764249 0.009568422 -0.3823422 0.35648477
-0.039146654 0.19758248 0.06659608 -0.12341137 0.34182718 0.098759755 -0.29731587 0.26796868
0.25729948 0.057517912 0.047138713 -0.24893981 -0.37390676 -0.20261817 0.15599006 0.15448283
0.33064714 -0.0024037566 0.047629293 0.2812707 0.27363533 0.34960198 -0.17551433 -0.20657851
-0.024799827 0.08237553 0.15959448 0.002009928 0.12382771 0.18843733 -0.07490949 0.047810867
0.051644128 -0.14358896 0.14490715 0.19961944 0.19853927 0.10382818 -0.3108698 0.06656763
0.21248119 -0.08873345 -0.07821238 -0.2939869 0.09550314 -0.060352992 0.07935404 0.0856981
0.0874536 0.28446007 0.3041783 -0.06134991 -0.30404398 -0.15564856 0.3307298 0.21749833
0.119583786 -0.045109387 -0.10716964 -0.12337405 -0.036303774 0.025287716 0.20661621 0.013376542
-0.04699814 -0.13016851 -0.12576242 -0.09847629 0.11553134 0.12198684 0.1351959 -0.062458873
-0.14127474 0.076033376 0.14045429 -0.2018759 -0.025336994 -0.07767591 -0.26743826 -0.040734183
0.0060332776 0.32579204 -0.063281 -0.18176715 -0.03664676 0.3088626 -0.12528361 0.17570928
0.38060066 -0.006568752 0.052137144 -0.3047065 0.0003921464 -0.1299513 0.15811709 0.31506222
0.19957572 -0.35563838 -0.11546879 0.13234307 0.29847208 0.2594696 -0.3234923 -0.32147136
0.069116995 0.039351717 -0.062115904 0.11704352 0.1837604 0.055383284 -0.06625937 -0.017195089
-0.15849468 0.027801408 -0.04540882 0.3720297 0.22679855 -0.022179961 -0.20583168 0.028289372
0.05722531 0.20036912 -0.33227086 -0.15428443 0.25806057 -0.17768496 0.06538377 0.16244946
0.25222853 0.115648955 -0.082393855 -0.2991436 -0.2975779 -0.12882866 0.18277098 0.04579731
-0.10531766 -0.30964625 0.18626496 0.24262147 0.035817 0.20628554 0.009856943 0.08539396
-0.10818857 -0.031665348 -0.0243108 0.19943814 -0.0699807 0.13024436 0.21177986 -0.24036655

lstm.bias_ih_l0 f4 [80]
00000000: d214 ca3e c420 0f3e b0b3 c53e 2241 3f3e
00000010: b8d0 cc3e 791e 813e dee0 ad3e fc76 d33e
00000020: 80e6 a13e ee41 ff3e 170a cd3e d973 b43d
00000030: 8986 723d fdf9 5b3e 6232 ae3e 7c74 963e
00000040: f6c5 e73e 2ea3 b43e b74b e63e 7edb c83e
00000050: 0508 b13e b2d6 ffbd 02f3 8abe 2f39 033e
00000060: e5f9 c83d 0203 923e 4b30 cd3c b8c6 9f3e
00000070: 6120 09be 3e62 00be f8ef 42be 8d7f 153e
00000080: 733f 29be c09c e9bd edd0 a1bd f959 293e
00000090: c285 b53c f4b1 843e 93ba 983e 1627 95bd
000000a0: bf86 413e b446 623d 2cdc 0c3e 9761 613e
000000b0: 89f3 9c3e fcfd 513e 6331 d43c 432f c3be
000000c0: b754 483e 4ab6 023f 0ffa dcbe fc5f b43e
000000d0: a2f3 cebe 5edd 873e 7c99 213e 02f7 9dbe
000000e0: 9e02 71be 96fd 3bbe 9835 813e b914 153e
000000f0: 213a c43e 7f66 77be f6ca 873e 5a21 d63e
00000100: bf4b 973e a4f0 033f 2c26 a13e cf8e c93e
00000110: d815 813e 3c72 e63d e1a8 9e3e 7ff2 b63e
00000120: a17a d33d 807e 703e bcd7 d83e 6b41 4f3e
00000130: c2bd ce3e c432 d73e c164 973e 97e8 993e
0.3946901 0.13977343 0.38613653 0.1867719 0.4000299 0.2521856 0.33960623 0.41301715
0.3162117 0.49854988 0.4004676 0.08811159 0.059210334 0.21482082 0.34022814 0.29385746
0.4526822 0.35280746 0.4497964 0.3922996 0.3457643 -0.12492122 -0.27138525 0.12814783
0.098132886 0.2851792 0.025047442 0.31206298 -0.13391258 -0.12537476 -0.19036853 0.14599438
-0.1652811 -0.11406851 -0.079011776 0.16538228 0.022158507 0.25917017 0.29829845 -0.07282846
0.18899058 0.05524321 0.13755864 0.22009884 0.30654553 0.20507044 0.025902456 -0.38121995
0.19563566 0.510594 -0.4315953 0.3522948 -0.40420252 0.26536077 0.15781206 -0.30852515
-0.23536155 -0.18358454 0.252362 0.14558686 0.383256 -0.24160193 0.26522034 0.4182232
0.29549977 0.51539063 0.31474435 0.39366767 0.25211978 0.11252257 0.3098822 0.35731885
0.10326124 0.23485756 0.42352092 0.20239799 0.4037915 0.4203092 0.29569057 0.30060264

lstm.bias_hh_l0 f4 [80]
00000000: b044 f53e 97fd 02bd 384b b93e f731 403e
00000010: dc51 cb3e cd01 fb3e 93d8 db3e b1c7 4b3e
00000020: f599 ed3e 545c b73e 4382 c23e 08ec 283d
00000030: 418d b63e bb07 ed3d 476a 223e af42 c73e
00000040: 3e39 f33e cb63 573e cc38 8e3e 1591 4e3e
00000050: 0d8d 463b 0d1b 1fbe ff20 54be fd93 d7bc
00000060: a68f 67bd bcae dbbd a01f 943d a795 0c3e
00000070: c200 6bbe 455e 903d 85f7 ba3d 3c6e ecbc
00000080: 4221 87be b880 4b3e f41a 3a3e 4319 abbd
00000090: 8ed7 ba3a 97bb 1a3e 344a 7b3e aa2a 903e
000000a0: 10b2 603e f342 e4bc 696d cd3e 424d c33c
000000b0: a4e3 3a3e 00f0 c1ba ced5 b8be 90a0 a1ba
000000c0: 3236 2f3e 8761 3c3e 1dd1 b7be 02ed a83e
000000d0: a6d3 a0be 6347 973e 560e c83e 7491 ebbd
000000e0: 8009 55be 19c8 c8be e969 bf3e 33bd cf3a
000000f0: 0e6f ec3e dde4 c93d 6009 fc3e ba90 bb3e
00000100: a552 82bc 0e0d 993e ce69 b93c 8e7a 743e
00000110: 8f22 ea3e 6c32 c63e 7a72 f33d 3990 f03e
00000120: 1dfa 603e 0631 ce3e 9af5 4a3e bf19 a43e
00000130: 86f6 d93e 0235 833e ff8b ed3d 03a3 b13e
0.47903967 -0.031980123 0.361902 0.1876906 0.3971089 0.4902481 0.4293867 0.19900395
0.46406522 0.35812628 0.37990007 0.041240722 0.35654643 0.1157374 0.15860854 0.38918063
0.4750461 0.21034162 0.27777708 0.20172532 0.0030296475 -0.15537663 -0.20715712 -0.026315683
-0.05653348 -0.10726687 0.072325945 0.13728963 -0.22949508 0.070492305 0.09129242 -0.028861158
-0.2639256 0.19873321 0.18174344 -0.08354428 0.0014254914 0.15110622 0.24540025 0.2815755
0.21942925 -0.027863955 0.40122536 0.02384055 0.182509 -0.0014796257 -0.3610062 -0.0012331177
0.17110518 0.18396579 -0.35901728 0.32993323 -0.31411475 0.2954665 0.39073437 -0.11502352
-0.20804405 -0.39215162 0.3738549 0.0015849232 0.46178478 0.09858105 0.49225903 0.36633855
-0.015908549 0.29892772 0.02263346 0.23874876 0.4572949 0.38710344 0.11887069 0.46985033
0.2197041 0.40271777 0.19820252 0.32050893 0.42570895 0.2562638 0.11598968 0.3469468

linear.weight f4 [1, 20]
00000000: 640b 9a3e e040 13bd b0b7 793e 8cb5 8c3e
00000010: 8ac4 4f3e 767c b13e 0cf3 c7be 0a64 85be
00000020: b4a9 6b3e 4a3a b23e 4d06 9ebe e25a bf3e
00000030: bbc4 adbd a0c7 753e 5b53 c13e 2477 85be
00000040: 32b9 8abe 8fed d6be 1368 c53e f6c8 cd3e
0.30086815 -0.03595054 0.24386477 0.2748226 0.20289817 0.3466527 -0.39052618 -0.26052886
0.23013955 0.34810096 -0.30864182 0.37374026 -0.08484789 0.24001932 0.37758908 -0.2606746
-0.27094418 -0.41978118 0.38555965 0.40192384
