m1/time_series_pattern_recognition/src_final/parameters_20_4000/NN/model_1_300.pth (torch, 9367 bytes, 5 tensors)

lstm.weight_ih_l0 f4 [80, 1]
0	0xbe54db0a	-0.20786682
1	0x3f2aefb1	0.6677199
2	0x3e14980a	0.14511123
3	0xbe70aa1e	-0.23502395
4	0xbebafb1d	-0.3651971
5	0xbeb7ec41	-0.35922435
6	0xbe9846ab	-0.29741415
7	0x3c9d0622	0.019167963
8	0x3fa7cc80	1.3109283
9	0xbbafad54	-0.0053612385
10	0xbe01684a	-0.1263744
11	0x3de2f397	0.11081617
12	0xbe01f086	-0.12689409
13	0xbc7bf0d1	-0.015377239
14	0xbd14af59	-0.036300037
15	0xbe5c46b7	-0.2151135
16	0xbe98761d	-0.29777613
17	0xbce9bbaf	-0.028531877
18	0xbe4516c7	-0.1924697
19	0xbe6fb4b5	-0.23408778
20	0xbfc290d5	-1.5200449
21	0xbf2d6bb5	-0.6774247
22	0xbf9b31d4	-1.2124581
23	0xbe932756	-0.28740948
24	0xbfe8580e	-1.8151872
25	0xbe38a848	-0.18032944
26	0xbfc71794	-1.555407
27	0x3e9104a4	0.28323853
28	0xbe9b1821	-0.30291846
29	0xbe650501	-0.2236519
30	0xbe8223e1	-0.25417998
31	0xbf861d15	-1.0477625
32	0xbe4ead7a	-0.20183364
33	0xbf3e9c20	-0.7445698
34	0xbf14eef5	-0.5817712
35	0xbfb9ec46	-1.452523
36	0xbe071b2e	-0.13193962
37	0xbe4ae607	-0.19814311
38	0xbe87e941	-0.26545146
39	0xbe8affc0	-0.27148247
40	0x3e851bd0	0.25997782
41	0x3e71d098	0.23614728
42	0x3e7b9b45	0.2457095
43	0x3e839a7a	0.25703794
44	0x3e806eda	0.25084573
45	0x3e8562f7	0.26052067
46	0xbe800173	-0.25001106
47	0xbed400e0	-0.41406918
48	0x3e8c3e13	0.2739111
49	0x3e63c0a0	0.2224145
50	0xbe736e3e	-0.23772523
51	0x3e822770	0.25420713
52	0xbf1f6d94	-0.6227658
53	0x3e775f39	0.24157418
54	0x3e7bbfde	0.2458491
55	0xbe8480a0	-0.25879383
56	0xbe77adf8	-0.24187458
57	0xbe64bd0f	-0.22337745
58	0x3e6d304f	0.2316296
59	0x3e8a052b	0.26957068
60	0xbe806fb6	-0.2508523
61	0x3e0219fb	0.12705223
62	0xbd135000	-0.035964966
63	0x3fadd99c	1.3582034
64	0x3e68f401	0.2274933
65	0x3f934ed9	1.1508437
66	0x3dce8b2c	0.10085139
67	0x3e353155	0.176946
68	0xbe9ffb86	-0.31246585
69	0x3e15bdf6	0.14623246
70	0x3e4b8ae8	0.19877207
71	0xbee3a289	-0.44459942
72	0xbe56589b	-0.20932238
73	0x3fcfbc1f	1.6229285
74	0x3fdbccaa	1.7171834
75	0xbe0797f7	-0.13241564
76	0x3f93f949	1.1560451
77	0x3f26e968	0.651999
78	0x3f67e431	0.9058257
79	0xbe2de107	-0.16980372

lstm.weight_hh_l0 f4 [80, 20]
0	0x4088904d	4.267615
1	0x401e19b3	2.4703186
2	0x3fb9cd35	1.4515749
3	0x40809739	4.01846
4	0x408665ea	4.1999407
5	0x40645c44	3.5681314
6	0xc066d79b	-3.6069095
7	0xbf939729	-1.1530505
8	0x40423b8f	3.0348852
9	0x40166dce	2.350452
10	0xc01b15bd	-2.4232018
11	0x40539957	3.3062341
12	0xbf5a1119	-0.8518234
13	0x406a4da5	3.660989
14	0x405bb51c	3.432929
15	0xc06ebae1	-3.7301562
16	0xc0642be5	-3.565179
17	0xc0304d76	-2.7547278
18	0x4020f46f	2.514919
19	0x40b0bcfe	5.5230703
20	0x3f38021b	0.7187821
21	0x3e9b382b	0.3031629
22	0x3f0e1ee5	0.5551589
23	0x3f317930	0.6932554
24	0x3f6213fb	0.8831174
25	0x3f7af9a1	0.98037153
26	0xbf34bd12	-0.70601
27	0xbf8000cb	-1.0000242
28	0x3f5db40f	0.8660287
29	0x3f7c628c	0.9858787
30	0xbf732475	-0.94977504
31	0x3f05c5b9	0.52254826
32	0xbf7c94e3	-0.98664683
33	0x3f0543ce	0.52056587
34	0x3f1bfd99	0.60933834
35	0xbf6e4740	-0.9307747
36	0xbf5d7045	-0.86499435
37	0xbf128338	-0.57231474
38	0x3f32c1fb	0.6982724
39	0x3f5a3d64	0.85249925
40	0x3dc5737c	0.096411675
41	0xbef1a6b7	-0.47197506
42	0xbf076cc9	-0.5290037
43	0x3e4d064d	0.20021935
44	0x3e15a3d7	0.14613281
45	0x3cd07bff	0.025449751
46	0xbe09246d	-0.13392802
47	0xbefefbf5	-0.49801603
48	0xbcd56347	-0.026048316
49	0xbec13955	-0.37739053
50	0xbb9a59ad	-0.004710397
51	0x3ea4c2cd	0.3217987
52	0xbedaf8c4	-0.42767918
53	0xbefa6d29	-0.48911408
54	0xbf06dadb	-0.52677697
55	0xbe836ee0	-0.25670528
56	0xbe0a77d7	-0.13522278
57	0xbdf3f704	-0.11912349
58	0xbe17d09e	-0.14825675
59	0x3ed4e1a5	0.41578403
60	0xbf7e085f	-0.99231523
61	0xbf964305	-1.1739203
62	0xbfa27bce	-1.2694032
63	0xbf59aa31	-0.85025316
64	0xbefe188f	-0.49628112
65	0xbf64ac6d	-0.893256
66	0x3f2fa8d4	0.68616986
67	0xc04fff6b	-3.2499645
68	0xbf3206d9	-0.695417
69	0xbfb71359	-1.430278
70	0x3f7ca3a4	0.98687196
71	0xbf87ed9c	-1.0619388
72	0xc0544718	-3.3168392
73	0xbf9f3346	-1.2437522
74	0xbf95533c	-1.1666026
75	0x3f8ad798	1.0847044
76	0x3f87307c	1.0561671
77	0x3fa566c0	1.2921982
78	0xbf915a72	-1.1355727
79	0xbe51e0b3	-0.20495872
80	0xbda26508	-0.079294264
81	0xbe2a82dc	-0.16651481
82	0x3dd6a8be	0.10481404
83	0x3e975429	0.29556397
84	0x3ddcd1a8	0.10782176
85	0xbd43e27e	-0.04782342
86	0x3e55247c	0.20814699
87	0xc0438048	-3.0547047
88	0xbe3d4363	-0.18482737
89	0xbeaf05d2	-0.34184128
90	0x3ec5ddd9	0.3864582
91	0xbdc3c12c	-0.09558329
92	0xc05196a8	-3.2748203
93	0xbeb8d114	-0.36097014
94	0xbeecdb00	-0.46260834
95	0x3e6901c7	0.22754584
96	0x3e580d42	0.21098807
97	0x3ea1f324	0.31630814
98	0xbf188851	-0.59583
99	0x3f28e95d	0.65981084
100	0xbf359d9c	-0.7094362
101	0xbf4580d7	-0.7714972
102	0xbf0eff11	-0.5585795
103	0xbf2a6edf	-0.66575426
104	0xbf6f6cf6	-0.93525636
105	0xbf545bee	-0.82952774
106	0x3f90e2a6	1.1319168
107	0xc0247f80	-2.570282
108	0xbe130acb	-0.14359586
109	0xbf87ed90	-1.0619373
110	0x3f5888b2	0.8458358
111	0xbf1bd92f	-0.6087827
112	0xc02aff85	-2.6718457
113	0xbf9dbf1f	-1.232395
114	0xbfb8a77e	-1.4426115
115	0x3f52362b	0.82113904
116	0x3f3fcb9c	0.7492006
117	0x3f53d13f	0.8274116
118	0xbf97eafe	-1.1868589
119	0xbf2bc886	-0.6710285
120	0x404e31d5	3.2217915
121	0x3fe04f0d	1.7524124
122	0x3fb74c87	1.4320229
123	0x40633945	3.5503705
124	0x40818540	4.047516
125	0x402f1d46	2.7361617
126	0xc03e1ce0	-2.9705124
127	0xc0130b43	-2.2975624
128	0x40190230	2.3907585
129	0x3fe30668	1.773633
130	0xbfcce458	-1.6007185
131	0x4028e6a8	2.6390781
132	0xbfefb554	-1.8727212
133	0x40341c04	2.81421
134	0x40202d54	2.5027666
135	0xc02b8898	-2.680212
136	0xc018d961	-2.3882678
137	0xc00105b0	-2.0159721
138	0x3fd7bace	1.6853883
139	0x408c549b	4.385328
140	0xbe66dd37	-0.22545324
141	0xbe886355	-0.26638284
142	0xbe6227a9	-0.22085442
143	0xbf06c9af	-0.52651495
144	0xbe6df3c4	-0.2323752
145	0xbf421a7d	-0.7582167
146	0x3ed1e5cd	0.40995637
147	0xbe5364fa	-0.20643988
148	0xbe2ca586	-0.16860017
149	0xbe5a3f7b	-0.21313278
150	0x3e9b8fb5	0.30383077
151	0xbe83da84	-0.25752652
152	0x3e5a3f34	0.21313173
153	0xbeb209f9	-0.34773234
154	0xbe27a03b	-0.16369717
155	0x3efb3573	0.49064216
156	0x3e4d632e	0.20057365
157	0x3e5e51a2	0.21710828
158	0xbd4b352b	-0.04961125
159	0xbf0a3646	-0.53989065
160	0xbf8b6713	-1.0890831
161	0xbf4df56e	-0.8045262
162	0xbf237f3c	-0.6386602
163	0xbfac97ac	-1.3483787
164	0xbf9c1be1	-1.2196008
165	0xbf68c47a	-0.909248
166	0x3fb819b3	1.4382843
167	0xbf50742c	-0.81427264
168	0xbf85cb30	-1.0452633
169	0xbf8a9ac6	-1.0828483
170	0x3f631548	0.8870435
171	0xbfa01663	-1.2506832
172	0xbf76e16d	-0.9643772
173	0xbfa1d52a	-1.2643178
174	0xbfa878d5	-1.3161875
175	0x3f8eeaa2	1.1165354
176	0x3f73c9af	0.9522962
177	0x3f815360	1.0103569
178	0xbf6de915	-0.9293378
179	0xbfab20fc	-1.3369441
180	0xbe592cbe	-0.21208474
181	0xbe102cd9	-0.14079608
182	0xbebfd75d	-0.37468997
183	0xbea590ef	-0.32337138
184	0xbe045b3c	-0.12925428
185	0x3e9113b4	0.28335345
186	0x3e964e9f	0.29356858
187	0xbfe9970f	-1.8249224
188	0xbd321742	-0.04347921
189	0xbe49db19	-0.19712485
190	0x3e180ff8	0.14849842
191	0x3a828d53	0.0009960331
192	0xbfc5f67a	-1.5465844
193	0xbf24aaf1	-0.64323336
194	0xbf400d0f	-0.75019926
195	0xbda14635	-0.07874719
196	0x3e84963b	0.25895867
197	0x3e8dd5f0	0.27702284
198	0xbeb44b8d	-0.3521389
199	0x3e8298ee	0.255073
200	0x407c6428	3.943613
201	0x3fdded6f	1.7338084
202	0xbe8adac6	-0.27120036
203	0x407ad239	3.919081
204	0x408d2bfa	4.411618
205	0x405b4358	3.4259853
206	0xc0674d92	-3.6141095
207	0xbfceb3bd	-1.6148602
208	0x4049a545	3.1507123
209	0x40008cc2	2.0085912
210	0xc0275812	-2.6147504
211	0x406413d5	3.5637105
212	0xbf2b11c4	-0.66823983
213	0x4068bdde	3.6365886
214	0x405a1b43	3.407914
215	0xc059bc78	-3.4021282
216	0xc0496e96	-3.1473746
217	0xbffb9bc7	-1.9656914
218	0x3ff49ce9	1.9110385
219	0x40bc1031	5.8769765
220	0x40a1c8d5	5.0557656
221	0x40454185	3.082124
222	0x3eb992db	0.36244854
223	0x4098e1e3	4.777574
224	0x40a1adb6	5.052455
225	0x40883d8c	4.257513
226	0xc095b7c8	-4.678684
227	0x3e9bb9dc	0.30415237
228	0x4087b4a9	4.2408032
229	0x40269181	2.6026309
230	0xc050d439	-3.262953
231	0x409a9423	4.830583
232	0x3f9c8bc2	1.2230151
233	0x409f2b12	4.9740076
234	0x40912cbd	4.536711
235	0xc0968bb1	-4.704552
236	0xc0855f1e	-4.167861
237	0xc0402a65	-3.0025876
238	0x403bb326	2.9328094
239	0x40dbcbee	6.8686438
240	0xbe4373b8	-0.19087112
241	0xbf4a9d89	-0.7914663
242	0xbf50f52d	-0.8162411
243	0x3f12c71a	0.57335055
244	0x3d401c51	0.046902005
245	0x3eb46598	0.3523376
246	0xbe3bc1bc	-0.18335623
247	0xbef39f2b	-0.47582373
248	0xbf063c8f	-0.52436155
249	0xbf3e5c98	-0.74360037
250	0x3f3062c2	0.6890069
251	0xbdf1c9cf	-0.1180607
252	0xbeaf8a37	-0.34285137
253	0x3d5884a1	0.05286086
254	0xbdb5b7f2	-0.088729754
255	0xbeacca7c	-0.33748233

lstm.bias_ih_l0 f4 [80]
0	0x3e8107c6	0.25201243
1	0x3f1ef3a6	0.6209053
2	0x3ef7e6bd	0.48418227
3	0x3e01f54b	0.12691228
4	0x3ea66905	0.32502
5	0x3ec8237d	0.39089575
6	0x3e7f79ed	0.24948855
7	0xbda697db	-0.08134433
8	0x3fa148d7	1.2600354
9	0x3f0f8ad5	0.56071216
10	0x3e8a6637	0.2703111
11	0xbd422cc1	-0.047405962
12	0x3e65270f	0.22378181
13	0x3e0e455d	0.13893647
14	0x3ea88186	0.3291132
15	0x3e882c26	0.26596183
16	0x3ee66d59	0.450053
17	0x3f1ffffa	0.62499964
18	0x3f2eca36	0.682773
19	0x3dc43393	0.095801495
20	0xbfaca297	-1.3487118
21	0xbf77b3b2	-0.9675857
22	0xbfd0f953	-1.6326088
23	0xbedf2871	-0.43585542
24	0xbfcc6eee	-1.5971353
25	0xbec66507	-0.38748953
26	0xbfec3737	-1.845435
27	0x3dc1d8bd	0.09465168
28	0xbf28ea62	-0.6598264
29	0xbf2fc103	-0.6865389
30	0xbf6a0bcc	-0.9142425
31	0xbfac5e25	-1.3466231
32	0x3de731b6	0.112887785
33	0xbf86ca07	-1.0530404
34	0xbf5e038d	-0.8672417
35	0xbfdd6acd	-1.7298218
36	0xbf2da98e	-0.67836845
37	0xbeb6655e	-0.35624212
38	0xbe05e735	-0.1307648
39	0xbf2d1bba	-0.6762043
40	0xbf25f272	-0.6482307
41	0xbf0b55a4	-0.5442755
42	0xbf3ccb24	-0.7374747
43	0xbf084b44	-0.53239846
44	0xbf0b8398	-0.5449767
45	0xbf086f34	-0.5329468
46	0x3f4e35ab	0.8055064
47	0xbdca9445	-0.098915614
48	0xbf27c0ff	-0.65528864
49	0xbec22ed6	-0.37926358
50	0x3f0b4155	0.54396564
51	0xbf1e3db0	-0.6181288
52	0xbf913bf0	-1.1346416
53	0xbf1ada5e	-0.6048945
54	0xbf370181	-0.7148667
55	0x3f08fd63	0.5351164
56	0x3f13464c	0.5752914
57	0x3f275ed8	0.65379095
58	0xbf22172b	-0.633166
59	0xbf159601	-0.5843201
60	0x3f1fa49b	0.62360543
61	0x3df3dbc6	0.11907153
62	0x39e4e6b4	0.00043659436
63	0x3fae765c	1.362987
64	0x3f694dd0	0.9113436
65	0x3fc7b3b1	1.5601712
66	0x3f325fa4	0.69677186
67	0xbe07fd00	-0.13280106
68	0x3e8d1032	0.2755142
69	0x3ed0dd1b	0.4079369
70	0x3ee9c142	0.45655257
71	0x3f068404	0.5254519
72	0x3e558711	0.20852305
73	0x3fb34b7d	1.4007412
74	0x3fedc249	1.8574916
75	0x3efa5982	0.48896414
76	0x3f9dc328	1.2325182
77	0x3f6e1dfe	0.93014514
78	0x3f9c926c	1.2232184
79	0x3f21c1fd	0.6318663

lstm.bias_hh_l0 f4 [80]
0	0x3eac37b9	0.33636263
1	0x3ee5f6bc	0.44914806
2	0x3eeb7e35	0.45994726
3	0x3e02e63b	0.12783138
4	0x3ea4ea29	0.322099
5	0x3f2103bf	0.6289634
6	0x3eadb4a7	0.3392689
7	0xbe97388d	-0.29535332
8	0x3fb435e2	1.4078944
9	0x3ed72fd6	0.42028683
10	0x3e7fbd3b	0.2497453
11	0xbdc114b7	-0.09427779
12	0x3f056817	0.52111953
13	0x3d233cb9	0.03985283
14	0x3e170912	0.14749554
15	0x3eb8fa08	0.3612826
16	0x3ef1e0c9	0.4724181
17	0x3ef70ecc	0.48253477
18	0x3f02c13b	0.51076096
19	0xbdc217ff	-0.09477233
20	0xbfd88157	-1.6914471
21	0xbf7f7fa0	-0.99804115
22	0xbfc8c0e1	-1.5683862
23	0xbf171f56	-0.5903219
24	0xbfe03ad4	-1.7517953
25	0xbf47a98a	-0.7799307
26	0xbfe629ef	-1.7981547
27	0xbda4170b	-0.080122076
28	0xbf41627e	-0.7554091
29	0xbefb397e	-0.490673
30	0xbf21f066	-0.63257444
31	0xbfc2bfe3	-1.5214809
32	0x3c695669	0.014241793
33	0xbf3d800e	-0.7402352
34	0xbf1b4291	-0.6064845
35	0xbffd47bb	-1.9787515
36	0xbf32f850	-0.69910145
37	0xbeedb9c8	-0.46430802
38	0xbe3c129e	-0.18366477
39	0xbea4c1d6	-0.32179135
40	0xbf1e2780	-0.6177902
41	0xbf209c65	-0.6273864
42	0xbef2973b	-0.47381005
43	0xbf3a8968	-0.72865915
44	0xbf2b4460	-0.66901207
45	0xbf3d4f94	-0.7394955
46	0x3ed65195	0.41859117
47	0x3e8fe800	0.2810669
48	0xbf2e08d0	-0.67982197
49	0xbf34b510	-0.7058878
50	0x3f1dd60d	0.6165474
51	0xbf23f726	-0.64048994
52	0xbf85b3f2	-1.044554
53	0xbf132593	-0.5747921
54	0xbef6c30f	-0.48195693
55	0x3f3a8665	0.7286132
56	0x3f1a44a6	0.60261
57	0x3ee3f51d	0.44522944
58	0xbf02fc48	-0.511662
59	0xbf3a73a5	-0.7283271
60	0x3f33bf5b	0.7021386
61	0x3eeb22e1	0.45925048
62	0x3e68ef11	0.22747447
63	0x3fa7d22c	1.3111014
64	0x3f199549	0.59993416
65	0x3fabfe3b	1.343696
66	0x3ecf2eb3	0.40465316
67	0xbe93501c	-0.28772056
68	0x3ef61d5d	0.48069277
69	0x3f2eb980	0.682518
70	0x3e87f4c1	0.2655392
71	0x3f235339	0.6379886
72	0x3ea6621b	0.32496724
73	0x3fc8c7e1	1.5685998
74	0x3fd0eb0c	1.6321731
75	0x3f1b6931	0.60707384
76	0x3fa09163	1.2544369
77	0x3f441f1a	0.7660996
78	0x3f8591b0	1.0435085
79	0x3f2d9f37	0.6782107

linear.weight f4 [1, 20]
0	0x3f57d30d	0.8430641
1	0x3e969ccb	0.294165
2	0x3ec05a51	0.37568906
3	0x3f5b75f2	0.85726845
4	0x3f5e4427	0.8682274
5	0x3f2c484a	0.67297804
6	0xbf4cf5e5	-0.80062705
7	0x3aa3fd4f	0.0012511405
8	0x3f2a3529	0.66487366
9	0x3ebd3d56	0.36960858
10	0xbf0d2d0e	-0.55146873
11	0x3f827c6b	1.0194219
12	0xbbc028d8	-0.005864244
13	0x3eced73f	0.40398595
14	0x3eb04815	0.34429994
15	0xbf51853e	-0.81843936
16	0xbf3249ed	-0.6964405
17	0xbe965ebf	-0.2936916
18	0x3ec03e8e	0.37547725
19	0x3faa8ca7	1.3324174
