m1/time_series_pattern_recognition/src_final/parameters_20_4000/NN/model_1_400.pth (torch, 9367 bytes, 5 tensors)

lstm.weight_ih_l0 f4 [80, 1]
000000 f5 4f 42 be 99 d8 c2 3e df 4c 7c 3e 3d 2a 81 be
       -0.18975814 0.38055876 0.24638699 -0.25227538
000010 bc 60 b0 be 7a a3 b3 be b6 bb 9e be c9 2e 93 bc
       -0.34448802 -0.3508566 -0.31002587 -0.017966645
000020 ae 48 64 3f 14 56 20 be 94 93 3f be 1b f0 10 3e
       0.891734 -0.15657836 -0.1870864 0.14154093
000030 37 0c 20 be 19 9a 88 bc c5 16 19 bb 43 f3 63 be
       -0.1562966 -0.016675042 -0.002335952 -0.22260766
000040 0c 9b ae be a8 3d b3 bd 48 60 62 be da 5d 70 be
       -0.34102666 -0.08751994 -0.22107041 -0.23473302
000050 af 55 77 bf d2 03 1c bf e5 ea c0 bf f8 c0 8f be
       -0.9661512 -0.6094333 -1.5071684 -0.2807691
000060 92 f8 e7 bf 07 67 2c be 3a 30 c3 bf 1e 7e b8 3e
       -1.8122733 -0.16836177 -1.5249093 0.3603372
000070 23 0e d2 be 8d 1f 90 be 9f 21 6a be cd f8 23 bf
       -0.4102641 -0.2814907 -0.22864388 -0.64051515
000080 03 a0 58 be 1b 76 44 bf 67 f7 14 bf 88 e8 b0 bf
       -0.2115479 -0.76742715 -0.58190006 -1.3820963
000090 d0 57 67 be 00 36 55 be f2 5f 66 be 0d 4b 97 be
       -0.22592092 -0.2082138 -0.22497538 -0.29549447
0000a0 c9 1a 96 3e 3c e4 8a 3e 43 22 92 3e 20 82 93 3e
       0.2931731 0.27127254 0.28541765 0.28810215
0000b0 f1 03 8f 3e 6e 5b 94 3e d3 0a 93 be 86 16 23 bf
       0.27932695 0.28976005 -0.28719196 -0.63706243
0000c0 4b ea 9b 3e 60 54 83 3e da 46 8b be 99 15 95 3e
       0.3045219 0.2565031 -0.27202493 0.2911804
0000d0 b8 ae 62 bf 90 40 89 3e 09 6a 8b 3e 56 b8 94 be
       -0.8854785 0.2680707 0.27229336 -0.29046887
0000e0 65 d0 8c be ca 96 87 be c4 39 88 3e b7 cc 98 3e
       -0.27502742 -0.2648223 0.26606572 0.29843685
0000f0 72 11 a3 be 24 99 e8 bb 9e 5a a1 bd c9 2b f2 3e
       -0.31849247 -0.007098334 -0.07878612 0.4729903
000100 68 53 45 3e 5c 46 1d 3f db 62 49 3d 5d d7 27 3e
       0.19270098 0.61435485 0.04916654 0.16390748
000110 20 32 b4 be 8a 0c fa 3d fb d0 e7 3d ba 34 d3 be
       -0.35194492 0.12209423 0.11319157 -0.41251165
000120 37 52 a1 be 49 b1 4c 3f 36 bd 88 3f 2a bc 1a be
       -0.31508037 0.79958016 1.0682743 -0.15110841
000130 1d c5 b6 3e 02 37 42 3f ec 1a 18 3f de 45 46 be
       0.3569726 0.75865185 0.5941608 -0.1936259

lstm.weight_hh_l0 f4 [80, 20]
000000 41 cf 88 40 c5 2d 09 40 65 c4 87 3f 83 26 88 40
       4.2752995 2.1434186 1.060681 4.254701
000010 03 ab 87 40 d3 23 5e 40 c7 e5 68 c0 c3 0a 93 bf
       4.2396255 3.4709365 -3.6390245 -1.1487659
000020 ef ed 3f 40 bc f3 02 40 be d5 0e c0 eb 15 49 40
       2.9988973 2.0461264 -2.2317958 3.1419628
000030 68 c5 41 bf 17 a1 6a 40 e9 80 60 40 ef 6a 73 c0
       -0.75691843 3.6660821 3.507868 -3.8034017
000040 76 ef 62 c0 14 ee 12 c0 ba 3f 0f 40 ff 77 d2 40
       -3.5458655 -2.2957811 2.2382646 6.577148
000050 66 33 b3 3f 93 69 37 3f c8 25 65 3f 84 83 b7 3f
       1.400006 0.7164547 0.89510775 1.433701
000060 4c 98 c4 3f 7a d4 c6 3f 90 4d a1 bf 4f 42 8f bf
       1.5358977 1.5533593 -1.2601795 -1.1192111
000070 84 26 bc 3f 77 f7 b0 3f 68 37 c3 bf cc d7 86 3f
       1.4699254 1.382552 -1.5251284 1.0534606
000080 94 44 7d bf 51 a8 a1 3f 51 96 a7 3f 69 90 cb bf
       -0.98932767 1.2629491 1.3092748 -1.5903445
000090 7f c4 be bf 00 83 6d bf 95 cb 8c 3f 78 b1 06 40
       -1.4903716 -0.92778015 1.0999628 2.1045818
0000a0 9c 40 d8 3e 6a de 62 be 8c 6b b6 be 4d 82 08 3f
       0.42236793 -0.22155157 -0.35628927 0.53323823
0000b0 1e 2d ee 3e 9d ee b6 3e 3b dc e8 be 54 16 5c bf
       0.46518797 0.35728922 -0.45480523 -0.8597157
0000c0 02 30 68 3e 41 7d 23 be 2e fa 97 be ae ac 2b 3f
       0.22674564 -0.1596575 -0.2968306 0.67060363
0000d0 e1 d1 46 bf 4c 7b 48 be 99 b4 59 be 10 ef 1e bf
       -0.77664 -0.19578284 -0.21260299 -0.6208353
0000e0 1b 80 e2 be 35 11 ba be a0 b6 e0 3d 55 e8 5b 3f
       -0.44238362 -0.36341253 0.10972333 0.85901386
0000f0 31 c6 59 bf 40 d2 93 bf cc 2f a5 bf 0b ce 3f bf
       -0.8506804 -1.1548538 -1.2905211 -0.7492377
000100 bb 0c ae be d7 2c 46 bf b5 82 f3 3e 6a 4c 68 c0
       -0.33994088 -0.7741217 0.4756066 -3.629664
000110 52 d9 1c bf 2b 84 b7 bf dc a6 60 3f 50 58 67 bf
       -0.61269104 -1.433721 0.8775461 -0.9036913
000120 e5 bd 6b c0 08 6f 9a bf 14 2e 8e bf 59 34 63 3f
       -3.6834652 -1.2065134 -1.1107812 0.8875175
000130 88 a2 6f 3f 86 cc a5 3f 3a 9e 8c bf 5f 53 90 3d
       0.9360738 1.2953041 -1.0985787 0.07047152
000140 45 76 7b bd bd 2d 09 be 39 8b e8 3d f6 04 ac 3e
       -0.061392087 -0.13396354 0.113546796 0.33597535
000150 2b 2e d8 3d 90 c1 5a bc 1a 3f fd 3d d4 16 46 c0
       0.10555681 -0.013351813 0.12365551 -3.0951433
000160 0d 9e 5c be c5 9c ae be e1 2c b6 3e f8 6a dd bd
       -0.21544667 -0.3410398 0.35581115 -0.10811418
000170 05 cd 50 c0 65 8d a9 be 7a 81 cb be fa dc 1a 3e
       -3.2625134 -0.33115688 -0.3974722 0.15123358
000180 d8 c1 2b 3e 11 b9 b0 3e 18 79 18 bf c3 d3 58 3f
       0.16773164 0.34516194 -0.59559774 0.8469812
000190 b5 8f 00 bf 04 b0 36 bf 29 8c fd be f1 31 09 bf
       -0.5021928 -0.7136233 -0.49520996 -0.5359183
0001a0 83 ae 3f bf b1 af 4f bf 8d 86 5a 3f 12 3a 3c c0
       -0.7487566 -0.8112746 0.8536156 -2.9410443
0001b0 d8 48 e0 bc 7b 89 80 bf de d1 2d 3f e2 67 da be
       -0.027378485 -1.0041956 0.67898357 -0.4265738
0001c0 36 bb 42 c0 d0 7e 95 bf 25 7d a7 bf 43 62 1a 3f
       -3.0426764 -1.1679325 -1.3085066 0.60306185
0001d0 a7 80 1f 3f ac 2d 48 3f 5f 02 90 bf b0 ce bd be
       0.6230568 0.7819469 -1.1250724 -0.37071753
0001e0 ee be 4b 40 44 23 b5 3f 91 c3 82 3f fb 3f 67 40
       3.1835284 1.4151387 1.0215932 3.61328
0001f0 c2 d5 81 40 6b ed 28 40 b8 cf 38 c0 3a 59 09 c0
       4.0573435 2.6394908 -2.8876781 -2.146071
000200 91 54 12 40 9d 39 b7 3f 49 5e b0 bf ed 70 1b 40
       2.2864115 1.4314457 -1.3778774 2.4287674
000210 b1 d4 d3 bf 73 ca 35 40 e9 b8 1b 40 d8 9a 2c c0
       -1.6549283 2.8404815 2.433161 -2.696951
000220 e2 dc 12 c0 de e3 c9 bf 21 0a b3 3f a5 25 a3 40
       -2.2947316 -1.5772665 1.3987466 5.0983453
000230 df 56 dd be e0 b5 bd be 61 9b 73 be 8c 7d 2c bf
       -0.4323034 -0.37052822 -0.23789741 -0.6737907
000240 71 3b 8f be 5d 58 6c bf 8c 24 10 3f f4 ca 55 be
       -0.27975038 -0.9232233 0.56305766 -0.20878202
000250 a3 2b 9c be 35 5b 87 be 0d b1 cf 3e 8a f9 ab be
       -0.30502042 -0.26436773 0.40564767 -0.3358882
000260 a9 62 49 3e 66 db ec be b8 1a 80 be 1e a0 2e 3f
       0.19666542 -0.46261138 -0.25020385 0.6821307
000270 f2 3e bb 3e 9b 45 93 3e 1e 01 86 bd 23 cc 45 bf
       0.3657146 0.28764042 -0.06543182 -0.7726461
000280 d4 42 64 bf 25 54 0b bf fd 07 da be 34 04 91 bf
       -0.8916447 -0.5442527 -0.4258422 -1.1329408
000290 9b 1f 80 bf 7b cc 2d bf 95 d7 99 3f 6c 36 a5 bf
       -1.0009645 -0.6789014 1.2018915 -1.2907233
0002a0 5c a0 55 bf 3e 43 5c bf e1 77 2a 3f 20 48 8a bf
       -0.83447814 -0.86040103 0.6658917 -1.0803261
0002b0 63 95 af bf c4 7b 84 bf f8 a2 8b bf ca 21 61 3f
       -1.3717464 -1.035027 -1.0909109 0.87942183
0002c0 c9 03 34 3f 3e 50 3d 3f 70 77 2c bf fe 7c 90 bf
       0.70318276 0.73950565 -0.6736975 -1.1288145
0002d0 f5 2c 62 bc 0e 4f 45 bd c6 80 b4 be 2d 3a 41 be
       -0.013804664 -0.048171096 -0.35254496 -0.18869849
0002e0 55 be e3 3c b9 06 cc 3e b0 a7 42 3d 14 93 1a c0
       0.027800718 0.3984888 0.0475232 -2.415227
0002f0 22 83 8c 3d 38 6e 72 be ed 0a d5 3c 75 e0 13 3e
       0.06860949 -0.23674858 0.026006186 0.14441092
000300 ce a3 07 c0 6c 7b 12 bf b7 e6 31 bf af f5 90 be
       -2.1193728 -0.57219577 -0.6949267 -0.28312442
000310 e7 60 e2 3d 2b 2f 81 3e 96 ff 90 be e4 a9 20 3f
       0.11053639 0.252313 -0.28319997 0.6275923
000320 83 09 6f 40 e9 21 9b 3f 91 ce 87 bf 5b 70 75 40
       3.7349555 1.2119724 -1.0609914 3.8349826
000330 ed 5a 84 40 9d 4b 43 40 c9 3e 5a c0 ae f6 f1 bf
       4.1360993 3.05149 -3.410082 -1.8903406
000340 c8 82 33 40 43 40 bb 3f b9 9f 0f c0 3f 41 4c 40
       2.8048573 1.4628986 -2.2441237 3.1914823
000350 3b a4 59 bf fe 3b 5d 40 f8 86 4b 40 0f 0f 4d c0
       -0.8501622 3.4567866 3.1801128 -3.204044
000360 09 b6 38 c0 8d 82 a3 bf a9 72 a8 3f 4c e9 d7 40
       -2.8861105 -1.2774216 1.3159992 6.7472286
000370 5c eb 9d 40 59 81 09 40 7d cd 52 bf 19 2f 98 40
       4.9349804 2.1485198 -0.823448 4.755749
000380 22 37 98 40 3a f3 76 40 a4 59 8b c0 02 7e f2 3e
       4.75673 3.8585954 -4.3546925 0.4736176
000390 65 d6 73 40 6b bd de 3f a8 d6 31 c0 33 ba 90 40
       3.8099606 1.7401556 -2.7787266 4.5227294
0003a0 a2 d9 cb 3f 4f fc 98 40 4e 97 8b 40 90 bb 90 c0
       1.5925791 4.7807994 4.36222 -4.522896
0003b0 bc 7e 6f c0 30 f1 fc bf 6a ae 0e 40 20 ea 04 41
       -3.7421103 -1.9761105 2.2293954 8.307159
0003c0 a3 d0 63 be 57 f9 76 bf ed 80 79 bf d8 2d 0e 3f
       -0.22247557 -0.9647421 -0.9746235 0.555387
0003d0 7f 4e ce bc 2f d6 c1 3e ce 69 68 be af 36 18 bf
       -0.025183914 0.37858722 -0.22696611 -0.5945844
0003e0 49 d4 0b bf b5 0c 80 bf b9 eb 5e 3f 02 5e 4e be
       -0.54620796 -1.0003878 0.87078434 -0.20153049
0003f0 1a 3a d0 be bf e7 81 be 36 a6 7d be c6 12 e9 be
       -0.40669328 -0.2537212 -0.24770436 -0.45522135

lstm.bias_ih_l0 f4 [80]
000000 45 dd 8c 3e 64 17 69 3e 8a 49 14 3f 36 36 15 3e
       0.27512565 0.22762829 0.5792471 0.14571461
000010 f6 66 b9 3e 81 fa e1 3e a6 6f 85 3e 72 15 9c bd
       0.36211365 0.44136432 0.26061743 -0.07621278
000020 33 09 10 3f e3 10 eb 3e 04 7d 82 3e ef 41 93 bd
       0.56264037 0.4591132 0.25486004 -0.0719031
000030 17 17 84 3e 20 1a 06 3e 21 40 b6 3e 32 aa 86 3e
       0.25798866 0.13095903 0.355958 0.26301724
000040 f7 3e ea 3e 33 c9 1d 3f e7 80 32 3f d2 19 d1 3d
       0.45751163 0.6163513 0.6972794 0.10210003
000050 31 a1 64 bf 10 5b 62 bf 9a 0a ea bf 99 41 c9 be
       -0.8930846 -0.884202 -1.8284485 -0.3930786
000060 7c 33 cd bf a3 e9 b1 be d3 3e eb bf 57 17 de 3d
       -1.6031337 -0.34748563 -1.8378547 0.108442955
000070 b6 21 3c bf 7b a6 38 bf 0e 67 61 bf 7b 23 69 bf
       -0.7348894 -0.7212903 -0.88047874 -0.91069764
000080 9e 62 2d 3e 42 93 81 bf c9 54 4d bf bb 93 db bf
       0.1693215 -1.0123065 -0.80207497 -1.7154459
000090 2c 85 3e bf a8 92 b2 be c9 7d 96 bd 58 7a 41 bf
       -0.74421954 -0.34877515 -0.0734821 -0.75577307
0000a0 79 f8 3a bf d4 49 1f bf 0d 1e 53 bf 95 34 19 bf
       -0.7303539 -0.6222203 -0.8246773 -0.5984586
0000b0 c5 70 1e bf 05 fc 1b bf a1 60 61 3f d9 02 a2 be
       -0.6189082 -0.60931426 0.8803807 -0.31642798
0000c0 c7 f7 39 bf 93 f7 ef be f3 ee 20 3f 37 13 33 bf
       -0.72643703 -0.46868572 0.6286461 -0.69951195
0000d0 08 58 aa bf 67 6e 2d bf b7 19 4a bf a0 11 1d 3f
       -1.3308115 -0.67746586 -0.7894549 0.6135502
0000e0 c5 2f 26 3f 0a a8 3b 3f 18 f8 35 bf d2 6c 29 bf
       0.6491664 0.7330328 -0.71081686 -0.6618167
0000f0 6d ff 2a 3f e5 3c 17 3d 79 e2 66 3c 17 11 2a 3e
       0.66796 0.036923308 0.014092081 0.16608082
000100 68 ad 6b 3f 59 92 34 3f fc 2d 41 3f 52 af 16 be
       0.9206147 0.7053581 0.7546079 -0.14715317
000110 e0 51 82 3e cd 40 ea 3e d1 0b fc 3e 34 e1 23 3f
       0.2545309 0.45752564 0.49227765 0.6401551
000120 38 b7 25 3e fd d8 02 3f 80 2d 9a 3f e7 c4 13 3f
       0.16183174 0.5111235 1.2045135 0.57722324
000130 d0 77 ec 3d 8a 2f 7f 3f 27 ad 32 3f 47 43 3b 3f
       0.1154629 0.99681914 0.6979546 0.7314953

lstm.bias_hh_l0 f4 [80]
000000 28 0d b8 3e 4b d3 64 3d 58 15 0e 3f 27 27 16 3e
       0.35947537 0.055865567 0.5550132 0.14663373
000010 12 e8 b7 3e 1b ef 2d 3f 40 67 b3 3e 88 98 94 be
       0.35919243 0.6794297 0.3503971 -0.29022622
000020 3a e3 35 3f 1d 2c a3 3e 02 eb 6f 3e dc 3f f3 bd
       0.71049845 0.31869593 0.23429492 -0.118774146
000030 a5 29 0e 3f e2 8e 02 3d b3 86 32 3e c8 77 b7 3e
       0.55532295 0.031874545 0.17434196 0.35833573
000040 53 b2 f5 3e d6 a0 f2 3e 06 78 06 3f a6 31 b5 bd
       0.47987613 0.47388333 0.5252689 -0.0884736
000050 52 2f 9e bf 24 27 6a bf 28 d2 e1 bf 94 2b 0c bf
       -1.2358191 -0.91465974 -1.764226 -0.54753995
000060 62 ff e0 bf c3 6b 3d bf 8b 31 e5 bf 00 d8 87 bd
       -1.7577937 -0.73992556 -1.7905744 -0.066329956
000070 d2 99 54 bf 7a 82 06 bf a8 4b 19 bf 8e f3 8a bf
       -0.8304721 -0.5254284 -0.5988107 -1.0855577
000080 d7 bd 90 3d 1a 13 33 bf c9 93 0a bf a9 70 fb bf
       0.07067459 -0.6995102 -0.5413175 -1.9643756
000090 ee d3 43 bf de e6 e9 be 67 6a 01 be 27 7f cd be
       -0.76495254 -0.4568395 -0.12638246 -0.40136072
0000a0 87 2d 33 bf 91 90 34 bf 75 9e 0f bf bb 72 4b bf
       -0.69991344 -0.7053309 -0.5610116 -0.7947194
0000b0 8a 31 3e bf 5b dc 50 bf 69 a7 fc 3e e5 29 82 3d
       -0.7429434 -0.81586236 0.49346474 0.06355647
0000c0 98 3f 40 bf 18 99 4b bf b0 83 33 3f a9 cc 38 bf
       -0.75097036 -0.7953048 0.70122814 -0.72187287
0000d0 0c d0 9e bf 94 b9 25 bf c3 79 0e bf 9b 9a 4e 3f
       -1.2407241 -0.64736295 -0.55654544 0.8070466
0000e0 1d 2e 2d 3f d0 43 06 3f 34 dd 16 bf 7a 4a 4e bf
       0.6764849 0.52447224 -0.5893128 -0.8058239
0000f0 2e 1a 3f 3f 7e 13 c1 3e 4b ea 76 3e 65 df e9 3d
       0.7464932 0.37710184 0.24112813 0.11419562
000100 e6 f4 1b 3f fc 4d fa 3e d0 cb ec 3e 3e a9 9a be
       0.6092056 0.48887622 0.46249247 -0.30207247
000110 5d 5f eb 3e 95 6b 3b 3f 5c 3f 9a 3e 6b b0 40 3f
       0.45971194 0.7321103 0.30126464 0.7526919
000120 67 7a 8e 3e 96 d1 2d 3f 80 ac 7a 3f 2f 01 32 3f
       0.2782776 0.6789793 0.97919464 0.69533056
000130 20 ae 0c 3e 23 30 55 3f 8a ab 04 3f 7e 20 47 3f
       0.13738298 0.83276576 0.5182425 0.77783954

linear.weight f4 [1, 20]
000000 cd c2 65 3f 27 19 a1 3e 66 54 d6 3e 56 e3 3c 3f
       0.8975037 0.31464502 0.41861266 0.7378439
000010 d1 0c 48 3f fb 03 25 3f 69 82 4e bf 52 db 45 3a
       0.78144556 0.644592 -0.8066774 0.0007547635
000020 2a cc 25 3f 72 4a dd 3e ca c1 15 bf bd 31 85 3f
       0.64764655 0.4322086 -0.58498824 1.0405804
000030 a6 2c 3f bb 39 72 9e 3e 0c 52 9a 3e 0f d9 55 bf
       -0.00291709 0.3094652 0.30140722 -0.8353433
000040 48 35 25 bf 47 0d ab be 1d 5a bd 3e 0d df ad 3f
       -0.64534426 -0.33408567 0.36982813 1.3583695
