m1/time_series_pattern_recognition/src_final/parameters_20_4000/NN/model_1_1000.pth (torch, 9367 bytes, 5 tensors)

lstm.weight_ih_l0 f4 [80, 1]
0	0xbe383a58	-0.17991006
1	0x3ec6decf	0.38841864
2	0x3eb7727d	0.35829535
3	0xbe93d0a7	-0.28870127
4	0xbe981b0c	-0.29708135
5	0xbed193ee	-0.40933174
6	0xbe9cc3e0	-0.3061819
7	0xbe0a13d2	-0.13484123
8	0x3f1465dc	0.57967925
9	0xbe39022d	-0.18067236
10	0xbe375f1a	-0.17907372
11	0x3e30528d	0.1721899
12	0xbdb6c17e	-0.089236245
13	0xbde2c851	-0.110733636
14	0xbe0750c8	-0.1321441
15	0xbe101408	-0.14070141
16	0xbecaf818	-0.39642406
17	0xbe2dd9a1	-0.1697755
18	0xbe77b05e	-0.24188372
19	0xbe14665d	-0.14492173
20	0xbea2f705	-0.31829086
21	0xbf256acc	-0.64616084
22	0xbffc756f	-1.9723338
23	0xbed9622e	-0.42457718
24	0xbfdb5a74	-1.7136979
25	0xbea5e893	-0.32404003
26	0xbe22c37c	-0.15894884
27	0x3eefb61d	0.4681863
28	0xbf4ad90e	-0.7923745
29	0xbebee560	-0.37284374
30	0xbe832dc5	-0.25620857
31	0xbd004cb3	-0.031323146
32	0xbe217ffc	-0.15771478
33	0xbf09c8de	-0.53822124
34	0xbff48a95	-1.9104792
35	0xbe22df60	-0.15905523
36	0xbec71829	-0.3888562
37	0xbe3823c9	-0.17982401
38	0xbedb1664	-0.4279052
39	0xbf01e0aa	-0.50733435
40	0x3ee3e6a4	0.44511902
41	0x3ee02ad9	0.4378269
42	0x3ee83920	0.45356083
43	0x3edef1d9	0.4354389
44	0x3eda438d	0.42629662
45	0x3ee384da	0.44437295
46	0xbee099f6	-0.43867463
47	0xbfb413b2	-1.406851
48	0x3ee96545	0.45585075
49	0x3ed52725	0.41631427
50	0xbee05c5a	-0.4382046
51	0x3ee3e9ee	0.44514412
52	0xbf6b878d	-0.9200371
53	0x3ed8569b	0.42253575
54	0x3edbb2d5	0.42909876
55	0xbee19da0	-0.4406557
56	0xbedc84db	-0.4307011
57	0xbed6898d	-0.41901818
58	0x3ed7e19d	0.42164317
59	0x3ee7cff7	0.45275852
60	0xbed92b80	-0.42416
61	0xbe20780a	-0.15670791
62	0xbdef6595	-0.11689297
63	0x3ecd7ddb	0.40135083
64	0x3e370615	0.17873414
65	0x3eabf525	0.33585468
66	0xbd9da857	-0.07698124
67	0x3e3bcc44	0.1833964
68	0xbeb1961d	-0.3468484
69	0x3db2d274	0.08731547
70	0xbd9cb533	-0.076517485
71	0xbef673c8	-0.4813521
72	0xbf2154b8	-0.63019896
73	0x3f0951e6	0.5364059
74	0x3f1b4808	0.60656786
75	0xbe9b61bd	-0.30348006
76	0x3ead913c	0.33899868
77	0x3ebb5e82	0.3659554
78	0x3ea3fc24	0.32028306
79	0xbeb813ae	-0.35952514

lstm.weight_hh_l0 f4 [80, 20]
0	0x40ef10b2	7.470788
1	0x408ea9f8	4.458248
2	0x404dc520	3.2151566
3	0x40ea9974	7.331232
4	0x40e4915c	7.142744
5	0x40d24a9b	6.571607
6	0xc0b1a436	-5.5512953
7	0x3eb92e9b	0.3616837
8	0x40c51477	6.158748
9	0x409736eb	4.725454
10	0xc07fa6db	-3.994559
11	0x40af3808	5.4755898
12	0x40582b3b	3.3776386
13	0x40e82c4f	7.255409
14	0x40dc3297	6.8811755
15	0xc0ba086f	-5.8135295
16	0xc0cf5ef2	-6.48034
17	0xc09e934a	-4.9554796
18	0x40b02f4f	5.505775
19	0x415aaf01	13.667726
20	0x3fb6f832	1.4294493
21	0x3f3d74d0	0.74006367
22	0x3f5d62fa	0.8647915
23	0x3fd57868	1.667737
24	0x3f93b26b	1.1538824
25	0x3fc34808	1.5256357
26	0xbf63539b	-0.88799447
27	0xbfd43a51	-1.6580297
28	0x3fc70d10	1.5550861
29	0x3fc79ffb	1.5595697
30	0xbf465994	-0.77480435
31	0x3f816210	1.0108051
32	0xbfd3b4df	-1.6539572
33	0x3ff5427a	1.9160912
34	0x4003a341	2.0568392
35	0xbf4559ef	-0.7709035
36	0xbfd35fa8	-1.6513567
37	0xbfa1c29b	-1.2637514
38	0x3ff2047a	1.8907616
39	0x40873213	4.2248626
40	0x3fb3536f	1.4009837
41	0x3f8a369e	1.0797918
42	0x3f016301	0.5054169
43	0x3fd48526	1.6603134
44	0x3f963e00	1.1737671
45	0x3fbe74b9	1.4879371
46	0xbf8d9448	-1.1060877
47	0xbfa7ff07	-1.3124703
48	0x3fbedea8	1.4911699
49	0x3f875551	1.0572912
50	0xbf0ff331	-0.56230456
51	0x3fd6802f	1.6757869
52	0xbfd71469	-1.6803104
53	0x3fb30c01	1.3988038
54	0x3fb7e17f	1.4365691
55	0xbf4bb3c5	-0.7957118
56	0xbfc53c9b	-1.540912
57	0xbff6caf2	-1.9280684
58	0x3ffa634d	1.9561554
59	0x4044d3b5	3.0754216
60	0xbeee81a3	-0.4658328
61	0xbfc4b7bb	-1.536857
62	0xbfe756ed	-1.8073403
63	0xbfb3fedc	-1.4062152
64	0xbf41260e	-0.7544869
65	0xbf856feb	-1.042478
66	0x3eda80ce	0.42676395
67	0xc0a9e2e4	-5.3089466
68	0xbf7f8020	-0.9980488
69	0xbfdb19b1	-1.7117215
70	0x3f8116c0	1.0085068
71	0xbf6d8824	-0.9278586
72	0xc0966c3a	-4.7007113
73	0xbfcf092b	-1.6174673
74	0xbfbc6d4d	-1.4720856
75	0x3f848113	1.035189
76	0x3f9f1fbd	1.2431561
77	0x3fe5bdbd	1.7948529
78	0xbfb5fb1b	-1.4217256
79	0x3f6f46a6	0.93467176
80	0x3f52b62b	0.82309216
81	0x3db456cd	0.088056184
82	0x3e8ce290	0.27516603
83	0x3efc1792	0.49236733
84	0x3e0ae92b	0.13565509
85	0x3e083829	0.13302673
86	0xbeeab475	-0.45840803
87	0xc031cb60	-2.778038
88	0x3cc791ea	0.02436157
89	0xba3be8b4	-0.00071681594
90	0x3d62710a	0.055283584
91	0x3e9ddbd6	0.30831784
92	0xc051104c	-3.2666197
93	0x3d89e04d	0.06732235
94	0x3dd7fd1c	0.10546324
95	0xbe425e52	-0.18981293
96	0xbe2dcf45	-0.16973598
97	0x3e3847e6	0.17996177
98	0xbe1b5126	-0.15167674
99	0x3ff7fd43	1.9374164
100	0xbe8f8d9d	-0.2803773
101	0xbf91dd02	-1.1395571
102	0xbf5fb4de	-0.87385356
103	0xbf768184	-0.96291375
104	0xbf8858c2	-1.0652087
105	0xbfa88b1c	-1.3167453
106	0x3f773ee6	0.9658035
107	0xc08d572b	-4.4168906
108	0xbeb828c9	-0.35968617
109	0xbfa56546	-1.2921531
110	0x3f65d33e	0.89775455
111	0xbedb8fa4	-0.42883027
112	0xc0834c34	-4.103052
113	0xbfbfb4cf	-1.4977053
114	0xbfc50262	-1.5391352
115	0x3f3ec173	0.7451393
116	0x3f65749f	0.89631075
117	0x3f9ac68f	1.2091845
118	0xbfaf45de	-1.3693197
119	0x3e866dcc	0.26255643
120	0x403b0c93	2.9226425
121	0x3f8788b8	1.0588598
122	0x3ed57710	0.416924
123	0x40732ab4	3.7994814
124	0x406ea4d6	3.7288108
125	0x4021668f	2.5218847
126	0xc0189107	-2.3838518
127	0xbf5754df	-0.8411388
128	0x4007c695	2.1214955
129	0x3f9b21e6	1.211972
130	0xbf0c2061	-0.54736906
131	0x3ff9e347	1.9522485
132	0x3db288b4	0.0871748
133	0x403d7a11	2.9605753
134	0x40215906	2.5210586
135	0xbffb82cb	-1.964929
136	0xc0114f0d	-2.2704499
137	0xbfae64b1	-1.3624479
138	0x3fbce30b	1.4756788
139	0x40ebad1f	7.364883
140	0xbf6d361e	-0.926607
141	0xbeda2211	-0.42604116
142	0xbe8f28c8	-0.279608
143	0xbf862fe1	-1.0483361
144	0xbf137c8a	-0.57611907
145	0xbf97a91b	-1.1848482
146	0x3f8bb529	1.0914661
147	0x3dc2171e	0.094770655
148	0xbf156dd0	-0.58370686
149	0xbeb8c47f	-0.36087415
150	0x3f163c37	0.5868563
151	0xbf1b98a7	-0.60779804
152	0x3f5ace7d	0.85471326
153	0xbf2b85bd	-0.67000943
154	0xbeef2fe7	-0.46716234
155	0x3f8c55a7	1.0963639
156	0x3f3a287b	0.7271802
157	0x3e5ba625	0.21450098
158	0xbdab2335	-0.083563246
159	0xbfbcaa93	-1.4739555
160	0x3fe3d300	1.7798767
161	0x3fda7774	1.7067704
162	0x3ff3e83e	1.905525
163	0x3f5a6b14	0.8531964
164	0x3f80b348	1.0054712
165	0x3fac1c04	1.344605
166	0xbf73b5a6	-0.9519905
167	0xbfaccfdd	-1.3500935
168	0x3fa66f26	1.300267
169	0x3fb11edb	1.3837541
170	0xbf2a0ae7	-0.66422886
171	0x3f90cdad	1.1312767
172	0xc01078e5	-2.2573788
173	0x3fdcccc2	1.7249987
174	0x3fcec7a9	1.6154681
175	0xbf0b7f05	-0.5449069
176	0xbfb446fd	-1.4084164
177	0xbfeb44f2	-1.8380415
178	0x40063a64	2.097314
179	0x3fd58dc3	1.6683887
180	0x3f4ac1d8	0.7920203
181	0x3dff37e4	0.12461832
182	0xbe317358	-0.17329156
183	0x3e3167c4	0.1732474
184	0x3e4f82db	0.20264761
185	0x3f3d3e1d	0.739229
186	0xbea7c4af	-0.32767245
187	0xc05ca88b	-3.447787
188	0x3eb1325f	0.34608743
189	0xbe83a90d	-0.25714913
190	0xbe67a1ab	-0.22620265
191	0x3f0e4bfd	0.555847
192	0xc02f6d72	-2.741055
193	0xbe9a87cd	-0.30181733
194	0xbedc46b9	-0.43022707
195	0xbef652d1	-0.4811006
196	0xbe7a4cc7	-0.2444335
197	0xbcbd9d7a	-0.02314638
198	0x3e261516	0.16218981
199	0x3fec6ff8	1.847167
200	0x402c39e1	2.6910326
201	0xbe8da885	-0.27667633
202	0xc0230f86	-2.5478225
203	0x4033e263	2.8106925
204	0x4021cd69	2.5281622
205	0x3fd6f754	1.6794229
206	0xbfd402fc	-1.6563411
207	0xbfbecdff	-1.4906615
208	0x3fcd5f0c	1.6044631
209	0x3df5b5e0	0.119975805
210	0xbcb3ff5e	-0.021972355
211	0x3fda9aa8	1.7078447
212	0xbd711baa	-0.058864273
213	0x40277cd4	2.616994
214	0x401c6d86	2.4441848
215	0xbfafa6c5	-1.3722769
216	0xbfe3003d	-1.7734448
217	0x3dab82f3	0.08374586
218	0x3e68be22	0.2272878
219	0x41068e48	8.409737
220	0x40a563d5	5.1684365
221	0x402bb97f	2.6831968
222	0xbf1ba4b4	-0.6079819
223	0x40d58ecc	6.6736813
224	0x40b05893	5.5108123
225	0x40ae56ee	5.4481115
226	0xc090099b	-4.5011725
227	0x3ed0d83f	0.40789983
228	0x40a3f879	5.124081
229	0x400ede6a	2.232325
230	0xc0284953	-2.6294754
231	0x40ca90a8	6.330158
232	0x4090ef16	4.5291853
233	0x40cdf349	6.435948
234	0x40bf49b5	5.9777474
235	0xc0a3c3ca	-5.11765
236	0xc0a8cc42	-5.274934
237	0xc02b9eba	-2.681563
238	0x406b72e0	3.6788864
239	0x4181e096	16.234661
240	0xbf8f25db	-1.1183428
241	0xc0429a6e	-3.0406756
242	0xc030d0ce	-2.7627444
243	0xbf938ba6	-1.1526992
244	0xbfa921bc	-1.321342
245	0xbf61e398	-0.88237906
246	0x3f6d659c	0.9273317
247	0xbfa019e7	-1.2507905
248	0xbffedcb8	-1.9911108
249	0xc02ee62e	-2.732799
250	0x401c81f7	2.4454324
251	0xbfb26ada	-1.3938859
252	0xc0566f57	-3.3505456
253	0xc009ba2c	-2.151988
254	0xc0075ca8	-2.1150303
255	0x3f1240b7	0.57129997

lstm.bias_ih_l0 f4 [80]
0	0x3d0b84c1	0.03406215
1	0xbeaf3d31	-0.34226373
2	0x3b3705db	0.0027927074
3	0x3e84fb78	0.25973105
4	0x3e8a867e	0.27055734
5	0x3f023c02	0.50872815
6	0x3e5a68bf	0.2132902
7	0x3dd3870e	0.10328494
8	0xbf72d5b7	-0.9485735
9	0x3eb28724	0.3486873
10	0x3e6201e0	0.22071028
11	0xbf07c8a6	-0.5304054
12	0x3f27cbce	0.65545356
13	0x3dca68b3	0.09883251
14	0x3e8316d8	0.25603366
15	0x3de5793f	0.112047665
16	0x3f0ca5a9	0.5494028
17	0x3ef759af	0.4831061
18	0x3f3c9221	0.73660475
19	0xbdac0fb1	-0.084014304
20	0x3d2194c4	0.039448515
21	0xbf5a00cd	-0.8515747
22	0xbffbfb5b	-1.9686083
23	0xbec2aa39	-0.38020495
24	0xbfcd218b	-1.6025862
25	0xbecfc57a	-0.4058035
26	0xbee4ec83	-0.44711694
27	0xbd399175	-0.045304734
28	0xbf76fe2b	-0.9648158
29	0xbf3c0ad9	-0.7345405
30	0xbf576cb8	-0.84150267
31	0xbdc17722	-0.09446551
32	0x3eff21af	0.49830386
33	0xbf3e5d21	-0.74360853
34	0xbfdbca41	-1.7171098
35	0xbf1756db	-0.59116906
36	0xbf5712a0	-0.84012794
37	0xbe8be9df	-0.27326867
38	0xbe6f0e33	-0.2334526
39	0xbf9ede8d	-1.2411667
40	0xbf8cd055	-1.1001078
41	0xbf83bc5a	-1.0291855
42	0xbf9ea5c9	-1.2394344
43	0xbf781a97	-0.9691557
44	0xbf7c2fb4	-0.9851029
45	0xbf793440	-0.9734535
46	0x3fa24a03	1.2678837
47	0xbf5a3f64	-0.85252976
48	0xbf8d5ea5	-1.1044508
49	0xbf5b675d	-0.85704595
50	0x3f8416e5	1.0319487
51	0xbf8b6aab	-1.0891927
52	0xbfad4c80	-1.3538971
53	0xbf86eea0	-1.0541573
54	0xbf948657	-1.1603497
55	0x3f7cb871	0.98718935
56	0x3f849fe5	1.0361296
57	0x3f905e4e	1.127878
58	0xbf8cae6d	-1.099073
59	0xbf83524b	-1.0259489
60	0x3f7f618d	0.99758226
61	0xbbe595f3	-0.0070064007
62	0xbd60e6f0	-0.05490774
63	0xbf0c7405	-0.5486453
64	0x3f7333ab	0.95000714
65	0xbeb9c372	-0.36281925
66	0x3f81b39f	1.0132941
67	0xbd1569a3	-0.036477696
68	0x3ea4d518	0.32193828
69	0x3ef1af4d	0.47204056
70	0x3f211cd7	0.6293463
71	0x3f515838	0.81775236
72	0xbe4f8d89	-0.20268835
73	0xbd0d63a6	-0.03451886
74	0xbe3d10b2	-0.184634
75	0x3f2e7cfe	0.6815947
76	0xbf123a5b	-0.57120293
77	0x3da0ab43	0.078451656
78	0xbea0fd6f	-0.31443354
79	0x3f85c095	1.0449396

lstm.bias_hh_l0 f4 [80]
0	0x3df27ef2	0.11840619
1	0xbf03975c	-0.5140283
2	0xbcafab92	-0.021444116
3	0x3e8573d9	0.26064947
4	0x3e89078a	0.26763564
5	0x3f3f2e36	0.7467989
6	0x3e9b2bfe	0.30307
7	0xbde2c4bb	-0.110726796
8	0xbf4cfbe5	-0.8007186
9	0x3e554526	0.2082716
10	0x3e4cf30b	0.20014589
11	0xbf13c8b0	-0.577281
12	0x3f73e9d4	0.9527867
13	0xb9848e50	-0.00025283033
14	0x3d986677	0.074414186
15	0x3e545723	0.20736365
16	0x3f125f93	0.57177085
17	0x3eae6923	0.34064588
18	0x3f108944	0.5645945
19	0xbe8c971c	-0.27459037
20	0xbe9b49f4	-0.3032986
21	0xbf61cce1	-0.88203245
22	0xbff3c2e9	-1.9043857
23	0xbf08e06a	-0.5346743
24	0xbfe0ed71	-1.7572461
25	0xbf4c59f4	-0.7982476
26	0xbeccb703	-0.39983377
27	0xbe615c1a	-0.2200779
28	0xbf87baef	-1.0603923
29	0xbf09e6fd	-0.53868085
30	0xbf0f5150	-0.5598345
31	0xbe89e40d	-0.269318
32	0x3ecc9f1b	0.39965138
33	0xbedc93a0	-0.4308138
34	0xbfba6993	-1.4563469
35	0xbf571053	-0.84009284
36	0xbf5c6162	-0.86086094
37	0xbec33e27	-0.38133356
38	0xbe929c6f	-0.28634974
39	0xbf6302c3	-0.8867609
40	0xbf88ea8b	-1.0696577
41	0xbf8e5f32	-1.1122801
42	0xbf79ccaa	-0.9757792
43	0xbf952c9e	-1.1654241
44	0xbf8df82a	-1.1091359
45	0xbf970a52	-1.1800025
46	0x3f6184ff	0.8809356
47	0xbef1f150	-0.4725442
48	0xbf908277	-1.1289815
49	0xbf97826e	-1.1836679
50	0x3f8d613f	1.1045302
51	0xbf8e477c	-1.1115565
52	0xbfa1c483	-1.2638096
53	0xbf83144a	-1.0240567
54	0xbf6d6c57	-0.9274344
55	0x3f97216d	1.1807076
56	0x3f881f7f	1.0634612
57	0x3f6b56a6	0.9192909
58	0xbf7a4341	-0.9775887
59	0xbf95c094	-1.1699395
60	0x3f89be25	1.0761153
61	0x3eaa953d	0.33316985
62	0x3e3042da	0.17213002
63	0xbf19bc7b	-0.60053223
64	0x3f237af0	0.6385946
65	0xbf144d0c	-0.57930064
66	0x3f389f38	0.7211795
67	0xbe43fddd	-0.1913981
68	0x3f06f0e5	0.52711326
69	0x3f3f2265	0.74661857
70	0x3ee06dc9	0.4383376
71	0x3f6e2778	0.93028975
72	0xbdb0a124	-0.08624485
73	0x3e0889c4	0.13333803
74	0xbed1e64b	-0.40996012
75	0x3f4cb953	0.7997028
76	0xbf0c9e1f	-0.54928774
77	0xbdaf4f03	-0.08559992
78	0xbefd0086	-0.49414462
79	0x3f8bafb4	1.0912995

linear.weight f4 [1, 20]
0	0x3f551849	0.8324018
1	0x3eb5d4ac	0.35513818
2	0x3ec9a80f	0.3938603
3	0x3f26051f	0.64851564
4	0x3ee92989	0.455395
5	0x3f0a9706	0.54136693
6	0xbf19df6d	-0.60106546
7	0x3bed7756	0.007246892
8	0x3eed4815	0.46344057
9	0x3ea4fdae	0.32224792
10	0xbf0034a4	-0.50080323
11	0x3f514322	0.8174306
12	0xbdc4f8cb	-0.09617766
13	0x3eb0b3d3	0.34512195
14	0x3e92dfa7	0.28686258
15	0xbf141478	-0.5784373
16	0xbf241768	-0.64098215
17	0xbe97b867	-0.29632875
18	0x3ebe0192	0.37110573
19	0x3f5632cd	0.83671266
