m1/time_series_pattern_recognition/src_final/parameters_20_4000/NN/model_2_600.pth (torch, 9367 bytes, 5 tensors)

lstm.weight_ih_l0 f4 [80, 1]
00000000: 8630 0bbe d3a7 98bd a650 383d af6c e1bd
00000010: c1e5 9dbd a4fb 523c 2f26 19be ed2d 5ebd
00000020: 8692 a33e 0664 0ebe 240e 0abd 1414 8dbd
00000030: 5df7 113e 44e6 493e b908 963e 0a87 d4bd
00000040: 2c37 94bb 05f1 9bbb ef19 f4bd fbdc f33e
00000050: 6fa9 00bd f188 c73c 10e2 aebc 23ee cdbe
00000060: ac57 043d f94d ba3e 23bd a6be 1957 0fbe
00000070: 9315 1fbe c3bc 1abf c685 6e3c dc5e 223e
00000080: 2255 42bd 0807 7abe 22e2 20bd 4f58 cd3e
00000090: 020e 1b3e 668d 05bd 2319 9a3a 0edf 04bf
000000a0: 1282 42be b2a4 5e3e 963c 0f3e 3697 f3bd
000000b0: 6919 163e 8eb1 423e 0dd7 133e 16eb 40be
000000c0: de07 14be 1338 06be 4617 28be d965 4a3e
000000d0: d702 ff3d d0f4 08be 5b2c 113e 407b 583e
000000e0: 6344 44be f18a 33be 1be2 2f3e af83 e03d
000000f0: 26d4 073e fefc 103e 0dce e13e a06b 653f
00000100: 8306 cf3e dec8 ed3d b5cf 823e 1484 6b3e
00000110: 3048 043f b863 af3e 063f 9a3e 319f ab3e
00000120: 27df 543f 27bb d03e e9cc 34be 0f41 f43e
00000130: fbc7 a73e a441 34be d1fb 763e 9262 1b3f
-0.13592729 -0.07453885 0.044998787 -0.11007058 -0.07709838 0.012877379 -0.14955972 -0.054243017
0.31947726 -0.13905343 -0.03370489 -0.06888595 0.14254518 0.19716746 0.2930353 -0.10377319
-0.0045231786 -0.0047589564 -0.11919009 0.47629532 -0.031411584 0.024357291 -0.02134803 -0.40220746
0.032310173 0.36387613 -0.32566175 -0.13998069 -0.15535574 -0.6044428 0.014558261 0.15856498
-0.04744447 -0.24416745 -0.039278157 0.40106437 0.15142062 -0.03260555 0.0011756759 -0.51902854
-0.1899493 0.21742514 0.13987955 -0.118940756 0.1465813 0.19013044 0.14437504 -0.18839678
-0.14456126 -0.13107328 -0.16415128 0.19765414 0.124517135 -0.13374639 0.14177077 0.21140766
-0.19166712 -0.1753347 0.17176096 0.10962617 0.13264522 0.14159009 0.44102517 0.8961735
0.40434656 0.11610578 0.25549093 0.22999603 0.5167265 0.34255767 0.30126208 0.3351989
0.83153003 0.40767786 -0.17656292 0.47705886 0.3276976 -0.17603165 0.24119498 0.6069728

lstm.weight_hh_l0 f4 [80, 20]
00000000: bd65 8e3e 357e 32be 77bd 103c b0a7 05be
00000010: 211a c8bd 17c1 8ebe 0315 dcbe db4e 23bd
00000020: 7fae b23e 7b1a 8e3e 80ad c7bd dce6 78be
00000030: 849a 8a3e 0b08 863e 0d77 bdbd 0cde 3fbd
00000040: 9231 96bd 7103 b13e cc68 b9be 8503 43bd
00000050: 9283 fd3e fe41 b3bd 62d6 abbd e62d eb3e
00000060: fdf1 87be a3d1 58be 3c75 51bf 1a76 b93d
00000070: 0d5e 993e 1c7c 123f 6618 aa3e cc91 57be
00000080: bcd8 dbbd 259d 9f3e 9d62 efbe 6146 debe
00000090: 4e63 1e3e 2d32 0b3f a476 0bbf 9369 13bf
000000a0: 6c61 083f 3ad2 08be b638 b8bd 75bf 963e
000000b0: e33c 63be ba8f a7be 62fc 36be e0d3 ce3e
000000c0: 5d38 e83c 9447 4e3e a581 1bbd 20eb a1bd
000000d0: d7f1 4dbe 4609 d23d e0f1 83be c6fd 9ebe
000000e0: 3f98 da3d c09b 9b3e 962f 12be bba1 1ebe
000000f0: 6655 babd 45b8 753e 3726 69bd 89a5 4f3e
00000100: b7fd 433d f57a afbd a936 d83d aca3 273e
00000110: e7ff 5abe cb46 883e f5d3 d23c 507d 7c3e
00000120: 4be9 b93e 4c41 6a3d 2cdf 9d3e 645a 16be
00000130: 8677 68bd 7834 6bbe f6f7 51bd 620b fabd
00000140: 0286 5f3d ea4f 83be 45ff c73d aab0 8a3d
00000150: c56c 123d 34d4 203c 149a c2be cd41 563e
00000160: 5a2d a5bd b918 9a3e 89e4 853c 5c86 1c3d
00000170: 08fe a7bd 2d30 1b3e 5f9a af3c 77a6 f73c
00000180: 78f0 353b 5ba5 e63d 7bba b1be daaf 83be
00000190: 8f5d bc3f bac6 b6bf 065c 86bf cb16 9a3f
000001a0: ec1a a3bf 125d 77bf 12c3 b9bf 4d2c 9e3f
000001b0: 0a52 823f 0103 c53f e39e a73f 8aad 84bf
000001c0: e7e5 61bf b2ca 9a3f 6788 b4bf cb63 8dbf
000001d0: f7c8 673f b8b1 a43f dc94 93bf 744e 95bf
000001e0: 92fe 28be 2f67 9a3d 31a6 e0bd 41d5 98be
000001f0: 31e8 77bb 7f5b d4bd a0cd 453e 1312 52be
00000200: a74d 1e3e 59cf 0ebe 80c2 a33d 6c64 bdbd
00000210: 1be5 8a3e b4e9 29bd 7c0e 933d a6b4 96be
00000220: ad7c 373e 7648 fe3d 9ae3 463e 4647 b93e
00000230: 8ff4 cf3c 067b eabd ba43 2a3e d809 84be
00000240: affb b73d 1aa1 b9be 2562 1abe f50e d33c
00000250: 65fc a13e 8ed7 f93d 5846 f33d 16a0 06bc
00000260: 55c7 193e 71d9 b23d 1386 cebd 2bff 80bd
00000270: 133e a0bc 3277 913e 509b 89be 2594 e53d
00000280: 5269 0e3f 5b2c 7dbe deab d7be 9e63 0b3f
00000290: 8413 9ebe e18b c0be 49a5 d0be 6eef d83e
000002a0: ec75 4f3e d9ce 223f 6941 963e be9a 00bf
000002b0: e7c4 49bd 4360 f63e e6fd 9fbe 6909 b3be
000002c0: 2080 ed3e 48b4 703e 637c 35bf 48b6 cfbe
000002d0: ab51 14bd bbea ff3c da61 8f3e cd0a ee3c
000002e0: b624 933e 0703 353e 7d2e 06be f36d 423e
000002f0: f126 71be 3df5 c63d 8f42 91bd 995d 963d
00000300: 027a 353e 0114 3dbe 0d54 f13e 2406 4fbe
00000310: 9811 6cbe faaf 99be af6d a33c 5cea 123e
00000320: 5293 123f 5d45 57be 5bce b83d 9764 053f
00000330: 4b49 cbbd b880 44be a6d9 b3be 76db c3bc
00000340: 4add 183e a0fc 303f 60a6 a63e 8f57 a0bd
00000350: 91ab 7bbe 0c6d 983e ebc0 a6be 0cb5 08bc
00000360: 4601 763e 1092 4c3e 0697 16be 5759 30be
00000370: d43b 933f 6ac8 0abf c7fc 1dbf 63c8 5f3f
00000380: 25e3 34bf e0ad 23bf 76b9 8ebf 95bf ef3e
00000390: 14e7 5f3f e74f 8f3f d9ca 4f3f 24b5 4fbf
000003a0: 2f26 c6be 5e7b 4d3f cdf6 6ebf 51e9 6dbf
000003b0: 1973 0a3f bd0f 1c3f cf0c 32bf d7e9 9abf
000003c0: 3ac5 f23e 9cf4 a8be 0cda adbe c0e2 113f
000003d0: b2a9 76be 0217 fdbc 2ad4 00bf 65ac a13e
000003e0: 5910 f83d 48d6 ac3e 0508 f9bb a5b6 21be
000003f0: 5521 aabb 58d7 e73d b6eb 39bc 5894 bbbe
0.27811995 -0.17430957 0.008834234 -0.13052249 -0.09770609 -0.2788169 -0.4298478 -0.039870124
0.34898755 0.27754578 -0.097498894 -0.24306816 0.2707101 0.2617801 -0.09251223 -0.04684262
-0.073336735 0.34572938 -0.36212766 -0.04761078 0.49514443 -0.087528214 -0.083905 0.45933455
-0.2655181 -0.2117372 -0.8181951 0.09055729 0.29954568 0.57220626 0.3322174 -0.21051711
-0.10734698 0.3117458 -0.46754923 -0.4341307 0.15467569 0.5437344 -0.54477906 -0.5758297
0.53273654 -0.13361445 -0.08995192 0.29442945 -0.22191195 -0.32726842 -0.17869714 0.40396023
0.028347189 0.20144492 -0.037965436 -0.07906175 -0.20111786 0.10255675 -0.25770473 -0.3105299
0.1067357 0.30392265 -0.14275965 -0.15491383 -0.0909832 0.23996074 -0.05692121 0.2027799
0.047849383 -0.08568374 0.105573006 0.1637103 -0.21386681 0.2661651 0.025735835 0.24657178
0.363108 0.05719118 0.3083433 -0.14682919 -0.05675461 -0.22969234 -0.051261865 -0.12209202
0.05457116 -0.25646907 0.09765486 0.06771977 0.035748262 0.009816218 -0.38008177 0.20923539
-0.08065291 0.30096987 0.016344326 0.038214073 -0.082027495 0.15155096 0.021435915 0.030230744
0.0027761739 0.11262008 -0.34712586 -0.25720102 1.4716052 -1.4279397 -1.0496833 1.2038206
-1.2742591 -0.9662639 -1.4512656 1.235727 1.0181286 1.5391542 1.3095363 -1.036546
-0.8824143 1.2093108 -1.4104127 -1.1046079 0.90541023 1.2866735 -1.1529803 -1.1664567
-0.16503361 0.07539212 -0.109691985 -0.298502 -0.0037827606 -0.10369014 0.19316721 -0.20514707
0.1545931 -0.13946284 0.07996082 -0.092476696 0.2712792 -0.041482642 0.07180497 -0.294347
0.17918654 0.124161646 0.1942276 0.3618719 0.02538517 -0.11449246 0.16627398 -0.2578876
0.08983552 -0.36255723 -0.15076502 0.025763968 0.31637874 0.12199317 0.118786514 -0.008216878
0.15017445 0.0873288 -0.100841664 -0.062986694 -0.01956085 0.2841125 -0.26876307 0.11209897
0.55629456 -0.24723952 -0.42123312 0.5444888 -0.30874264 -0.3760672 -0.40751103 0.4237017
0.20259827 0.63596874 0.2934678 -0.5023612 -0.049260046 0.48120317 -0.31248397 -0.34968117
0.46386814 0.23506272 -0.70892924 -0.40568757 -0.036210697 0.031239858 0.28004342 0.029057885
0.28738946 0.17676936 -0.13103671 0.18987255 -0.23550011 0.09714744 -0.07092773 0.07342071
0.17722324 -0.18464662 0.47134438 -0.20217186 -0.23053586 -0.30017072 0.019949762 0.14347214
0.5725604 -0.21022554 0.09023734 0.5210661 -0.09926089 -0.19189727 -0.3512699 -0.023908358
0.14928165 0.69135475 0.3254881 -0.078292005 -0.24577166 0.29770696 -0.3256906 -0.008343946
0.24023923 0.19977593 -0.14706048 -0.1722158 1.1502633 -0.5421206 -0.6171383 0.8741514
-0.70659095 -0.6393719 -1.1150348 0.46825853 0.8746197 1.1196259 0.81168896 -0.81135774
-0.38701007 0.8026637 -0.9334534 -0.9293414 0.54081875 0.60961515 -0.69550794 -1.2102612
0.47416097 -0.32999122 -0.3395542 0.5698662 -0.24088171 -0.03089476 -0.50323737 0.3157684
0.12112493 0.33757234 -0.007599833 -0.1579233 -0.005191962 0.113203704 -0.011347702 -0.36636615

lstm.bias_ih_l0 f4 [80]
00000000: d1c2 bb3d f1cf fabd 1a1f 543e 60e5 c33e
00000010: 3a0f 233f 5605 96be fdb3 3a3f 63b3 273c
00000020: 5267 2e3f 3c68 1b3f 30fb 4b3e a1db f73c
00000030: d222 033f a073 de3e f5a2 0a3f eb02 d83c
00000040: 81e2 f9bb d032 743e ec92 ab3e 6c20 693f
00000050: cf1a 50bd 67c5 0ebe 34fc a7be 9df0 1fbf
00000060: 4cee a9be d530 a03e 4d0e 3bbe 3a40 e9bc
00000070: 6369 fdbd 8ac4 e7be 7713 78bd 0445 6d3e
00000080: d980 09bf c1f2 febd c7e6 9ebe 822f 003f
00000090: a217 00be 267b f4bd d709 c4be f9a7 cfbe
000000a0: 62a5 bc3e faf9 3bbf 9baa f0be a6de b33e
000000b0: a76b 96be b5ac d7be 1ee9 d3be c7ee e23e
000000c0: bd77 a23e fc05 783e 9c74 133f f6ff 2dbf
000000d0: ad79 c3be 8dbb de3e 3b09 97be d2c4 05bf
000000e0: 666e b63e bbb0 d23e 2fc9 08bf 7950 73be
000000f0: 2c01 6a3f 8f0a 383f 3eae 303f 2d35 823f
00000100: 8ef2 863f f42c 783f a16f 903f 03bd 7d3f
00000110: 5a81 b93f 4aab 813f 8149 2a3f c5e5 413f
00000120: 7d51 8a3f c143 6b3f e47c e13e c5e1 413f
00000130: 40d3 613f c7e1 523f a29a 9a3f 1964 823f
0.09168018 -0.12246693 0.2071499 0.38260937 0.6369511 -0.29300946 0.7293089 0.01023564
0.68126404 0.60705924 0.19920039 0.030256094 0.51225007 0.4344759 0.541549 0.026368579
-0.0076258783 0.23847508 0.3351053 0.91065097 -0.050806817 -0.1394249 -0.32809603 -0.6247652
-0.3318962 0.31287256 -0.18267174 -0.028473008 -0.123736165 -0.45267135 -0.060565438 0.23170859
-0.5371223 -0.124486454 -0.31035444 0.5007249 -0.12509015 -0.11937551 -0.38288757 -0.4055784
0.36844927 -0.7342831 -0.47005162 0.35130805 -0.29379007 -0.42123953 -0.41388792 0.44322798
0.31731978 0.24221033 0.57599807 -0.6796869 -0.3817877 0.43502465 -0.2949923 -0.5225345
0.35631102 0.4115046 -0.5343198 -0.23761167 0.9140804 0.7189111 0.6901587 1.0172478
1.0542772 0.96943593 1.1284066 0.99116534 1.44926 1.0130398 0.6651841 0.75741225
1.0806118 0.9190026 0.44040596 0.7573512 0.88212967 0.8237576 1.207844 1.0186797

lstm.bias_hh_l0 f4 [80]
00000000: d919 9c3e c467 123e b311 4a3e 9c8e c93e
00000010: b651 203f 7c64 88bc b4a3 5d3f ada1 813b
00000020: 3db6 eb3e 68db 593f 3651 223e afed 13be
00000030: 5fb0 a73e fe1f f63e 489c 703e 6b4d d13d
00000040: 246d 16be 8f3b 503e 2353 7e3e d270 553f
00000050: 759f 12be 7781 803e 480d c9be 3b62 13bf
00000060: e0c3 b3be 71cd d03d cf0b 9ebe 0573 4f3c
00000070: eed4 4fbb 51c8 0bbf f4e5 2dbe 8cb3 5f3e
00000080: 23d0 48be 71f3 933d 6078 0fbf e669 ad3e
00000090: cbc1 c0bd 6d46 71be e7d5 92be 051f 16bf
000000a0: 85c8 273f a709 cbbe 78e2 86be a7e8 803e
000000b0: a4ee efbe f6a4 12bf c829 a4be aa7a 073f
000000c0: bd00 e43e 0183 e03e ee03 9a3e 89fb b1be
000000d0: 6c2a a0be 8c6a 893e 7d54 f4be fac8 14bf
000000e0: 100d 283f cc05 fd3e a55b bfbe 1c3c abbe
000000f0: ff21 4f3f ee94 023f 81bf 2f3f 5166 9b3f
00000100: 419d 603f a43d 743f 2884 973f 629d 8f3f
00000110: 326d 893f 1765 9b3f e8df 493f 5b21 3b3f
00000120: 26aa 973f c1fa 443f 1b9a 213f a366 173f
00000130: 2961 813f a41e 4c3f 40f2 9b3f 67cb 923f
0.3048847 0.14297396 0.19733314 0.39366615 0.6262468 -0.016649477 0.86577916 0.003956041
0.46037474 0.8510041 0.15851292 -0.14446138 0.32751748 0.48071283 0.23497117 0.102198444
-0.14690071 0.2033522 0.24836402 0.83375275 -0.1431864 0.25098774 -0.39267945 -0.5757176
-0.35110378 0.10195435 -0.30868384 0.0126617 -0.003171261 -0.54602534 -0.16982251 0.21845835
-0.19610648 0.07224167 -0.5604305 0.33869857 -0.09411963 -0.23562022 -0.2867882 -0.5864108
0.65540344 -0.39655802 -0.26344657 0.251775 -0.46861756 -0.5728296 -0.32063127 0.52921546
0.44531813 0.43849948 0.30081123 -0.3476222 -0.31282365 0.268391 -0.4772071 -0.58119166
0.6564493 0.49418485 -0.37374607 -0.33444297 0.8091125 0.510085 0.68651587 1.21406
0.8773995 0.95406556 1.1837206 1.1219904 1.0736449 1.2140225 0.7885728 0.7309777
1.18488 0.7694512 0.6312577 0.59140986 1.0107776 0.79734254 1.2183304 1.1468323

linear.weight f4 [1, 20]
00000000: 42a9 23bf db0a 313f 5c43 113f 5351 2cbf
00000010: e01d fa3e 9865 423f 2097 fc3e 2561 2ebf
00000020: 6a6e cdbe 37ca 07bf 6d3c 0fbf 61fa 2d3f
00000030: 56e6 023f f373 e6be 7595 363f 9bbb 293f
00000040: 4c4e 1dbf 12a3 28bf f5bc 103f 8db3 e23e
-0.6393014 0.6915719 0.5674341 -0.6731159 0.48850918 0.7593627 0.4933405 -0.6811698
-0.40123302 -0.5304293 -0.5595158 0.6796017 0.51132715 -0.45010337 0.71321803 0.6630189
-0.61447597 -0.65873826 0.56538326 0.4427761
