m1/time_series_pattern_recognition/src_final/parameters/NN/model_1_2600.pth (torch, 9367 bytes, 5 tensors)

lstm.weight_ih_l0 f4 [80, 1]
00000000: e916 873d 526b ae3e 2c59 653e 4a10 c03e
00000010: caf4 2c3e 319f 783e a65f 1b3e 276a 3a3e
00000020: 8c55 bb3e d06b d63e a530 ec3e 4e87 153e
00000030: 7a45 993e 2e62 753e ffc3 c43e 9876 d63e
00000040: 9514 d73e b993 803e c4de 993e 8332 083f
00000050: dc90 1fbd e2c0 f7bd 1165 0cbe cd8a ac3d
00000060: 70a6 87bd 7f63 48be d6d1 2bbe 741d 3fbe
00000070: 2174 ebbd c64c 803e 91eb 723e 3e09 1abe
00000080: cb3e 1c3e 01c6 a0bd f6cd 2fbe fa43 7a3e
00000090: 1054 4dbe f0bd fcbd 7323 babd dd68 4cbe
000000a0: f523 963e a464 cc3e 3fa1 c2be 68cb 4dbe
000000b0: 4575 94be 8f1d 97be 8191 b53e 725b 6fbe
000000c0: 6b13 4abe 2003 bb3e 0240 a53e 6d5e 743e
000000d0: d1f3 933e 22eb c23e 3562 903e 0317 f93e
000000e0: 0764 8ebe 8dd2 ab3e bf5f abbe 3563 653e
000000f0: 212c aa3e 75bf 9f3e 19f5 983d bf16 923e
00000100: 1a59 e43e 5581 d73e 93fa 7c3e 589e 9f3e
00000110: d68a 253e be15 723e 82fb 7c3e 542f a43e
00000120: 1b69 613e 890e f33d 4438 d13e d93e 633e
00000130: 53a5 e63e 52bf e73e a008 1d3e 98bb 473e
0.06596167 0.34066254 0.22397298 0.37512428 0.16890255 0.24279477 0.15173206 0.18204556
0.36588705 0.4187913 0.46130863 0.14602396 0.2993582 0.23963234 0.38430783 0.41887355
0.4200789 0.25112703 0.3005277 0.53202075 -0.038956508 -0.12097336 -0.13710429 0.08424912
-0.06623542 -0.19569205 -0.16779265 -0.18663579 -0.11496759 0.25058573 0.23722674 -0.15042588
0.15258329 -0.07850266 -0.17168412 0.24439994 -0.20051599 -0.12340915 -0.09088793 -0.19961877
0.29324308 0.39920533 -0.38013646 -0.20097125 -0.2899572 -0.2951474 0.35462573 -0.23374727
-0.1973397 0.36525822 0.32275397 0.23864146 0.28896955 0.38070017 0.28199926 0.4865037
-0.2781069 0.33559075 -0.33471486 0.22401126 0.33236793 0.31200758 0.07468624 0.2853298
0.4459923 0.4209086 0.24704961 0.31175494 0.16166243 0.23641106 0.24705318 0.32067358
0.22012751 0.11868007 0.4086324 0.22191943 0.45048007 0.45263153 0.15335321 0.19505155

lstm.weight_hh_l0 f4 [80, 20]
00000000: 654a d43d 723a f43d c849 103e 5243 563e
00000010: 782f 4fbe 73a0 d03d d951 1bbb 841a 343e
00000020: d646 983e a775 1c3e 454b 4c3e 8214 3e3e
00000030: 1187 023e 4b90 8e3e 13f8 ff3d c3ba 943e
00000040: c324 bbbd 80d1 223e 11c3 1f3d b0a3 9abd
00000050: 6bc2 023d 9019 cb3d e673 3f3e 5a03 e8bd
00000060: a0dd d53d 200c 593e b72f 88be 5e3f 103e
00000070: 7fc3 3c3e 66a7 32be eed1 c73c a209 d6bd
00000080: c547 a0be 6c02 94bd c154 ebbd e4b1 783d
00000090: 87c2 033e c9d7 a5bd 840c 813e 1572 61be
000000a0: 57f3 893d 643a e9bb 6c59 c53d e44b b93e
000000b0: 1d67 323e e65f 43bd 59eb 44be 150a 663e
000000c0: 07e6 c43e 07f2 b43d a043 a33d 332c d1bd
000000d0: 703e 02be c2ce 6c3c 723e 323e f926 d63c
000000e0: 2ee2 023e 28e8 b7bd 1bbc e5bd a395 81be
000000f0: ea62 3a3e 6a83 6f3d 00b0 633e ee8a ad3d
00000100: 5f37 1a3e 4c24 31be a6f6 debd 4ed9 cabd
00000110: db06 85be 27f9 8f3d aa09 873b 4340 533e
00000120: 4fad 31bd 783d 38be cad0 2fbe 2c3c 7d3c
00000130: 38f1 dcbd 31e9 c53d 26d7 2f3e 4d5c 683e
00000140: eeef 093d e716 a9bc 220b a2be 3784 043e
00000150: e314 9dbd 3ead 85be b86e 5bbd bb47 5bbe
00000160: 316b ce3e c908 2d3e e034 813e c029 8f3e
00000170: f6bb a83d e952 af3e c5eb bc3e 73bd e83d
00000180: 7ac6 7d3e 2565 043b 34ae 63bd 7240 d1be
00000190: 0dc8 0a3d 7fa4 07be 41d7 34be 5670 b53e
000001a0: 3bb6 2ebe f0e3 423d b914 fdbd e86c 1bbe
000001b0: 9447 32bc cd7b 2abd a0cd ff3d b5ae d8bd
000001c0: 7651 103e e111 11be e8a5 7cbd ecdf 043e
000001d0: 52d1 963e 4e84 f1bd 10a1 d23c 46f2 94be
000001e0: cd15 453e 316f 563e a313 413c 8f27 20bd
000001f0: 2257 893d 401e acbe c6bf 523d 6647 003b
00000200: 18cd 813e 8b2e b43e 9475 e33d e19a 773e
00000210: 5596 9ebd 4d0f 883d 45af 443e 4a01 3a3e
00000220: 7560 b23d 851d a53e 1d0f acbe 1c02 adbe
00000230: 9381 e63d 9ae7 cabd f2a4 2dbc aadf c13e
00000240: 90b6 10be d916 0e3d 8bbe 94bc ca5e 5c3e
00000250: 04a2 e73e 3391 e1bd 9df8 103e 7340 3b3e
00000260: 36ee 17be 4ce3 153e 0b18 39bd 9329 333e
00000270: e13c da3d d5bd dd3d 20f0 94bd ced7 b2be
00000280: bc47 0bbd 4bde 13be d574 13be b9a0 20be
00000290: 5309 9dbd 3d01 083d 8017 013e ae0b 93bd
000002a0: c506 27bd b620 5b3d 0e4c b5bc e274 7b3d
000002b0: c556 1d3d 0b92 35be 5cbd edbd eb53 d93d
000002c0: 084a cebc bd8d 6e3d b1ac abbd 94d1 083e
000002d0: bd00 8d3e 29ee 703b 85ec f0bd cdec 253e
000002e0: c903 233e 7c93 973b dfea 87bd 4ae3 7b3d
000002f0: a172 913e de23 0bbc de08 9e3e 086c 8cbc
00000300: 2f83 743c 8878 0dbd b5aa 963d e331 dc3c
00000310: 9fb1 10be d8d2 90bc 218a 16be d675 12be
00000320: 42e0 8c3e ac51 293d ce01 143d 2e93 6a3e
00000330: b991 c8ba 2d9f 1ebd 178a f5bd b190 543e
00000340: 6c5c 9d3e 63f0 5c3e 6129 403e 832e 873e
00000350: 51a9 78bc 79ad fd3d d0d0 8b3e 57b1 05bd
00000360: ee29 e2bb 43ec 623e 2cef 3bbe 5e17 31be
00000370: b92b 2f3e 57d1 0b3e 12de 3c3e 7fa0 a43d
00000380: 765f f2bc 4b45 41be 8220 4a3e 0458 d73d
00000390: 3f9d ac3e c7aa b7bd c793 7cbd 6d42 ebbc
000003a0: 552d 443e 3b24 d73c 40de 8f3e 1dc6 883e
000003b0: b136 f63d dd2e debd 18f2 f73d 63e7 2cbf
000003c0: e91a 8b3e ecb0 2f3e 86df 6ebe 5bf6 973d
000003d0: f512 05be f3cf 92be 761d 56bd 0120 7d3d
000003e0: 730b 2d3e 3cea adbd 2b26 c83d eb7e 2d3e
000003f0: 794c 13bc c6c9 52bd 91e8 1f3e 0d1c 34bd
0.10365752 0.1192521 0.14090645 0.20924118 -0.20232952 0.10186853 -0.0023699908 0.1758824
0.29741544 0.15279256 0.19950588 0.1856251 0.12746836 0.27844462 0.12498488 0.29048738
-0.09137871 0.1590023 0.03900439 -0.07550752 0.031923693 0.09916985 0.18696555 -0.11328764
0.10442662 0.21196032 -0.26598904 0.14086673 0.18433951 -0.1744667 0.024392094 -0.10451056
-0.31304756 -0.072270244 -0.11490775 0.060716525 0.12867175 -0.080977984 0.2520486 -0.22016175
0.067358665 -0.0071175564 0.096361965 0.36190712 0.17422147 -0.047698878 -0.19230403 0.22464783
0.38456747 0.088352256 0.07971883 -0.102135085 -0.1271913 0.014453592 0.17406633 0.02614163
0.12781593 -0.08979827 -0.11217519 -0.25309476 0.18201795 0.058474936 0.22235107 0.08473764
0.15060185 -0.17299002 -0.10886888 -0.09904729 -0.25981793 0.07029944 0.004121025 0.20629983
-0.04337817 -0.17992198 -0.1716949 0.015456241 -0.10788196 0.09663618 0.17171916 0.2269146
0.03367608 -0.020640804 -0.3164912 0.12941061 -0.076699995 -0.26108736 -0.053572387 -0.21414082
0.40316156 0.16897883 0.25235653 0.2796154 0.08238976 0.34242943 0.36898628 0.113642596
0.24782744 0.0020201888 -0.055586055 -0.4086948 0.03388219 -0.13246344 -0.17660238 0.35437268
-0.17061703 0.04758066 -0.12357468 -0.15178263 -0.010881323 -0.041621972 0.12490392 -0.10580198
0.14093575 -0.14166977 -0.061681658 0.12976044 0.29456574 -0.11792813 0.025711566 -0.2909109
0.19246598 0.20940854 0.011784467 -0.039100226 0.067060724 -0.3361683 0.05145242 0.0019573807
0.25351787 0.3519176 0.111064106 0.24180175 -0.07743517 0.066435434 0.19207485 0.18164554
0.08709804 0.32249084 -0.3360528 -0.33790672 0.11255183 -0.09907456 -0.010598408 0.37865955
-0.14132142 0.034689758 -0.018157264 0.21520534 0.45240796 -0.11014023 0.14157338 0.18286304
-0.14836964 0.14637488 -0.045188945 0.17496328 0.10656143 0.10827223 -0.07272363 -0.3493027
-0.034003958 -0.14440267 -0.14400037 -0.15686311 -0.07667794 0.033204306 0.12606621 -0.07179962
-0.04077794 0.053497992 -0.022130992 0.061390765 0.038412828 -0.17731492 -0.11608383 0.10611709
-0.025181785 0.05824064 -0.08382548 0.13361198 0.27539626 0.0036763048 -0.117638625 0.16203614
0.15919413 0.004625736 -0.06636595 0.061496057 0.28407767 -0.008492438 0.3086614 -0.017141357
0.014923855 -0.034538776 0.073567785 0.026879257 -0.14130257 -0.017678663 -0.1470113 -0.14302763
0.27514845 0.041337654 0.036134534 0.22907707 -0.0015302218 -0.03872602 -0.11989229 0.2075832
0.30734575 0.21576075 0.18765785 0.26402673 -0.015177087 0.12386603 0.2730775 -0.032639828
-0.006901971 0.22160439 -0.18352956 -0.1729407 0.17106523 0.13654076 0.18444088 0.08038425
-0.029586535 -0.1887409 0.19738963 0.105148345 0.3371372 -0.0896812 -0.06166437 -0.028718198
0.19157918 0.026262393 0.2809925 0.26713648 0.1202215 -0.10848782 0.121067226 -0.6754057
0.27168968 0.17157334 -0.23327455 0.074200355 -0.12995513 -0.28674278 -0.05227419 0.0617981
0.16898899 -0.08491942 0.09772905 0.16942947 -0.0089904005 -0.051461957 0.15616061 -0.043972064

lstm.bias_ih_l0 f4 [80]
00000000: 4451 cf3e f37c c93d 4e91 ce3e bf1e 103e
00000010: 986b 8b3e 62fe 4c3e fd79 ca3e 1cee 003f
00000020: 20e9 9b3e e26d e73e 87f0 ab3e 0325 813e
00000030: 994e bd3e a885 ae3e 92b7 ae3e 5bc8 f73e
00000040: 050d 5a3e 0556 f33e 582e 933e 68f4 a03e
00000050: 740e b7bd 9350 84be f8a1 9ebd 1468 bcbd
00000060: 75e9 1abe 404a b83c ccfa 573e 51bc 573c
00000070: 74eb 5abe c295 763e bf93 b1bc 7b6c ce3d
00000080: c165 c6bd 3f26 833e 8420 88bd 0d94 423d
00000090: 8792 7e3d 671b fdbb 9e38 363e 0cba 67be
000000a0: f9d6 b23e 2d67 be3e 2144 a0be 9aab 54be
000000b0: 0d7b c3bd b2c6 88bd cf23 d23e 5c38 60bd
000000c0: df72 53be 37a7 c53d b205 9a3e 3a2e 6c3e
000000d0: f4bf 1d3e 435c 753e ae49 49bc 890b 723d
000000e0: 3af7 65be 91fe a43d aabf 8fbb fc02 403e
000000f0: 9fd3 a93d 457d 7f3e be5d d23e e57c 983e
00000100: 5900 153e d37b 5b3e b4a4 653e 618d 633e
00000110: 8aba 153e 15e0 9b3e 6f75 153e 6691 923e
00000120: 5e3b 533e 4c7e a93e 0b27 563e 2486 e23e
00000130: 603a b03e 76db 533e 100d a63e 09d6 be3e
0.40491688 0.09838285 0.40345234 0.14074229 0.27230525 0.20018914 0.39546195 0.50363326
0.30451298 0.4520102 0.33581945 0.2522355 0.36974028 0.34086347 0.34124428 0.48395047
0.21294029 0.47526565 0.28746295 0.31436467 -0.089383036 -0.25842723 -0.07745737 -0.09199539
-0.1512812 0.022496343 0.21091765 0.013167457 -0.2137888 0.24080566 -0.021676896 0.10079285
-0.09687377 0.25615117 -0.06646827 0.047504473 0.062151458 -0.007724214 0.17795035 -0.22629565
0.34929636 0.37188092 -0.31301978 -0.20768586 -0.095449544 -0.06678523 0.41042945 -0.05474125
-0.20649289 0.09651034 0.3008247 0.23064509 0.15405256 0.23960976 -0.012285633 0.059093032
-0.2245759 0.08056367 -0.004386862 0.18751138 0.08292317 0.2495013 0.41087145 0.29782787
0.14550914 0.21433954 0.2242611 0.222219 0.1462194 0.304444 0.14595579 0.28626555
0.20628116 0.3310417 0.20913331 0.44242966 0.34419537 0.20689186 0.3243184 0.3727267

lstm.bias_hh_l0 f4 [80]
00000000: 8b75 c43e 79d3 a83e 1c47 cd3d c02e 39bd
00000010: 6036 af3e d377 e43d 40ef 323e 89e2 c43e
00000020: 9442 9fbd 011b f43e 6da8 063e f97c 0f3e
00000030: 214c 583e 16cb 013f 2047 a03e 99ee 153f
00000040: 87ed d63d 365c ac3e 786c 5e3e 0747 003e
00000050: eb2e 0ebe adf2 96bd e087 95bd fabd f83d
00000060: c266 d93d 6f9c 00be af5a 0fbd 735c 68be
00000070: 0fe9 d33d 2b3a 18bc b46a 613e 241d c5bd
00000080: 9a4f 45be 8722 9e3c 144e dbbd 1666 e0bd
00000090: e084 4c3e 1620 47be 07b7 013e 6b70 1a3d
000000a0: 3c0f 973e 1928 8e3e 5c46 1cbd 751a b8be
000000b0: e067 5dbe 7782 3bbe d018 a63d 71b7 7abe
000000c0: 5a61 b7be 1d7b 0e3e dbe5 083e 67e6 c63d
000000d0: f967 0e3e 1c96 df3e d87e 413e 14b3 9d3e
000000e0: 9f68 5c3d 8aa8 443e dfdd 11bd 48b0 a63e
000000f0: 51f6 553e 4b5b d23e 99dd 713e b909 a33e
00000100: 9081 a63e 2114 933e 28c9 e93d 3f2d 173e
00000110: a402 5d3e beb0 343e 778f 3c3e 8a69 da3e
00000120: b0b3 6e3e 14f2 e33e 55cc 933e f000 bf3e
00000130: ad80 f23e b2b2 d53e 6c58 133e a87f 003e
0.38370928 0.3297384 0.10023329 -0.0452106 0.34221172 0.11155667 0.17474079 0.38454083
-0.07776371 0.47676852 0.13150187 0.14012517 0.21122791 0.5070051 0.31304264 0.58567196
0.104945235 0.336641 0.21721065 0.12527095 -0.13885085 -0.073705055 -0.07301307 0.1214561
0.106153026 -0.12559675 -0.034998592 -0.22691517 0.10347187 -0.009291212 0.2201336 -0.09624699
-0.19268647 0.019303573 -0.107082516 -0.10956971 0.19972563 -0.19445834 0.12667476 0.037704866
0.2950381 0.27764967 -0.038153037 -0.35957685 -0.21621656 -0.18311487 0.08110201 -0.2448404
-0.3581646 0.13914151 0.13368933 0.097119145 0.1390685 0.43669212 0.18896043 0.30800688
0.053810712 0.19204918 -0.035611983 0.32556367 0.20894744 0.41085276 0.23619689 0.31843355
0.32520723 0.28726295 0.11415321 0.14763354 0.21583039 0.17645547 0.18414102 0.42658645
0.23310733 0.44520628 0.2886683 0.37305403 0.47363797 0.41737896 0.14389199 0.12548697

linear.weight f4 [1, 20]
00000000: b4c3 d03e 558e ad3e bc18 cabe e042 7ebe
00000010: 1af8 a0be 7065 bcbe 0ef2 bc3e e81b adbe
00000020: 487e 8abe 7a15 963e 8aca 943e 6748 ae3e
00000030: 0bde c93e 2c72 ae3e ea3e b03e bc52 903e
00000040: 97a0 aebe 4313 9b3e 92a9 bdbe dcff a43e
0.4077431 0.33897653 -0.39471996 -0.24830198 -0.31439286 -0.3679614 0.36903423 -0.33810353
-0.2704947 0.2931326 0.29060775 0.34039614 0.39427218 0.3407148 0.34423 0.2818812
-0.34106895 0.30288133 -0.37043434 0.32226455
