m1/time_series_pattern_recognition/src_final/parameters/NN/model_1_600.pth (torch, 2327 bytes, 5 tensors)

lstm.weight_ih_l0 f4 [12, 1]
0	0x3ee83f2a	0.4536069
1	0x3f5ed3e0	0.87042046
2	0x3f21662d	0.6304653
3	0x3ea658cc	0.32489622
4	0xc005852a	-2.0862527
5	0xbf92cec1	-1.1469346
6	0xbea5daa6	-0.32393378
7	0xbe4200c5	-0.18945606
8	0x3e92b727	0.2865536
9	0x3f151470	0.5823431
10	0x3ee1cd8e	0.44102138
11	0x3f15efd6	0.58569086

lstm.weight_hh_l0 f4 [12, 3]
0	0xbf2d800f	-0.67773527
1	0xbd8b4336	-0.06799929
2	0x3ed48076	0.41504258
3	0x3fcfd9a3	1.6238292
4	0x3fac5398	1.3463011
5	0xbf021ec5	-0.508282
6	0x3faaea7c	1.3352809
7	0x3fdc87c4	1.7228932
8	0xbf078845	-0.52942306
9	0x3d6b3593	0.05742414
10	0x3fc3104b	1.5239347
11	0x3e195f31	0.14977719
12	0x3f877c44	1.0584798
13	0x3fc82970	1.5637646
14	0xbf9f6ef0	-1.245573
15	0x3fba8b78	1.4573812
16	0x40162baf	2.3464162
17	0xbfaaea33	-1.3352722
18	0xbe89c596	-0.2690856
19	0xbf9d46ca	-1.2287228
20	0x3f3a2bff	0.7272338
21	0x3f244d94	0.64180875
22	0x3f381952	0.71913636
23	0xbef50e9f	-0.47862718
24	0xbee7bf4d	-0.45263138
25	0x3f2ece43	0.6828348
26	0x3ece08ce	0.40241092
27	0xbe42f99d	-0.19040532
28	0x3ea75287	0.3268015
29	0x3d059add	0.032618392
30	0xbee1d1d5	-0.44105402
31	0xbf9c77bb	-1.2224039
32	0x3f70179e	0.93786037
33	0xbe5ea129	-0.21741165
34	0xbf131a97	-0.5746245
35	0x3d082b5b	0.033244472

lstm.bias_ih_l0 f4 [12]
0	0x3cd9f834	0.02660761
1	0xbf91fb29	-1.1404773
2	0xbd2809a8	-0.041024834
3	0xbdf84767	-0.12122994
4	0xbfcf2788	-1.6183939
5	0xbfd4b6a8	-1.6618242
6	0x3e62fc5a	0.22166577
7	0x3e5ea31d	0.2174191
8	0xbed20efb	-0.41027054
9	0xbf4e95b4	-0.8069718
10	0xbe940232	-0.28907925
11	0xbc58e07f	-0.013237118

lstm.bias_hh_l0 f4 [12]
0	0x3e046e11	0.12932612
1	0xbf940201	-1.1563112
2	0x3dafb96d	0.08580289
3	0xbed74f27	-0.42052576
4	0xc006d294	-2.1066027
5	0xbfa26775	-1.2687823
6	0xbd12f964	-0.03588237
7	0xbdb34fac	-0.087554306
8	0xbed05a8b	-0.4069408
9	0xbead19c0	-0.33808708
10	0xbd33d253	-0.043901753
11	0x3ed630d7	0.41834137

linear.weight f4 [1, 3]
0	0xc01d93f0	-2.4621544
1	0xc03c6a7c	-2.9439993
2	0x4014e92c	2.3267317
