m1/time_series_pattern_recognition/src_final/parameters/NN/model_2_800.pth (torch, 2327 bytes, 5 tensors)

lstm.weight_ih_l0 f4 [12, 1]
0.22796954 0.7885243 1.4564228 0.08397775 -0.023131246 0.18655325 0.48159808 0.28691688
-0.43058386 1.0939701 0.41411585 1.9580038
00000000: d970 693e bbdc 493f 106c ba3f 87fc ab3d
00000010: bd7d bdbc d107 3f3e 0694 f63e c5e6 923e
00000020: 7d75 dcbe 3607 8c3f fe06 d43e de9f fa3f

lstm.weight_hh_l0 f4 [12, 3]
-1.414449 2.565089 5.050607 0.41430068 0.09051909 1.6661211 2.8235977 0.052965913
-1.2924589 -0.68265635 0.13843475 0.6659785 0.7286915 -0.2677598 -1.1100183 0.61836857
0.40300405 -1.6210829 -1.2260633 -1.1419036 0.77133316 0.15810195 -1.0461462 0.75969166
0.097699344 0.1175915 -0.48747477 2.293973 -0.6801054 -0.19063662 2.230727 -0.9953894
-0.4690032 2.5576344 -0.5025572 -1.5608877
00000000: aa0c b5bf 6b2a 2440 939e a140 381f d43e
00000010: 1362 b93d 7543 d53f d3b5 3440 c9f2 583d
00000020: 4b6f a5bf 91c2 2ebf d7c1 0d3e 917d 2a3f
00000030: 878b 3a3f d017 89be 1415 8ebf 674d 1e3f
00000040: 8c56 ce3e a57f cfbf a4ef 9cbf e629 92bf
00000050: 1776 453f 7ae5 213e 1ee8 85bf 277b 423f
00000060: 9816 c83d d0d3 f03d 4b96 f9be 74d0 1240
00000070: 631b 2ebf 3f36 43be 3bc4 0e40 d7d1 7ebf
00000080: 3021 f0be 48b0 2340 97a7 00bf 2bcb c7bf

lstm.bias_ih_l0 f4 [12]
-0.16491339 -0.17665192 0.96831673 -0.23314738 0.2958804 -0.20289068 -0.47890592 0.14325812
1.4179281 0.9708421 0.5018037 1.424777
00000000: 0edf 28be 3ee4 34be 9be3 773f 30be 6ebe
00000010: a37d 973e 93c2 4fbe 2833 f5be 42b2 123e
00000020: ab7e b53f 1c89 783f 3576 003f 185f b63f

lstm.bias_hh_l0 f4 [12]
-0.6106519 -0.061228402 1.2848345 -0.106749505 -0.16269694 -0.21180089 -0.69352376 0.14070256
1.2321371 0.32311422 0.37676024 1.6153616
00000000: af53 1cbf a2ca 7abd 7575 a43f 7c9f dabd
00000010: 079a 26be 55e2 58be c68a 31bf 5514 103e
00000020: abb6 9d3f 3a6f a53e b8e6 c03e 2bc4 ce3f

linear.weight f4 [1, 3]
3.175117 2.7477367 -1.852042
00000000: 1e35 4b40 ebda 2f40 b60f edbf
