m1/time_series_pattern_recognition/src_final/parameters/NN/model_1_1200.pth (torch, 9367 bytes, 5 tensors)

lstm.weight_ih_l0 f4 [80, 1]
0	0x3dc600d6	0.09668128
1	0x3ea71512	0.32633263
2	0x3e6c4a21	0.23075153
3	0x3ea36639	0.31913927
4	0x3e33db44	0.17564112
5	0x3e82a2d2	0.25514847
6	0x3e339b60	0.1753974
7	0x3e6322cd	0.22181244
8	0x3eb260dc	0.34839523
9	0x3ed41cd6	0.4142825
10	0x3ee8a28f	0.45436522
11	0x3e32b390	0.1745131
12	0x3eaa5998	0.3327148
13	0x3e7f9864	0.24960476
14	0x3ece2d9e	0.40269178
15	0x3ed3a449	0.41336277
16	0x3f002b29	0.5006586
17	0x3e93925d	0.28822604
18	0x3ea0c008	0.31396508
19	0x3f11c537	0.5694155
20	0xbd30981a	-0.043113805
21	0xbe0a6e13	-0.13518552
22	0xbe0a21fb	-0.13489525
23	0x3dd590eb	0.104280315
24	0xbd435d73	-0.047696542
25	0xbe3c6d57	-0.18401085
26	0xbe30bd11	-0.17259623
27	0xbe34e522	-0.17665532
28	0xbdbae8be	-0.09126423
29	0x3e8d76aa	0.27629596
30	0x3e8ce1ae	0.2751593
31	0xbe09c677	-0.13454615
32	0x3e172db0	0.14763522
33	0xbd97020f	-0.073734395
34	0xbe2813e8	-0.16413844
35	0x3e8c5472	0.27408177
36	0xbe48cd2c	-0.19609517
37	0xbdc04532	-0.09388198
38	0xbd9830e6	-0.07431202
39	0xbe3eaf98	-0.18621671
40	0x3e9ee7e0	0.31036282
41	0x3ed05ea7	0.40697214
42	0xbec258f7	-0.379585
43	0xbe252f16	-0.16131243
44	0xbe95cd6a	-0.2925828
45	0xbe9b21e0	-0.30299282
46	0x3ebc5718	0.36785197
47	0xbe819f29	-0.25316742
48	0xbe392158	-0.18079126
49	0x3eb97422	0.36221415
50	0x3ea35630	0.31901693
51	0x3e800274	0.25001872
52	0x3e960a08	0.29304528
53	0x3ec58f98	0.38586116
54	0x3e93b3a7	0.28848
55	0x3ef76fbc	0.48327434
56	0xbe8f80d9	-0.2802799
57	0x3eb2e3a2	0.34939295
58	0xbead518d	-0.3385128
59	0x3e7f6192	0.24939564
60	0x3eae77c2	0.34075743
61	0x3ea0bc9a	0.31393892
62	0x3dc44ebb	0.09585329
63	0x3e7f2b61	0.24918891
64	0x3ef14b22	0.47127634
65	0x3edce583	0.43143854
66	0x3e813926	0.25238913
67	0x3eb7a33a	0.3586672
68	0x3e156b5e	0.14591739
69	0x3e7bf877	0.246065
70	0x3e851280	0.25990677
71	0x3eb47a6f	0.3524966
72	0x3e7bce7c	0.24590486
73	0x3e029560	0.12752295
74	0x3edaccc8	0.4273436
75	0x3e6dbc34	0.23216325
76	0x3f092450	0.53571033
77	0x3ef887a5	0.4854099
78	0x3e2bef39	0.16790475
79	0x3e6fc507	0.23415004

lstm.weight_hh_l0 f4 [80, 20]
0	0x3dc279f2	0.094959155
1	0x3dd2b7b2	0.10288943
2	0x3e1dd817	0.15414463
3	0x3e625cbc	0.22105688
4	0xbe3e3bfb	-0.18577568
5	0x3df0352e	0.11728893
6	0xbc9057b7	-0.01761995
7	0x3e47af87	0.19500552
8	0x3ea0e14f	0.31421897
9	0x3e0d05d4	0.13771755
10	0x3e404904	0.18777853
11	0x3e2cb668	0.16866457
12	0x3df121d0	0.11774027
13	0x3e87888c	0.26471364
14	0x3dec0be6	0.11525707
15	0x3e8edbf7	0.27902195
16	0xbd962521	-0.073313005
17	0x3e111620	0.14168596
18	0x3d608242	0.054811724
19	0xbdc17775	-0.09446613
20	0x3c2d4f0a	0.010577926
21	0x3d9fc539	0.07801289
22	0x3e56407d	0.20923038
23	0xbd9ceaab	-0.07661947
24	0x3e03337a	0.12812606
25	0x3e70e1ad	0.23523588
26	0xbe960df6	-0.29307526
27	0x3e280468	0.16407931
28	0x3e644473	0.22291736
29	0xbe4eaeb9	-0.20183839
30	0xbb292478	-0.002580909
31	0xbe0358f9	-0.12826909
32	0xbea9f620	-0.3319559
33	0xbdc7e298	-0.09760016
34	0xbe0df1e5	-0.13861807
35	0x3d06f533	0.032948684
36	0x3e178185	0.14795502
37	0xbdda8f1a	-0.10671826
38	0x3e8e4cc0	0.2779293
39	0xbe7c5361	-0.24641182
40	0x3d7e8634	0.062139705
41	0xbc274445	-0.010209148
42	0x3dce3186	0.100680396
43	0x3ec63a1e	0.38716215
44	0x3e3d48ec	0.18484849
45	0xbd1aace7	-0.03776255
46	0xbe51b249	-0.20478167
47	0x3e725a66	0.23667297
48	0x3ed355bf	0.41276357
49	0x3d950739	0.07276768
50	0x3d81a0e2	0.06329514
51	0xbde8c03e	-0.11364792
52	0xbe04f644	-0.12984568
53	0x3b9814df	0.00464116
54	0x3e285e0f	0.1644213
55	0x3c2eb314	0.010662813
56	0x3e045451	0.12922789
57	0xbdd2b93f	-0.10289239
58	0xbdcbce90	-0.09951508
59	0xbe8792a1	-0.26479056
60	0x3e4c33e8	0.19941676
61	0x3da9b67e	0.08286761
62	0x3e509219	0.20368232
63	0x3d84f36e	0.06491743
64	0x3e06c503	0.13161092
65	0xbe44f62f	-0.19234537
66	0xbdb5868b	-0.08863553
67	0xbdf1eff2	-0.11813344
68	0xbe904799	-0.28179625
69	0x3db615c4	0.0889087
70	0x3cab16fa	0.02088498
71	0x3e670608	0.22560894
72	0xbcd1fe81	-0.025634052
73	0xbe2459c5	-0.1604987
74	0xbe1f49d0	-0.15555501
75	0x3d05a41c	0.03262721
76	0xbe087622	-0.13326314
77	0x3deee5f5	0.116649546
78	0x3e1c8c15	0.15287812
79	0x3e7ed37a	0.2488536
80	0x3d2b945f	0.041889545
81	0x3aa5858f	0.0012628305
82	0xbea844c1	-0.32864955
83	0x3e049fdc	0.12951607
84	0xbdb9bda8	-0.09069377
85	0xbe8a368a	-0.26994735
86	0xbd3246dc	-0.043524608
87	0xbe676ea6	-0.22600803
88	0x3ecf51b0	0.4049201
89	0x3e3292cd	0.17438813
90	0x3e832507	0.25614187
91	0x3e952c16	0.29135197
92	0x3dba3bca	0.09093435
93	0x3eb3c963	0.35114583
94	0x3ebfbbe4	0.37448037
95	0x3df37062	0.1188667
96	0x3e59d424	0.21272331
97	0x3c380c65	0.011233424
98	0xbd8400c8	-0.064454615
99	0xbec4a77c	-0.3840903
100	0x3d161df5	0.036649663
101	0xbe06afc7	-0.13152991
102	0xbe37860d	-0.1792223
103	0x3eb5a447	0.35476896
104	0xbe2ff81c	-0.1718449
105	0x3d39cb0a	0.04535965
106	0xbdfa7ab5	-0.12230436
107	0xbe1a5c9c	-0.1507439
108	0xbc0d6abb	-0.008631404
109	0xbd274790	-0.04083973
110	0x3e0129bf	0.12613581
111	0xbdd4bb38	-0.10387272
112	0x3e12aae5	0.14323004
113	0xbe0f0458	-0.13966501
114	0xbd78b267	-0.060717013
115	0x3e06bdc5	0.13158329
116	0x3e956e0f	0.2918553
117	0xbdefca5c	-0.11708519
118	0x3cd19955	0.02558581
119	0xbe957193	-0.29188213
120	0x3e419325	0.18903787
121	0x3e504555	0.20338948
122	0x3c92757c	0.017878287
123	0xbc88790f	-0.016659288
124	0x3da20169	0.07910425
125	0xbea81968	-0.32831883
126	0x3d25dfb1	0.040496532
127	0x3c735b08	0.0148532465
128	0x3e9078a1	0.28217033
129	0x3ead6736	0.33867806
130	0x3dcc1963	0.0996578
131	0x3e6b36c9	0.22970118
132	0xbda0b1e1	-0.07846428
133	0x3d6cb2b2	0.057787605
134	0x3e3fdcf8	0.18736637
135	0x3e2edea1	0.17077114
136	0x3dc2c741	0.09510661
137	0x3e9e6614	0.30937254
138	0xbea57a1d	-0.32319728
139	0xbeb5f587	-0.35538885
140	0x3e115a91	0.14194705
141	0xbd80fab1	-0.062978156
142	0xbd289985	-0.041162033
143	0x3eb483be	0.3525676
144	0xbe3154cb	-0.17317502
145	0x3bb56c8d	0.005536622
146	0x3c3a26dc	0.011361804
147	0x3e3d1fae	0.18469116
148	0x3eda85c1	0.4268017
149	0xbdae0b98	-0.08498305
150	0x3e2882aa	0.16456094
151	0x3e5bdfab	0.21472041
152	0xbdfa4b97	-0.12221449
153	0x3e341f1b	0.17589991
154	0xbcc53b69	-0.02407618
155	0x3e4b5de1	0.1986003
156	0x3d795c00	0.060878754
157	0x3e0f09e7	0.13968621
158	0xbdcf459c	-0.10120699
159	0xbea1d584	-0.31608212
160	0xbc510190	-0.01275672
161	0xbdefe0e8	-0.11712819
162	0xbe2ba9c3	-0.16763978
163	0xbe342a8a	-0.17594352
164	0xbdcc79cd	-0.09984169
165	0x3c22caf8	0.009936087
166	0x3e191481	0.14949228
167	0xbdbf3ff3	-0.09338369
168	0xbd810ea0	-0.063016176
169	0x3d99bc34	0.075066
170	0xbb66c1c9	-0.003521072
171	0x3dad378c	0.0845786
172	0x3d6ef3c4	0.05833794
173	0xbe1e0109	-0.15430082
174	0xbdc7d1cf	-0.09756815
175	0x3e016d73	0.12639408
176	0xbd57948f	-0.05263191
177	0x3da84136	0.08215563
178	0xbddb4fd7	-0.107085876
179	0x3e21d716	0.15804705
180	0x3e95abea	0.29232723
181	0x3d0ac7db	0.033882003
182	0xbe100ee1	-0.14068176
183	0x3e13c6f2	0.1443136
184	0x3e08ed60	0.13371801
185	0xbc901299	-0.017586993
186	0xbd295626	-0.041341923
187	0x3d179a13	0.03701217
188	0x3e883746	0.2660467
189	0x3c43f5d3	0.0119604645
190	0x3ea632f0	0.32460737
191	0x3bf64400	0.0075154305
192	0x3d01dd24	0.031705037
193	0xbc601334	-0.013676453
194	0x3db2a4cc	0.08722839
195	0x3d364058	0.044494957
196	0xbe31e936	-0.17374119
197	0x3bc43cb6	0.0059886826
198	0xbe2f2f16	-0.17107806
199	0xbdebd4a5	-0.11515168
200	0x3e947b34	0.29000247
201	0x3d972af0	0.073812366
202	0x3c30d0fe	0.010792015
203	0x3e5df1cd	0.21674271
204	0xbd1660f1	-0.036713544
205	0xbd84dc73	-0.0648736
206	0xbdba7899	-0.091050334
207	0x3e30c534	0.17262727
208	0x3e956637	0.29179546
209	0x3e740e6e	0.2383363
210	0x3e5065aa	0.20351282
211	0x3e98b9ca	0.29829246
212	0xb9a90d80	-0.0003224425
213	0x3e154b10	0.14579415
214	0x3e91f5e6	0.28507918
215	0xbc8606a8	-0.016360596
216	0xbd4a00a8	-0.049317032
217	0x3e816647	0.25273344
218	0xbe59bd79	-0.21263684
219	0xbe0730df	-0.13202237
220	0x3e4aa8ac	0.19790906
221	0x3e32a36f	0.17445157
222	0x3e1cda88	0.15317738
223	0x3d74d5cd	0.05977421
224	0xbd6882d6	-0.0567654
225	0xbe5d2dcc	-0.21599501
226	0x3e69367b	0.22774689
227	0x3d9e6663	0.077343725
228	0x3ea247ed	0.316955
229	0xbd86ed02	-0.065881744
230	0xbd2d7893	-0.042351317
231	0x3a802aa7	0.0009778336
232	0x3e5fd197	0.21857296
233	0x3d5f3c96	0.05450114
234	0x3e9b218f	0.3029904
235	0x3e9428e9	0.28937462
236	0x3d9aa64e	0.07551251
237	0xbda585fe	-0.080821976
238	0x3dc186f2	0.09449567
239	0xbf24ba7a	-0.6434704
240	0x3e83a463	0.25711355
241	0x3e1cf2c3	0.15326981
242	0xbe5e7094	-0.21722633
243	0x3dbd2496	0.09235494
244	0xbde68116	-0.1125509
245	0xbe89e8b9	-0.26935366
246	0xbd908559	-0.07056684
247	0x3da44a9a	0.080220416
248	0x3e414482	0.1887379
249	0xbdd37c52	-0.103264466
250	0x3da7343c	0.0816426
251	0x3e1b75db	0.15181677
252	0xbcae5256	-0.021279495
253	0xbd8b909b	-0.06814691
254	0x3e114f34	0.1419037
255	0xbd7643a7	-0.060123112

lstm.bias_ih_l0 f4 [80]
0	0x3edf0ee9	0.43566063
1	0x3dac2530	0.084055305
2	0x3ed21564	0.41031945
3	0x3daddb8d	0.084891416
4	0x3e8eed4d	0.2791542
5	0x3e59cefc	0.21270365
6	0x3ed6aeaa	0.41930133
7	0x3f0b2e5a	0.543676
8	0x3e9325a8	0.28739667
9	0x3ee5264f	0.4475579
10	0x3ea863e6	0.32888716
11	0x3e8fc249	0.28077915
12	0x3ece6a2b	0.40315375
13	0x3eb3a004	0.3508302
14	0x3eb83e88	0.35985208
15	0x3ef4fb61	0.47848037
16	0x3e9677a5	0.29388157
17	0x3f0346fa	0.51280177
18	0x3e9a20ee	0.30103248
19	0x3eb43e1c	0.35203636
20	0xbdbef88c	-0.0932475
21	0xbe8b971a	-0.2726372
22	0xbd99f7b4	-0.07517949
23	0xbd9375f0	-0.07200229
24	0xbe07e1f5	-0.1326979
25	0x3d0cdda0	0.034391046
26	0x3e532079	0.20617856
27	0x3cbe0372	0.023195002
28	0xbe428dd0	-0.1899941
29	0x3e887bc8	0.26656938
30	0x3c86e59c	0.016466908
31	0x3deee96a	0.11665614
32	0xbdd07682	-0.101788536
33	0x3e85a3f3	0.26101646
34	0xbd705c13	-0.05868156
35	0x3d9f0327	0.07764273
36	0x3d88a544	0.06672147
37	0x3cb4e557	0.022082014
38	0x3e4742ec	0.19459122
39	0xbe59e4ba	-0.21278659
40	0x3ebb9b04	0.36641705
41	0x3ec25e7a	0.37962705
42	0xbea00506	-0.31253833
43	0xbe2c2901	-0.16812517
44	0xbdc8f797	-0.09812849
45	0xbd98d5e7	-0.07462674
46	0x3ed8f4bf	0.42374226
47	0xbd981eb1	-0.07427729
48	0xbe42c438	-0.19020164
49	0x3dbf7af8	0.09349626
50	0x3e981de5	0.29710308
51	0x3e77df05	0.24206169
52	0x3e21f586	0.15816316
53	0x3e7aa3ed	0.24476595
54	0xbbb73c89	-0.005591933
55	0x3d64dea6	0.055876397
56	0xbe68628f	-0.22693847
57	0x3dc1823a	0.09448667
58	0xbc06db09	-0.008230933
59	0x3e5a2d73	0.213064
60	0x3dbbb1ba	0.09164758
61	0x3e80b8d0	0.25141
62	0x3edd3fb6	0.4321267
63	0x3e860d8e	0.26182216
64	0x3e2ee11d	0.17078061
65	0x3e669223	0.22516684
66	0x3e6b47af	0.22976564
67	0x3e89f158	0.26941943
68	0x3e060318	0.13087118
69	0x3ea0dd17	0.31418678
70	0x3e22d977	0.15903269
71	0x3ea2e44b	0.318148
72	0x3e6dba07	0.23215495
73	0x3eae0f43	0.3399602
74	0x3e69b5fb	0.22823326
75	0x3ee800ae	0.4531302
76	0x3edc111e	0.4298181
77	0x3e75c9a3	0.240027
78	0x3ead9350	0.33901453
79	0x3ed31344	0.41225636

lstm.bias_hh_l0 f4 [80]
0	0x3ed43330	0.41445303
1	0x3ea17d7f	0.31541058
2	0x3ddb5782	0.1071005
3	0xbdcef94a	-0.10106142
4	0x3eb2b815	0.34906068
5	0x3dfe1910	0.12407124
6	0x3e4b58d4	0.19858104
7	0x3ed962fd	0.42458335
8	0xbdc25052	-0.09487976
9	0x3ef1d36e	0.4723162
10	0x3dff1e31	0.124569304
11	0x3e2cb7bb	0.16866963
12	0x3e7a833e	0.24464127
13	0x3f045847	0.516972
14	0x3ea9ce17	0.33165047
15	0x3f148817	0.58020157
16	0x3e3e5901	0.1858864
17	0x3ebf9438	0.3741777
18	0x3e6c51c2	0.23078063
19	0x3e26da6f	0.16294263
20	0xbe1223f3	-0.14271526
21	0xbdb40cdb	-0.087915145
22	0xbd90dd9b	-0.07073518
23	0x3e10d7fd	0.14144893
24	0x3dff75ab	0.12473615
25	0xbde8dca0	-0.11370206
26	0xbd22c417	-0.039737787
27	0xbe5e17df	-0.21688794
28	0x3e02521c	0.12726635
29	0x3c86f0a5	0.01647217
30	0x3e843cea	0.25827724
31	0xbda4a033	-0.08038368
32	0xbe4a57f1	-0.1976011
33	0x3cc5fd57	0.024168653
34	0xbdcb5b92	-0.09929575
35	0xbda2acee	-0.0794314
36	0x3e5132ed	0.20429583
37	0xbe289a9e	-0.16465232
38	0x3e12c155	0.14331563
39	0x3d51c573	0.051213693
40	0x3e9fd347	0.3121588
41	0x3e921f67	0.28539583
42	0xbd1a4dd0	-0.037671864
43	0xbea3d928	-0.32001615
44	0xbe60262f	-0.21889566
45	0xbe438a03	-0.19095616
46	0x3dc15c5b	0.094414435
47	0xbe875c48	-0.26437593
48	0xbeaf0a18	-0.34187388
49	0x3e0b6508	0.13612759
50	0x3e05164a	0.12996784
51	0x3dde47e0	0.10853553
52	0x3e129d8c	0.14317912
53	0x3ee239f8	0.44184852
54	0x3e48598e	0.19565412
55	0x3e9c0d71	0.30479005
56	0x3d52bb3e	0.0514481
57	0x3e52ea55	0.20597203
58	0xbd219cb8	-0.0394561
59	0x3eb3c592	0.35111672
60	0x3e5ee560	0.21767187
61	0x3ed3557f	0.41276166
62	0x3e83d0d0	0.2574525
63	0x3e909a62	0.28242785
64	0x3eb371e7	0.35047838
65	0x3e989f49	0.29809025
66	0x3df50f24	0.119657785
67	0x3e478290	0.194834
68	0x3e4d4b32	0.20048216
69	0x3e3eaae3	0.18619876
70	0x3e49f37f	0.19721793
71	0x3eeabc70	0.4584689
72	0x3e84992a	0.25898105
73	0x3ee8830b	0.45412478
74	0x3e9d93da	0.30776864
75	0x3ec47b7c	0.3837546
76	0x3f0f2bb7	0.5592608
77	0x3ee6a9dd	0.4505147
78	0x3e226508	0.15858853
79	0x3e28fa27	0.16501676

linear.weight f4 [1, 20]
0	0x3ee18a87	0.44051
1	0x3eb2aec3	0.34898958
2	0xbed67a58	-0.41890216
3	0xbe5f1f71	-0.21789338
4	0xbea8f165	-0.3299667
5	0xbec65c15	-0.38742128
6	0x3ec622bb	0.38698372
7	0xbec6eb43	-0.38851365
8	0xbe85f47a	-0.26163083
9	0x3e98dc84	0.2985574
10	0x3e9a0afd	0.30086508
11	0x3ec10bd0	0.37704325
12	0x3ee041cc	0.438002
13	0x3eb4b64d	0.35295334
14	0x3ebdafcb	0.37048182
15	0x3e938c57	0.28818008
16	0xbed6d394	-0.41958296
17	0x3eb12518	0.34598613
18	0xbec64637	-0.38725445
19	0x3ebc51cd	0.3678116
