m1/time_series_pattern_recognition/src_final/parameters/NN/model_2_300.pth (torch, 2327 bytes, 5 tensors)

lstm.weight_ih_l0 f4 [12, 1]
00000000: cf9c ce3e 5262 423f 8d96 7c3f d258 c63d
00000010: 6f7f fa3d 4ea0 603d 5d31 ee3e 9c41 b63e
00000020: 05e4 f0be 7c02 463f b1f1 f43e b663 b43f
0.4035401 0.75931275 0.9866722 0.0968491 0.12231337 0.05484038 0.46522036 0.3559693
-0.47048965 0.7734754 0.47840646 1.4092929

lstm.weight_hh_l0 f4 [12, 3]
00000000: cbe9 0c3e 2887 2840 eaf0 e03f e764 a13e
00000010: e37a 2ebf 712c dfbe f9a3 993f 19ee 903f
00000020: f30a af3e eb3a c9be 71a2 05be 004d cc3e
00000030: 9a37 f73e 8f09 643e f754 abbf 7d55 7f3f
00000040: 6036 943e 8330 2ebf b7f2 97bf d839 44bf
00000050: d9c6 303f f579 b4bd b7a0 22bf 4e84 9bbd
00000060: f288 40bd 5be8 823e a43f 57bf 24d4 673f
00000070: 124b 643f c107 4f3e bc4c 9a3f 84a2 953e
00000080: 3b19 1cbf 5d4f 5c3f 6451 963f 9023 e73e
0.1376106 2.6332493 1.7573521 0.31522295 -0.6815626 -0.43588594 1.2003165 1.1322662
0.3418804 -0.39302763 -0.13050248 0.39902496 0.48284608 0.22269271 -1.3385304 0.9973982
0.28947735 -0.68042773 -1.1870946 -0.7665076 0.6905342 -0.08812324 -0.6352648 -0.075935945
-0.0470056 0.25567898 -0.8408148 0.90558076 0.8917705 0.20217802 1.2054667 0.29225552
-0.60976 0.860586 1.1743588 0.4514432

lstm.bias_ih_l0 f4 [12]
00000000: 05cd 433e a052 bb3d 5147 8b3e 7c98 1abe
00000010: 46e1 d63e 6be5 6abe f768 02bf eac4 ca3e
00000020: ff1d c53f 4a48 0a3f 8576 583f 5440 423f
0.19121177 0.09146619 0.27202848 -0.1509723 0.41968745 -0.22939079 -0.50941414 0.39603359
1.5399779 0.54016554 0.84555846 0.75879407

lstm.bias_hh_l0 f4 [12]
00000000: 5551 82be fada 533e 80ab 163f 7e4f c9bc
00000010: 544c 1fbd 2305 74be 2e5a 39bf f675 c93e
00000020: 0156 ad3f e546 dcbd 8373 383f 320a 733f
-0.25452676 0.20689002 0.5885544 -0.024574038 -0.03889115 -0.23830085 -0.7240323 0.3934781
1.3541871 -0.107557096 0.72051257 0.9493743

linear.weight f4 [1, 3]
00000000: a466 3140 c2bd 2a40 70dc f4bf
2.7718897 2.667832 -1.9129772
