m1/time_series_pattern_recognition/src_final/parameters/NN/model_2_400.pth (torch, 2327 bytes, 5 tensors)

lstm.weight_ih_l0 f4 [12, 1]
000000 ca c3 af 3e 4c d5 4d 3f 72 5c 94 3f f1 74 ca 3d
       0.34329063 0.8040359 1.1590712 0.09885586
000010 b0 47 99 3d 04 96 2a 3d b0 a4 ed 3e 40 f5 c2 3e
       0.074843764 0.041646972 0.4641471 0.38077736
000020 87 0b ea be 98 bb 5d 3f cf d9 e8 3e a5 bc e5 3f
       -0.4571192 0.8661437 0.45478675 1.7948195

lstm.weight_hh_l0 f4 [12, 3]
000000 5d 5d 91 be de 22 29 40 ba d1 3b 40 64 8a c8 3e
       -0.28391543 2.6427531 2.9346757 0.39168084
000010 eb 57 21 bf 72 44 79 be 26 06 c1 3f 42 a2 79 3f
       -0.6302478 -0.24342516 1.5080001 0.9751321
000020 4b 7d c9 3d 00 9f ed be c5 d3 ab bd 65 e7 c8 3e
       0.09838351 -0.4641037 -0.08390001 0.3923904
000030 c1 ef c7 3e 42 58 bc 3c d5 30 a9 bf 2f a1 88 3f
       0.39050105 0.022991303 -1.3218027 1.0674189
000040 0d 3b ad 3e 77 fe 40 bf 68 10 98 bf f0 82 55 bf
       0.33834115 -0.7538828 -1.1880007 -0.8340292
000050 e1 09 3e 3f 1d b6 27 bd c2 bc 32 bf 3a 19 bf 3c
       0.74233824 -0.04094516 -0.6981927 0.023327459
000060 42 63 8c bc 11 e1 4a 3e 20 b0 46 bf cf 4a b0 3f
       -0.017137174 0.19812419 -0.77612495 1.377283
000070 33 d7 da 3e fb 79 2b be 57 7e d3 3f 51 c5 5e 3e
       0.4274231 -0.1674575 1.6522931 0.21754958
000080 90 e5 f0 be 5e 20 83 3f 2b 52 85 3f 9d e2 91 3e
       -0.47050142 1.0244253 1.0415701 0.28493205

lstm.bias_ih_l0 f4 [12]
000000 37 b7 c6 3d 65 5d b5 3d 26 28 09 3f 0a 69 20 be
       0.09702914 0.08855704 0.53576887 -0.15665069
000010 2b 96 c4 3e 30 82 81 be 76 9f 01 bf 8b f1 c1 3e
       0.3839582 -0.25294638 -0.50633943 0.37879595
000020 50 ec c1 3f 77 e6 35 3f c3 50 3c 3f 96 2f a0 3f
       1.5150242 0.71054786 0.7356073 1.2514522

lstm.bias_hh_l0 f4 [12]
000000 f4 89 b2 be 63 e0 50 3e e8 2f 5a 3f 25 d5 f7 bc
       -0.34870875 0.20398097 0.8522935 -0.030253002
000010 a5 d2 98 bd 10 12 86 be ad 90 38 bf 97 a2 c0 3e
       -0.07462052 -0.26185656 -0.7209576 0.37624046
000020 51 24 aa 3f 1c aa 80 3d c2 4d 1c 3f 8e 94 b8 3f
       1.3292333 0.06282446 0.6105615 1.4420335

linear.weight f4 [1, 3]
000000 5f a5 38 40 e9 5c 2b 40 c1 97 f5 bf
       2.8850935 2.6775458 -1.9186937
