m1/time_series_pattern_recognition/src_final/parameters/NN/model_1_1700.pth (torch, 9367 bytes, 5 tensors)

lstm.weight_ih_l0 f4 [80, 1]
0	0x3db33065	0.08749465
1	0x3eb0ed98	0.3455627
2	0x3e64fab8	0.22361267
3	0x3eb71466	0.3575775
4	0x3e33355a	0.17500821
5	0x3e822353	0.25417575
6	0x3e2da001	0.16955568
7	0x3e55fdd6	0.20897612
8	0x3eb8a71a	0.36064988
9	0x3ed702dd	0.41994372
10	0x3ee9a29e	0.4563188
11	0x3e2af89a	0.16696396
12	0x3ea88e55	0.3292109
13	0x3e771a07	0.24131022
14	0x3ecea92a	0.40363437
15	0x3ed56077	0.4167516
16	0x3ef487bf	0.47759816
17	0x3e86db8e	0.26339382
18	0x3e9cab30	0.30599356
19	0x3f108e74	0.56467366
20	0xbd250807	-0.04029086
21	0xbdfb6718	-0.12275523
22	0xbe0ec689	-0.13942923
23	0x3db88c6d	0.09011159
24	0xbd89a44b	-0.067207895
25	0xbe3d3764	-0.18478161
26	0xbe1b2503	-0.15150838
27	0xbe3c794a	-0.18405643
28	0xbdac40e3	-0.08410814
29	0x3e8b4bf9	0.272064
30	0x3e79a129	0.24377884
31	0xbe1660e0	-0.14685392
32	0x3e1c2c31	0.15251233
33	0xbd8bc79e	-0.06825183
34	0xbe258be6	-0.16166648
35	0x3e83f905	0.25775924
36	0xbe468325	-0.19385965
37	0xbdebe834	-0.115188986
38	0xbda75908	-0.08171278
39	0xbe459cdf	-0.19298123
40	0x3e9c7573	0.30558357
41	0x3ed5a0a4	0.41724122
42	0xbec230b8	-0.37927794
43	0xbe4077ca	-0.18795696
44	0xbe961d30	-0.29319143
45	0xbe9a5b0d	-0.3014759
46	0x3eba3a08	0.363724
47	0xbe7f3ac8	-0.24924767
48	0xbe419e3b	-0.18908016
49	0x3ebb1e1b	0.36546406
50	0x3ea39cd8	0.319556
51	0x3e7dc19e	0.2478089
52	0x3e985921	0.297555
53	0x3ec336a3	0.38127622
54	0x3e954ba5	0.29159275
55	0x3ef87257	0.48524734
56	0xbe9113ef	-0.2833552
57	0x3eb0330d	0.3441395
58	0xbeac2347	-0.33620664
59	0x3e7cdd3e	0.24693772
60	0x3eacbdd8	0.3373859
61	0x3eab257a	0.3342703
62	0x3dad7017	0.08468645
63	0x3e8ab749	0.2709296
64	0x3ee4b6cb	0.4467071
65	0x3edd1d22	0.4318629
66	0x3e892f30	0.26793814
67	0x3eafd0b8	0.34338927
68	0x3e2a2b69	0.16618122
69	0x3e816497	0.25272056
70	0x3e7dc650	0.24782681
71	0x3eafe2a3	0.34352598
72	0x3e7a01fa	0.24414816
73	0x3e000b1c	0.12504238
74	0x3edc43df	0.43020532
75	0x3e6b944b	0.23005788
76	0x3f02121f	0.508089
77	0x3ef050e0	0.46936703
78	0x3e240cb9	0.16020478
79	0x3e664730	0.22488093

lstm.weight_hh_l0 f4 [80, 20]
0	0x3dc7ff47	0.09765487
1	0x3dde34f0	0.10849941
2	0x3e198741	0.14993002
3	0x3e5c4e70	0.21514297
4	0xbe443bd4	-0.19163448
5	0x3de5b0fc	0.11215398
6	0xbc373e30	-0.01118426
7	0x3e408ac8	0.18802941
8	0x3e9d21c9	0.3068984
9	0x3e135db0	0.14391208
10	0x3e45425e	0.19263598
11	0x3e32f523	0.17476325
12	0x3df6fc06	0.120597884
13	0x3e89f822	0.26947123
14	0x3df29555	0.11844889
15	0x3e9173ce	0.28408664
16	0xbd9fc0d0	-0.07800448
17	0x3e17e7fc	0.14834589
18	0x3d450c0b	0.04810719
19	0xbdb206b7	-0.08692687
20	0x3cbea7b0	0.023273319
21	0x3dbc1f70	0.09185684
22	0x3e48c642	0.1960688
23	0xbdcb2cb9	-0.099206395
24	0x3dea664c	0.11445293
25	0x3e621711	0.22079112
26	0xbe8d6ad8	-0.27620578
27	0x3e196dda	0.14983311
28	0x3e4c3d25	0.199452
29	0xbe3d9898	-0.18515241
30	0x3c6217c8	0.013799615
31	0xbde8ecaf	-0.11373269
32	0xbea40667	-0.32036135
33	0xbda91c8d	-0.08257399
34	0xbdfec41f	-0.12439751
35	0x3d49d556	0.04927572
36	0x3e0bb621	0.13643695
37	0xbdbaf750	-0.09129202
38	0x3e8684d2	0.2627321
39	0xbe6bb377	-0.23017679
40	0x3d6df910	0.058098853
41	0xbc8e3f6b	-0.017364224
42	0x3dd9488a	0.10609539
43	0x3ec3684f	0.3816552
44	0x3e3e9720	0.18612337
45	0xbd0ff441	-0.035145048
46	0xbe51fab1	-0.20505787
47	0x3e73f071	0.2382219
48	0x3ed0e6cd	0.40801087
49	0x3d9795c0	0.074016094
50	0x3d85b162	0.06527974
51	0xbdebd77f	-0.11515712
52	0xbe0a835a	-0.13526669
53	0x3afb1c3d	0.0019158196
54	0x3e256d48	0.16154969
55	0x3c45d6c4	0.01207513
56	0x3e0cb58c	0.1374113
57	0xbdd4312b	-0.103609405
58	0xbdc98d94	-0.09841457
59	0xbe87bd07	-0.26511404
60	0x3e43bcd4	0.19115001
61	0x3d91845a	0.07105322
62	0x3e59f033	0.21283035
63	0x3d9ca027	0.07647734
64	0x3e103acd	0.1408493
65	0xbe3b1b96	-0.18272242
66	0xbdcb2b82	-0.09920408
67	0xbdddf54b	-0.108378015
68	0xbe89176b	-0.2677568
69	0x3da1dc30	0.079033256
70	0x3c48b0f3	0.012249219
71	0x3e5d1483	0.21589856
72	0xbd0ac03f	-0.033874746
73	0xbe2e611b	-0.1702923
74	0xbe277588	-0.16353428
75	0x3cc2670b	0.023730775
76	0xbdf7aeac	-0.12093863
77	0x3dda0fa5	0.10647515
78	0x3e2650c8	0.16241753
79	0x3e7331f3	0.23749523
80	0x3d07ccb9	0.033154223
81	0xbcc0bcc0	-0.023527503
82	0xbea15989	-0.31513622
83	0x3e0d8f64	0.1382423
84	0xbd991ae5	-0.07475833
85	0xbe840535	-0.25785223
86	0xbd6b03d4	-0.057376698
87	0xbe55855d	-0.20851655
88	0x3ed4bba0	0.41549397
89	0x3e289d0a	0.16466156
90	0x3e7f1aa6	0.2491251
91	0x3e8d819b	0.27637944
92	0x3da7f1f8	0.08200449
93	0x3eadf96d	0.3397936
94	0x3ebc0236	0.36720437
95	0x3de3b854	0.11119142
96	0x3e7f40dd	0.24927087
97	0xbb1c4a89	-0.0023848137
98	0xbd51acf0	-0.051190317
99	0xbed3fbed	-0.41403142
100	0x3d2424c5	0.04007413
101	0xbe01e703	-0.1268578
102	0xbe3b5d9f	-0.18297432
103	0x3eb41101	0.35169223
104	0xbe3427ea	-0.17593351
105	0x3d2c402a	0.04205338
106	0xbdf3b7dd	-0.119003035
107	0xbe1ec923	-0.15506415
108	0xbc486ecb	-0.012233446
109	0xbd1a96c0	-0.037741423
110	0x3e03ce0d	0.12871571
111	0xbdcd4f85	-0.10024933
112	0x3e16229e	0.14661643
113	0xbe0bc2de	-0.13648555
114	0xbd6afd53	-0.057370495
115	0x3e0a1daa	0.13487878
116	0x3e93a80f	0.28839156
117	0xbde7a0dd	-0.11309979
118	0x3caf59c2	0.021405105
119	0xbe931ced	-0.28733006
120	0x3e4f2576	0.20229134
121	0x3e6b9a77	0.23008142
122	0xba56e61f	-0.0008197743
123	0xbd356aa7	-0.044291165
124	0x3d620544	0.055180803
125	0xbeb26571	-0.3484302
126	0x3d84612a	0.06463845
127	0xbc38ac1f	-0.011271506
128	0x3e7ff726	0.24996623
129	0x3eb880e6	0.36035842
130	0x3df0cef3	0.117582224
131	0x3e820c97	0.2540023
132	0xbd86d7b9	-0.065841146
133	0x3d9d562f	0.07682454
134	0x3e4cdd53	0.20006303
135	0x3e4165ad	0.18886442
136	0x3d88f9fb	0.06688305
137	0x3eaae679	0.33378962
138	0xbeb19147	-0.3468115
139	0xbea4bb2a	-0.32174045
140	0x3df28f7a	0.11843772
141	0xbdc29a03	-0.09502032
142	0xbc802d23	-0.015646523
143	0x3ec0c250	0.3764825
144	0xbe15a716	-0.1461452
145	0x3cf90584	0.030398138
146	0xbc6d35fb	-0.014478202
147	0x3e59676a	0.21230856
148	0x3ee6d84f	0.45086905
149	0xbdda13d9	-0.10648317
150	0x3e1494b8	0.14509857
151	0x3e40326e	0.18769237
152	0xbe149480	-0.14509773
153	0x3e1afdb0	0.15135837
154	0xbd2d5536	-0.04231759
155	0x3e36e876	0.17862114
156	0x3dcd8cf8	0.10036653
157	0x3de681a0	0.11255193
158	0xbd9c46f9	-0.076307245
159	0xbeb1fd4f	-0.34763572
160	0xbc6cf377	-0.014462343
161	0xbdf59bbc	-0.119925946
162	0xbe29e6d2	-0.16591957
163	0xbe387b85	-0.18015869
164	0xbdcad659	-0.09904165
165	0x3c337161	0.010952325
166	0x3e1951db	0.14972632
167	0xbdbd6eea	-0.09249671
168	0xbd898134	-0.06714097
169	0x3d9c0287	0.076176696
170	0xbb0685c9	-0.002052652
171	0x3daba226	0.08380537
172	0x3d66cebe	0.05634951
173	0xbe1ed346	-0.15510282
174	0xbdc94346	-0.098272845
175	0x3e02a08b	0.12756555
176	0xbd469e0c	-0.04849057
177	0x3da73e68	0.081662
178	0xbddaeec0	-0.10690069
179	0x3e214870	0.15750289
180	0x3e91e0f2	0.28491932
181	0x3c9d2898	0.019184396
182	0xbe05a45c	-0.1305098
183	0x3e176e7b	0.14788239
184	0x3e139793	0.1441329
185	0xbc0921cc	-0.008369874
186	0xbd52f82a	-0.0515062
187	0x3d4436ff	0.04790401
188	0x3e8a5297	0.27016136
189	0x3b9d5150	0.004800953
190	0x3ea3be82	0.31981283
191	0xbb2f2123	-0.0026722632
192	0x3cc478bb	0.02398335
193	0xbcb7f221	-0.022454323
194	0x3da6ed56	0.08150737
195	0x3d1f74d2	0.038929768
196	0xbe200827	-0.1562811
197	0xbb72efd2	-0.0037069214
198	0xbe2597cb	-0.16171186
199	0xbe02d7d9	-0.12777652
200	0x3e8fa137	0.28052685
201	0x3d51dc3b	0.05123542
202	0x3ce194d0	0.02753678
203	0x3e68ccf1	0.22734429
204	0xbc3f42b3	-0.011673617
205	0xbd3ef620	-0.04662144
206	0xbde5fc5d	-0.11229775
207	0x3e4bd3cd	0.19905014
208	0x3e9c8a12	0.3057409
209	0x3e62f5e6	0.22164115
210	0x3e44be2e	0.19213173
211	0x3e8c357f	0.27384564
212	0xbc202dea	-0.009776572
213	0x3e05cdea	0.13066831
214	0x3e8dc7e9	0.27691582
215	0xbce492bd	-0.027902002
216	0xbca578f0	-0.020199269
217	0x3e6b288e	0.22964689
218	0xbe43608a	-0.19079795
219	0xbe27b1a4	-0.16376358
220	0x3e31b370	0.17353606
221	0x3e0bfbe8	0.13670313
222	0x3e3aa928	0.1822859
223	0x3daf3040	0.08554125
224	0xbcecd6c3	-0.028911
225	0xbe407976	-0.18796334
226	0x3e4988ab	0.19681041
227	0x3ddb0bff	0.106956474
228	0x3eb0111f	0.34388062
229	0xbdbbfbfb	-0.09178921
230	0xbd846e8c	-0.06466398
231	0xbce90ea7	-0.02844937
232	0x3e4653e2	0.19367936
233	0x3cd392f9	0.025826918
234	0x3e8fc8ba	0.2808283
235	0x3e885965	0.26630703
236	0x3df0a6ff	0.11750602
237	0xbde09699	-0.10966224
238	0x3dfb4d66	0.12270622
239	0xbf2d144f	-0.67609113
240	0x3e8784df	0.2646856
241	0x3e273154	0.16327411
242	0xbe675404	-0.22590643
243	0x3da5c742	0.08094646
244	0xbdfb08e3	-0.122575544
245	0xbe8efc45	-0.2792684
246	0xbd73819b	-0.059449773
247	0x3d8de16a	0.0692776
248	0x3e34597e	0.17612264
249	0xbdbd1912	-0.092332974
250	0x3dbaf42d	0.09128604
251	0x3e261496	0.1621879
252	0xbc6d4525	-0.014481817
253	0xbd70fec4	-0.058836713
254	0x3e190c96	0.14946207
255	0xbd4d8a50	-0.050180733

lstm.bias_ih_l0 f4 [80]
0	0x3eda56ea	0.42644435
1	0x3dd3612d	0.10321269
2	0x3ece69e9	0.40315178
3	0x3dfc9ee2	0.12334992
4	0x3e8e9a8a	0.2785228
5	0x3e58ad26	0.21159801
6	0x3ed3ab35	0.41341558
7	0x3f07ddf8	0.5307307
8	0x3e9957ee	0.29949898
9	0x3ee809c5	0.45319954
10	0x3ea962c2	0.3308316
11	0x3e8be4c3	0.2732297
12	0x3ecc9777	0.39959309
13	0x3eaf5f0c	0.34252203
14	0x3eb8af19	0.3607109
15	0x3ef6b5c1	0.48185542
16	0x3e8a9bbe	0.27071947
17	0x3ef9bd14	0.48777068
18	0x3e95ff21	0.2929621
19	0x3eb1c72a	0.34722263
20	0xbdb956d0	-0.09049761
21	0xbe853d68	-0.26023412
22	0xbda34cfd	-0.07973669
23	0xbdb08339	-0.08618779
24	0xbe1bcbd7	-0.15214477
25	0x3d0912c3	0.03346516
26	0x3e68b4a5	0.2272516
27	0x3c813c05	0.01577569
28	0xbe3b2942	-0.18277457
29	0x3e864e34	0.2623154
30	0xbc75857e	-0.01498544
31	0x3dd5ba53	0.10435929
32	0xbdc68fe3	-0.09695413
33	0x3e88647d	0.26639166
34	0xbd669a06	-0.056299232
35	0x3d7abf83	0.061217796
36	0x3d8cf0f7	0.06881898
37	0x3a2e2940	0.000664372
38	0x3e3fa059	0.18713512
39	0xbe60d9b3	-0.21958046
40	0x3eb926ed	0.3616251
41	0x3ec79eba	0.38988286
42	0xbe9fd984	-0.3122064
43	0xbe47743e	-0.19477937
44	0xbdca342a	-0.09873231
45	0xbd95b008	-0.07308966
46	0x3ed6d4ec	0.41959321
47	0xbd900599	-0.07032318
48	0xbe4b23fd	-0.19837947
49	0x3dc61d62	0.09673573
50	0x3e9863e6	0.29763716
51	0x3e759b72	0.23985079
52	0x3e26887b	0.16263
53	0x3e75f07b	0.24017517
54	0xbb27ec13	-0.002562289
55	0x3d6cecdf	0.057843085
56	0xbe6b63bd	-0.22987266
57	0x3db6a7c5	0.08918718
58	0xbbc17694	-0.005904028
59	0x3e579f24	0.21056801
60	0x3db48c7f	0.0881586
61	0x3e8b1d6b	0.27170882
62	0x3ed78850	0.42096186
63	0x3e9128ac	0.28351343
64	0x3e15da63	0.14634089
65	0x3e66c508	0.22536099
66	0x3e7b252f	0.24525903
67	0x3e820fda	0.2540272
68	0x3e1aac80	0.15104866
69	0x3ea4429f	0.32082078
70	0x3e166359	0.14686336
71	0x3e9e4d70	0.30918455
72	0x3e6bd5ae	0.23030731
73	0x3eacc03e	0.3374042
74	0x3e6c7ab6	0.23093686
75	0x3ee6e158	0.450938
76	0x3ecddf88	0.40209603
77	0x3e6535a5	0.22383745
78	0x3ea997a8	0.33123517
79	0x3ece466e	0.4028811

lstm.bias_hh_l0 f4 [80]
0	0x3ecf7b31	0.40523675
1	0x3eab4c85	0.33456817
2	0x3dcca991	0.0999328
3	0xbd8035f5	-0.062602915
4	0x3eb26552	0.34842926
5	0x3dfbd55a	0.12296553
6	0x3e4551e2	0.19269517
7	0x3ed2c23c	0.41163814
8	0xbda9875a	-0.082777694
9	0x3ef4b6e4	0.47795784
10	0x3e018cd6	0.12651381
11	0x3e24fca9	0.16112007
12	0x3e76ddd8	0.24108064
13	0x3f0237c3	0.50866336
14	0x3eaa3ea7	0.33250925
15	0x3f156548	0.5835767
16	0x3e26a12d	0.16272421
17	0x3eb2c345	0.34914604
18	0x3e640e09	0.22270979
19	0x3e21ec97	0.15812908
20	0xbe0f5311	-0.13996531
21	0xbd9aa637	-0.07551234
22	0xbd9a32e4	-0.07529238
23	0x3e02515d	0.1272635
24	0x3dd7a1f5	0.10528938
25	0xbdeac213	-0.11462798
26	0xbc98e683	-0.018664604
27	0xbe65b0c8	-0.22430718
28	0x3e09b6a3	0.13448577
29	0x3c482f6e	0.012218339
30	0x3e6844d6	0.22682509
31	0xbdbdcf4b	-0.092680536
32	0xbe4564a4	-0.19276673
33	0x3cf2063a	0.029543985
34	0xbdc67a97	-0.09691351
35	0xbdc4505e	-0.09585641
36	0x3e5358c2	0.20639327
37	0xbe3e891f	-0.18606995
38	0x3e0b1ec2	0.13585952
39	0x3d35f1a1	0.04441989
40	0x3e9d5f30	0.30736685
41	0x3e975fa6	0.2956516
42	0xbd18f188	-0.037339717
43	0xbeb17ec7	-0.34667036
44	0xbe60c477	-0.21949945
45	0xbe41f714	-0.18941909
46	0x3db8dd4d	0.09026585
47	0xbe855607	-0.26042196
48	0xbeb339f4	-0.35005152
49	0x3e0eb63e	0.13936707
50	0x3e05a247	0.13050185
51	0x3dd9c0c6	0.10632472
52	0x3e173081	0.14764597
53	0x3edfe039	0.43725756
54	0x3e4b73bd	0.1986837
55	0x3e9d0f30	0.3067565
56	0x3d46b6ad	0.048514057
57	0x3e4d7d15	0.20067246
58	0xbd1814ba	-0.03712914
59	0x3eb27e67	0.34862062
60	0x3e5b52bc	0.2141828
61	0x3eddba19	0.43306044
62	0x3e7c32ca	0.2462875
63	0x3e9bb57f	0.30411908
64	0x3ea6ee8e	0.32603878
65	0x3e98b8bd	0.29828444
66	0x3e0a650f	0.13515113
67	0x3e37bf8f	0.17944168
68	0x3e61f49a	0.22065964
69	0x3e4575d1	0.19283225
70	0x3e3d7d61	0.1850486
71	0x3ee62595	0.44950548
72	0x3e83a6fa	0.2571333
73	0x3ee73406	0.45156878
74	0x3e9ef638	0.31047225
75	0x3ec35c26	0.3815624
76	0x3f0812e5	0.5315383
77	0x3ede5fd4	0.43432486
78	0x3e1a6da2	0.15080884
79	0x3e1f6079	0.15564145

linear.weight f4 [1, 20]
0	0x3edbd40f	0.42935225
1	0x3ebda75e	0.37041754
2	0xbecfd7ee	-0.4059443
3	0xbe7140f4	-0.23559934
4	0xbea56bac	-0.3230871
5	0xbec4f7b4	-0.38470232
6	0x3ec92b2e	0.39290756
7	0xbebea737	-0.3723695
8	0xbe8f0229	-0.27931336
9	0x3e9c5132	0.30530697
10	0x3e9550ff	0.29163358
11	0x3ebc0634	0.36723483
12	0x3edd7b48	0.4325812
13	0x3eb1b5fe	0.34709162
14	0x3ebdbd93	0.37058696
15	0x3e932ee8	0.28746724
16	0xbec84499	-0.39114836
17	0x3ea4cda5	0.32188144
18	0xbec255f9	-0.37956217
19	0x3eb76b3f	0.3582401
