m1/time_series_pattern_recognition/src_final/parameters/NN/model_1_100.pth (torch, 2327 bytes, 5 tensors)

lstm.weight_ih_l0 f4 [12, 1]
000000 69 a4 f5 3e 38 70 85 3f 4b 52 29 3f d1 ca ac be
       0.47976997 1.0424871 0.66141194 -0.33748487
000010 b5 70 63 bf ec 10 f2 be d3 44 d5 be 6c f7 f6 be
       -0.8884385 -0.47278535 -0.4165407 -0.48235643
000020 d9 47 bc 3e a2 af 55 3f 47 01 2d 3f f9 19 1c 3f
       0.36773565 0.8347112 0.67580074 0.6097713

lstm.weight_hh_l0 f4 [12, 3]
000000 20 e4 55 bf ae dc f9 bc 42 56 eb 3e 6c a2 2a 3f
       -0.83551216 -0.030500736 0.45964247 0.66654086
000010 38 a1 58 3f 61 b0 33 3d 81 f8 1a 3f 41 b1 b3 3f
       0.84621 0.04386938 0.60535437 1.4038469
000020 08 85 ae bd 25 45 bd 3d 66 cd f9 3f cd d0 ee bd
       -0.085214674 0.09241704 1.9515808 -0.11660919
000030 1c e6 d4 3b 02 d1 24 3f 14 58 dd be 25 f6 fb 3e
       0.0064971577 0.6438142 -0.4323126 0.4921123
000040 28 5a c3 3f 95 bf 12 bf 16 32 e1 3e d5 2e 4c bf
       1.5261889 -0.5732358 0.43983525 -0.7975896
000050 f3 08 83 3e b9 7f 6c 3f 37 bd 03 3f 63 bf 8a be
       0.25592765 0.9238239 0.51460594 -0.2709914
000060 ec d4 57 bf 3e 6b 07 3f 75 0d 17 3f c0 a5 25 bf
       -0.8430927 0.52898014 0.5900491 -0.6470604
000070 c1 1e 59 3e 60 b9 38 3e b5 c9 d2 be 64 19 59 bf
       0.21203138 0.18039465 -0.41169515 -0.8480437
000080 38 2c 18 3f 1c 31 02 bf e6 b0 36 bf e9 fe 10 3e
       0.5944247 -0.50856185 -0.71363676 0.1415974

lstm.bias_ih_l0 f4 [12]
000000 64 94 35 3f af d6 2e 3e d1 70 54 3f 7e 54 00 be
       0.7092955 0.17074083 0.82984644 -0.12532231
000010 52 8f 9f be b6 dd 1a bf f6 f6 2a bf 0a 3b 58 bf
       -0.31164032 -0.60494554 -0.6678308 -0.84465086
000020 fb 87 19 3f 0a 37 9e 3e 1f 44 1e 3f 63 7c 48 3f
       0.59973115 0.30901366 0.61822695 0.783148

lstm.bias_hh_l0 f4 [12]
000000 37 e0 4f 3f d7 9f 1e 3e 9f e8 74 3f 9c 67 d9 be
       0.812015 0.15490662 0.9566745 -0.4246186
000010 73 c2 4c bf 00 fe 58 be 83 e5 6c bf e4 26 93 bf
       -0.79984206 -0.21190643 -0.9253771 -1.1496243
000020 34 62 1a 3f 45 24 47 3f df 07 5d 3f 37 7c 9b 3f
       0.60306096 0.7778972 0.86340135 1.2147282

linear.weight f4 [1, 3]
000000 b5 17 e3 bf 47 19 05 c0 4b 42 c5 3f
       -1.774161 -2.0796678 1.5410856
