m1/time_series_pattern_recognition/src_final/parameters/NN/model_1_2200.pth (torch, 9367 bytes, 5 tensors)

lstm.weight_ih_l0 f4 [80, 1]
000000 67 a6 a5 3d 70 d6 a6 3e 44 46 6d 3e 5a ab bf 3e
       0.08088379 0.32585478 0.23171335 0.37435418
000010 4d 3b 35 3e d8 d7 81 3e 7d 7c 27 3e 99 ec 3c 3e
       0.17698403 0.25359988 0.16356082 0.1844963
000020 e4 cb c2 3e c6 a1 d6 3e d2 1e ed 3e 78 2f 2b 3e
       0.3804618 0.41920298 0.46312577 0.16717327
000030 6a 6c 9e 3e 06 61 76 3e 2b 04 cc 3e 10 a5 d8 3e
       0.30942088 0.24060449 0.3984693 0.42313433
000040 8e db ea 3e 6e da 89 3e 1a 85 98 3e d2 03 13 3f
       0.45870632 0.2692446 0.29789048 0.57427704
000050 92 38 10 bd 5b 14 14 be dc e0 0a be 0e 2f a5 3d
       -0.0352102 -0.1446089 -0.1356234 0.080656156
000060 8b 88 4b bd 89 7e 47 be 2d e6 32 be 1a 38 44 be
       -0.049690764 -0.19481863 -0.17470618 -0.19162026
000070 f1 7a d0 bd 79 4f 84 3e 78 ee 7a 3e dc 06 17 be
       -0.10179699 0.25841883 0.24505031 -0.1474871
000080 98 73 14 3e 47 d3 8b bd df c4 2c be 71 14 86 3e
       0.1449722 -0.06827407 -0.16871975 0.2618747
000090 9f 16 4b be 34 52 e2 bd 21 41 b1 bd 87 ef 59 be
       -0.19832848 -0.11050835 -0.086550005 -0.21282779
0000a0 02 b2 9a 3e 58 63 ce 3e 01 0c c5 be e4 21 4e be
       0.30213934 0.40310168 -0.3848572 -0.20130116
0000b0 b2 3e 96 be d6 bc 9b be 0c 9b b9 3e 4f 47 75 be
       -0.29344708 -0.30417508 0.36251104 -0.23952983
0000c0 ed c6 54 be 78 31 bb 3e cc b8 a5 3e e4 ec 7f 3e
       -0.20779009 0.3656118 0.3236755 0.2499271
0000d0 fd 5a 93 3e 23 0f c3 3e b3 ba 93 3e 54 41 fa 3e
       0.28780356 0.38097486 0.28853378 0.48877966
0000e0 ab 88 91 be ea 7b ae 3e bf a2 a9 be b3 1a 82 3e
       -0.28424582 0.34078914 -0.33131978 0.25410995
0000f0 01 13 ac 3e 45 29 9f 3e a2 20 b0 3d 6b b5 91 3e
       0.3360825 0.31086174 0.08599974 0.28458723
000100 86 3b eb 3e 91 95 da 3e f4 55 7a 3e 9a cb a1 3e
       0.4594385 0.42692235 0.24446851 0.31600648
000110 70 b3 3a 3e 5e a4 79 3e 78 0d 82 3e ff 08 af 3e
       0.18232512 0.24379107 0.254009 0.3418655
000120 1b 35 63 3e f1 46 fd 3d 70 1b d8 3e d6 5d 74 3e
       0.22188227 0.123670466 0.42208433 0.2386392
000130 80 7f fd 3e 24 67 ee 3e c9 7d 18 3e 8a 9c 59 3e
       0.49511337 0.46563065 0.14891733 0.21251121

lstm.weight_hh_l0 f4 [80, 20]
000000 cb cd cc 3d e1 b2 e8 3d 29 fc 14 3e 9e 05 53 3e
       0.100001894 0.113622434 0.14549316 0.20607612
000010 5c 2b 4b be a6 a8 d9 3d 25 34 94 bb 76 81 39 3e
       -0.19840759 0.1062787 -0.0045228177 0.18115792
000020 43 16 97 3e 7a 77 1a 3e 1a 61 4b 3e ca 83 39 3e
       0.29509172 0.15084639 0.1986126 0.1811668
000030 5e 18 fb 3d 54 97 8c 3e 0d 05 f9 3d c1 90 94 3e
       0.12260507 0.27459204 0.121591665 0.29016688
000040 fa 6f a8 bd 0a 38 1f 3e 81 f8 26 3d c9 37 a3 bd
       -0.08224483 0.15548721 0.040764336 -0.079696245
000050 af cd e9 3b 77 55 98 3d 1a c9 57 3e 50 05 b8 bd
       0.007135115 0.07438176 0.21072808 -0.08985388
000060 a4 37 02 3e 7e 46 70 3e 02 39 94 be ad 3c 26 3e
       0.12716538 0.2346439 -0.28949744 0.16234083
000070 34 e1 54 3e e5 dc 49 be 3e 87 40 3b aa 15 02 be
       0.20789033 -0.19713171 0.0029377486 -0.12703577
000080 b2 8c ac be 88 a2 c5 bd 90 3d 0e be 20 c1 19 3d
       -0.33701092 -0.09650141 -0.13890672 0.037537694
000090 3b d6 1d 3e 14 da d5 bd e4 af 8c 3e 34 8c 79 be
       0.15413754 -0.10441986 0.27477944 -0.2436989
0000a0 b0 59 89 3d 8a 93 e6 bb 0a c4 c4 3d b5 ec b6 3e
       0.0670656 -0.007036631 0.09607704 0.35727468
0000b0 3a 91 31 3e 30 46 45 bd d4 08 43 be 2b 68 66 3e
       0.17340556 -0.04816264 -0.19046336 0.22500674
0000c0 43 1b c3 3e 01 32 b8 3d 48 7a a7 3d cf c0 d0 bd
       0.38106737 0.089939125 0.0817762 -0.10193025
0000d0 6e fd 02 be 58 cf 6d 3c de 9a 31 3e 1f 10 eb 3c
       -0.12791988 0.014514767 0.17344233 0.02869421
0000e0 4e 1f 05 3e d2 ac b6 bd d5 ed e8 bd 75 3b 81 be
       0.13000223 -0.089196816 -0.11373488 -0.25240675
0000f0 9f db 35 3e 60 99 59 3d 5f 81 68 3e d9 ac b5 3d
       0.1775956 0.053124785 0.22705601 0.08870859
000100 61 d6 1e 3e 13 8a 2c be 17 51 e8 bd ea 13 c2 bd
       0.15511467 -0.16849546 -0.11343592 -0.094764546
000110 33 57 82 be b6 05 87 3d e9 80 0c 3a 4d 65 4e 3e
       -0.25457153 0.06592886 0.0005359785 0.2015583
000120 dc d1 42 bd 57 0f 3d be dc 11 34 be 5e 2d 3c 3c
       -0.04756342 -0.18462883 -0.17584938 0.011485426
000130 a6 43 d0 bd 48 11 bc 3d c8 0e 34 3e 4d ff 62 3e
       -0.10169153 0.09182984 0.17583764 0.22167702
000140 c4 4f 1e 3d 59 9e 45 bc 9b d6 a5 be db cf ee 3d
       0.03865029 -0.012061679 -0.32390293 0.11660739
000150 a4 cf b0 bd d5 51 89 be 1a 1a 36 bd 33 fd 63 be
       -0.08633354 -0.26820245 -0.044458486 -0.22264557
000160 27 a5 c7 3e 36 3b 35 3e 89 f6 84 3e 52 8b 93 3e
       0.3899319 0.17698368 0.2596934 0.2881723
000170 ca d5 b1 3d 3e cf b2 3e 83 3a bf 3e 6c 45 f9 3d
       0.08683355 0.34923738 0.37349328 0.12171444
000180 b2 70 74 3e 54 b2 2a 3c 5d 6c 85 bd 0b 1e cc be
       0.23871115 0.010418493 -0.06514809 -0.3986667
000190 26 ef e7 3c d1 f0 0d be 75 13 30 be 73 54 b5 3e
       0.028312277 -0.13861395 -0.17194922 0.35415992
0001a0 42 ad 2a be e2 3b 53 3d 95 4c 02 be 0d ec 16 be
       -0.16667655 0.05157078 -0.12724526 -0.14738484
0001b0 bf 17 38 bc e3 b2 36 bd 65 17 fb 3d 5e b7 e0 bd
       -0.01123613 -0.044604193 0.122603215 -0.109724745
0001c0 24 dd 09 3e 91 97 15 be fe d6 88 bd f6 c6 02 3e
       0.13463265 -0.14608599 -0.066816315 0.1277121
0001d0 94 eb 99 3e d3 7d f9 bd 3c cd ea 3c 31 78 97 be
       0.30062544 -0.12182202 0.028662317 -0.29583886
0001e0 f3 fd 39 3e 3c 80 47 3e 23 a5 d4 3c c4 39 d7 bc
       0.1816328 0.19482511 0.02595765 -0.026272662
0001f0 63 90 a7 3d 0b d8 a5 be 4c a5 1d 3d 79 ce 81 3c
       0.081818365 -0.3239139 0.038487718 0.015845524
000200 c8 59 89 3e 7a c2 ad 3e b0 fb cd 3d 42 95 68 3e
       0.2682631 0.33937436 0.10057771 0.22713187
000210 b7 7f b2 bd 9d e2 59 3d cc 6d 3a 3e aa 16 2e 3e
       -0.08715766 0.05319463 0.18205947 0.17000833
000220 7e 41 d8 3d 1a b4 9d 3e 2a 13 a5 be 9f 11 b5 be
       0.10559367 0.3080147 -0.32241184 -0.35365006
000230 45 4d d0 3d 17 3c e5 bd 3b 16 98 39 15 b6 c5 3e
       0.10170988 -0.11193102 0.00029008262 0.3861548
000240 5e 82 05 be 03 fd 3a 3d c8 2e e6 bc 10 8b 67 3e
       -0.13038012 0.045651447 -0.028098479 0.22611642
000250 cc 29 eb 3e 38 f5 f4 bd 1e 4a 07 3e 07 b6 30 3e
       0.45930326 -0.11960834 0.13211867 0.17256938
000260 ae ac 24 be ac 0d 0b 3e 53 ce 65 bd f8 50 2a 3e
       -0.16081497 0.13579434 -0.05610497 0.1663245
000270 92 26 f3 3d e1 7d c8 3d 93 5c 80 bd 51 9f b8 be
       0.11872591 0.097896345 -0.06267657 -0.3605905
000280 25 16 0c bd ef 15 14 be c5 15 14 be d2 0b 27 be
       -0.034200806 -0.14461492 -0.1446143 -0.16313103
000290 02 b2 9e bd f9 ba 06 3d 02 3d 03 3e d3 03 92 bd
       -0.07748796 0.032893155 0.12816241 -0.07129636
0002a0 99 c2 44 bd 36 77 64 3d 07 70 a3 bc d8 1f 7f 3d
       -0.048037145 0.05577775 -0.01995088 0.062286228
0002b0 c4 83 15 3d 81 cb 34 be f8 7d ee bd af 8a df 3d
       0.036502615 -0.17655756 -0.116451204 0.10915124
0002c0 47 64 be bc b3 6c 74 3d 34 5e b0 bd a3 20 0a 3e
       -0.023241175 0.059673976 -0.08611718 0.13489012
0002d0 39 e9 8b 3e ce fd 10 3a 6a 5d ec bd 45 f9 21 3e
       0.27326372 0.0005530984 -0.11541255 0.15817745
0002e0 1a 81 24 3e 74 3c d5 3b a0 e9 88 bd 5c fc 82 3d
       0.16064873 0.0065074507 -0.066851854 0.0639579
0002f0 cd db 8f 3e 0e 20 0c bc 57 55 9e 3e 9c 50 9b bc
       0.28097382 -0.008552564 0.30924484 -0.018959336
000300 bb 22 49 3c dd ce 15 bd 56 af 92 3d f4 2b e3 3c
       0.012276347 -0.036574233 0.07162349 0.02773092
000310 ae a8 0b be f0 86 9c bc 16 68 16 be c6 a3 14 be
       -0.13638565 -0.019107312 -0.14688143 -0.145156
000320 12 7d 8d 3e 1c 0a 32 3d 9f ef 08 3d 3f 37 67 3e
       0.27634484 0.043466672 0.033431645 0.22579668
000330 89 3a ac bb 51 3b 2a bd e1 e8 ee bd fb f5 50 3e
       -0.0052560014 -0.041560475 -0.11665512 0.20406334
000340 f9 32 9b 3e 0c 28 60 3e 73 e9 42 3e ff 1d 89 3e
       0.30312327 0.21890277 0.19034366 0.26780698
000350 aa 02 68 bc 53 28 01 3e e9 54 8c 3e 62 b1 f4 bc
       -0.014160791 0.12613039 0.2740853 -0.029869739
000360 0c a3 23 bc 08 66 66 3e 05 b7 3f be 53 fd 2d be
       -0.009987604 0.2249986 -0.1872216 -0.16991167
000370 b0 89 30 3e 45 89 0b 3e 7f d3 3a 3e b3 77 98 3d
       0.17240024 0.13626583 0.18244742 0.07444706
000380 9a 43 01 bd 8d c0 42 be 6a 4d 4d 3e 46 4e d5 3d
       -0.03155861 -0.19018765 0.20049062 0.1041532
000390 fe 8f a9 3e e9 96 b1 bd 1e 4a 71 bd 22 17 d6 bc
       0.3311767 -0.08671362 -0.058908574 -0.026134077
0003a0 27 c7 43 3e b9 2f e5 3c 54 34 90 3e d9 d9 8a 3e
       0.1911894 0.027976857 0.28164923 0.2711933
0003b0 3a 01 f5 3d 07 11 da bd 38 2a f2 3d 57 8b 2c bf
       0.119631246 -0.10647779 0.11824459 -0.67400116
0003c0 f1 b9 84 3e e0 44 21 3e e8 5b 61 be 61 86 ab 3d
       0.25923112 0.1574893 -0.22007716 0.0837524
0003d0 d4 97 f0 bd 8c 6f 8c be 3d ee 83 bd 9e 5c 97 3d
       -0.11747709 -0.27428854 -0.06441925 0.07390712
0003e0 bd 11 37 3e 49 8b c5 bd c7 c8 b2 3d c1 a0 20 3e
       0.1787786 -0.09645707 0.087297015 0.15686323
0003f0 11 3a ab bc 97 4c 83 bd c8 e3 13 3e ee ae 60 bd
       -0.020901712 -0.06411093 0.1444236 -0.054854326

lstm.bias_ih_l0 f4 [80]
000000 51 fc d6 3e 28 28 ab 3d 10 9f d2 3e 8e 74 0f 3e
       0.41989377 0.083572686 0.4113698 0.14009306
000010 fc 9e 8f 3e 4a 2c 58 3e da 97 d0 3e d1 99 01 3f
       0.28050983 0.21110645 0.40740854 0.5062533
000020 c4 76 a3 3e 66 aa e7 3e 76 e3 ac 3e 47 10 8c 3e
       0.31926548 0.4524719 0.3376729 0.2735617
000030 46 77 c2 3e 62 0b af 3e 6e 07 b6 3e bc f8 f9 3e
       0.37981623 0.34188372 0.35552543 0.48822582
000040 1b e9 80 3e 92 bd fc 3e 19 de 91 3e ae a9 b6 3e
       0.25177845 0.4936338 0.2848976 0.3567633
000050 79 ed ae bd 31 69 90 be 04 59 9b bd 73 aa c3 bd
       -0.08541388 -0.28205255 -0.07585338 -0.09553995
000060 28 d7 09 be 96 ae c0 3c ba 19 51 3e 67 d8 06 3c
       -0.13460982 0.023520749 0.2041997 0.008230305
000070 f2 3d 4d be 2a c2 7e 3e c0 3b 5f bc c8 9d d4 3d
       -0.20043162 0.24878755 -0.013625085 0.10381657
000080 9f f1 d5 bd ed 64 88 3e d2 d2 81 bd 05 a6 85 3d
       -0.10446476 0.266395 -0.06339039 0.06525806
000090 2f 08 84 3d fa c2 ae 3b b5 b3 3a 3e 22 19 75 be
       0.064468734 0.0053333016 0.18232615 -0.23935369
0000a0 8e 67 b7 3e 6b 68 c0 3e ec bd a2 be b8 14 55 be
       0.35821193 0.37579665 -0.31785524 -0.20808685
0000b0 74 bb ca bd 5d 43 9b bd 0b 34 d6 3e 5c 34 78 bd
       -0.09899035 -0.07581208 0.4183658 -0.06059681
0000c0 4a 3f 5e be b2 6d c6 3d ec 82 9a 3e 95 d7 77 3e
       -0.2170383 0.096888915 0.3017801 0.24203332
0000d0 79 91 1c 3e b8 aa 75 3e 24 ea b8 bb 28 60 7b 3d
       0.15289868 0.23990905 -0.005643146 0.061371
0000e0 aa 67 6c be ba ca af 3d 72 67 85 ba 9c ec 5e 3e
       -0.2308642 0.08583589 -0.0010177924 0.21769947
0000f0 4a fb b1 3d d6 58 7e 3e 98 41 d8 3e d8 2f 98 3e
       0.08690508 0.24838576 0.42237544 0.29724002
000100 cf fd 22 3e 8b d4 61 3e 8c 3d 63 3e 4c 17 68 3e
       0.15917133 0.22053735 0.22191447 0.22665137
000110 fc 30 2b 3e 51 be 9f 3e 9c ce 1c 3e ab 84 9d 3e
       0.16717905 0.31199887 0.1531319 0.3076528
000120 b4 0e 55 3e 71 16 ac 3e 54 1e 64 3e d3 3a eb 3e
       0.2080639 0.3361087 0.22277194 0.45943317
000130 33 33 c7 3e 7c 61 61 3e 8b d2 a3 3e 2c f1 c7 3e
       0.3890625 0.22009844 0.3199657 0.39051187

lstm.bias_hh_l0 f4 [80]
000000 98 20 cc 3e 41 3e a1 3e 38 7e dd 3d 98 d7 3b bd
       0.39868617 0.31492808 0.1081509 -0.045859903
000010 c4 69 b3 3e a7 d3 fa 3d 13 2b 3f 3e ed 39 c6 3e
       0.3504163 0.12247401 0.18668775 0.3871607
000020 07 0c 81 bd 85 57 f4 3e 38 8e 08 3e a6 53 25 3e
       -0.06301122 0.47723022 0.13335502 0.1614519
000030 6d 9d 62 3e f4 0d 02 3f fc 96 a7 3e c8 06 17 3f
       0.22130366 0.5080254 0.3273238 0.5899472
000040 e1 3b 13 3e c3 c3 b5 3e f8 cb 5b 3e 97 b1 2b 3e
       0.1437831 0.35500917 0.21464527 0.16766964
000050 6d 1e 0a be 3a 55 c7 bd eb 3e 92 bd 87 7b f1 3d
       -0.13488169 -0.097330526 -0.07140907 0.11791139
000060 5e 8b fb 3d d0 1f ff bd f9 de 2a bd bb 6a 6d be
       0.122824416 -0.1245724 -0.04171655 -0.23185246
000070 f2 43 ef 3d 1b a3 ab ba 6f a9 69 3e d7 eb be bd
       0.116828814 -0.0013094874 0.2281854 -0.09322327
000080 79 15 4d be ad 0d f2 3c 62 00 d5 bd 15 0a bc bd
       -0.20027722 0.029547537 -0.10400464 -0.091816105
000090 5a e4 4e 3e 2d c1 39 be 1e 32 06 3e e3 e7 c9 3c
       0.20204297 -0.18140097 0.13105056 0.024646705
0000a0 d1 9f 9b 3e 57 29 90 3e bb 14 30 bd 01 4f b8 be
       0.30395368 0.2815654 -0.04298852 -0.35997775
0000b0 1b 08 61 be cc c0 44 be b5 59 b6 3d 37 5b 80 be
       -0.21975748 -0.19214171 0.08903829 -0.2506959
0000c0 98 c7 bc be 55 de 0e 3e 4d e0 09 3e 0c 39 de 3d
       -0.36871028 0.13952 0.1346447 0.108507246
0000d0 7e 39 0d 3e 56 bd df 3e 1b 4c 48 3e a2 dd 9e 3e
       0.13791463 0.4369914 0.19560282 0.31028467
0000e0 03 a7 42 3d 9d 0e 4a 3e 28 11 04 bd 1f 25 b6 3e
       0.047522556 0.19732137 -0.032242924 0.35575196
0000f0 28 0a 5a 3e 17 c9 d1 3e 5c a5 7d 3e ab bc a2 3e
       0.21292937 0.40973732 0.24770111 0.31784567
000100 46 80 ad 3e 74 40 96 3e e1 fa e4 3d 2a b7 1b 3e
       0.33886927 0.2934605 0.11180664 0.1520659
000110 16 79 72 3e 3b 6d 3c 3e a4 e8 43 3e d0 5c e5 3e
       0.23679003 0.18401043 0.19131714 0.44797373
000120 05 87 70 3e 39 8a e6 3e f8 c7 9a 3e 9f b5 c7 3e
       0.23489006 0.4502733 0.3023069 0.39005753
000130 be bc 04 3f c4 75 dc 3e 5d e3 0e 3e eb b5 12 3e
       0.518505 0.43058598 0.1395392 0.14327209

linear.weight f4 [1, 20]
000000 8d 86 d8 3e 4f 44 af 3e c2 3a d0 be c3 12 80 be
       0.42290154 0.34231803 -0.4066983 -0.25014314
000010 95 60 a7 be 9d e6 c4 be 06 d0 be 3e 15 f4 af be
       -0.32690874 -0.38457194 0.37268084 -0.34365907
000020 01 dd 93 be 06 0d 99 3e 93 9c 97 3e 24 63 ba 3e
       -0.2887955 0.2989275 0.29611644 0.36403763
000030 c5 00 cf 3e b4 e4 af 3e 09 7c b9 3e 35 03 97 3e
       0.40430275 0.34354174 0.36227444 0.29494634
000040 c7 49 c0 be 20 c9 a2 3e da 6c bc be fd 20 b4 3e
       -0.37556288 0.3179407 -0.36801797 0.35181418
