m1/time_series_pattern_recognition/src_final/parameters/NN/model_1_400.pth (torch, 2327 bytes, 5 tensors)

lstm.weight_ih_l0 f4 [12, 1]
0	0x3edc5e06	0.43040484
1	0x3f54469b	0.82920235
2	0x3f2be5c4	0.6714747
3	0x3ec0db6d	0.3766741
4	0xbfbe795c	-1.4880786
5	0xbf5bd63e	-0.8587378
6	0xbe9ab53b	-0.30216393
7	0xbe4fa05d	-0.20276017
8	0x3e8440b4	0.25830615
9	0x3f149dcb	0.5805327
10	0x3f02a53b	0.5103337
11	0x3f17db96	0.59319437

lstm.weight_hh_l0 f4 [12, 3]
0	0xbf39abb8	-0.72527647
1	0xbd6d9e78	-0.058012456
2	0x3ecff0fb	0.4061354
3	0x3fbb4e24	1.4633222
4	0x3fa2a3d2	1.2706244
5	0xbee008a6	-0.43756598
6	0x3f9885a9	1.191579
7	0x3fd27f93	1.6445183
8	0xbee35f72	-0.44408756
9	0xbd5fb561	-0.054616336
10	0x3fbb53b4	1.4634919
11	0x3e61acbd	0.2203855
12	0x3f22b676	0.63559663
13	0x3f9a5484	1.2057042
14	0xbf689535	-0.9085267
15	0x3f8cb53f	1.0992812
16	0x4003b746	2.0580611
17	0xbf86fa0f	-1.0545062
18	0xbe746da7	-0.23869954
19	0xbfa00d09	-1.2503978
20	0x3f3dd7c1	0.7415734
21	0x3f2e51ef	0.6809377
22	0x3f285065	0.6574767
23	0xbec7cdbf	-0.3902416
24	0xbf00a1d2	-0.5024692
25	0x3f346824	0.70471406
26	0x3ec12454	0.3772303
27	0xbe88590d	-0.2663044
28	0x3ea3ee1f	0.3201761
29	0x3d220c8b	0.039562743
30	0xbed692be	-0.4190883
31	0xbf8d03b4	-1.1016755
32	0x3f4b446b	0.7940127
33	0xbe8dd9e5	-0.27705303
34	0xbf0fdaed	-0.5619343
35	0x3c94f44b	0.018182894

lstm.bias_ih_l0 f4 [12]
0	0x3d5b72cf	0.053576287
1	0xbf8946f5	-1.0724779
2	0x3d1d3903	0.03838445
3	0xbd87eeb9	-0.066373296
4	0xbf8bffa3	-1.0937389
5	0xbfa4a6bb	-1.2863382
6	0x3e657fe3	0.22412066
7	0x3e72629d	0.2367043
8	0xbebed3e8	-0.37271047
9	0xbf3fba86	-0.7489399
10	0xbe65d66f	-0.22445081
11	0x3d743244	0.05961825

lstm.bias_hh_l0 f4 [12]
0	0x3e200baa	0.1562945
1	0xbf8b4dcf	-1.088312
2	0x3e292d41	0.16521169
3	0xbebb3913	-0.36566982
4	0xbfca7d17	-1.5819424
5	0xbf64af61	-0.89330107
6	0xbd08eb2a	-0.033427395
7	0xbd8bd0c8	-0.06826931
8	0xbebd1f7a	-0.36938077
9	0xbe8f63ea	-0.28005916
10	0x3ca9c8b6	0.02072559
11	0x3efb7e45	0.49119774

linear.weight f4 [1, 3]
0	0xc01e6bb0	-2.4753227
1	0xc0392109	-2.8926413
2	0x401351be	2.3018641
