m1/time_series_pattern_recognition/src_final/parameters/NN/model_1_2000.pth (torch, 9367 bytes, 5 tensors)

lstm.weight_ih_l0 f4 [80, 1]
0.0834903 0.3365929 0.21872504 0.35975924 0.16713473 0.25665218 0.164298 0.1841973
0.36257103 0.41687536 0.45442075 0.16603157 0.3131357 0.23598652 0.39334282 0.40926656
0.4607862 0.26674628 0.29943034 0.5649504 -0.03642846 -0.13455458 -0.14237481 0.09435082
-0.04583523 -0.18298201 -0.1675273 -0.18854658 -0.09121757 0.2665919 0.25386345 -0.14531577
0.15057091 -0.066278 -0.17121674 0.24399093 -0.19806492 -0.110015325 -0.08363176 -0.20438084
0.30343273 0.41042522 -0.3770639 -0.18998483 -0.28832415 -0.30181748 0.36215073 -0.23723768
-0.19283816 0.36401215 0.3190312 0.24870591 0.29103106 0.37835258 0.2834799 0.48124805
-0.28278914 0.33995837 -0.3308415 0.24777359 0.33753145 0.32256302 0.073879175 0.27864414
0.4590773 0.43491966 0.25159448 0.31527188 0.16904806 0.24702847 0.2508117 0.3413882
0.22777809 0.121530935 0.41533473 0.21532896 0.49678573 0.46399122 0.14937297 0.21243082
00000000: f6fc aa3d e855 ac3e 75f9 5f3e 5d32 b83e
00000010: 5e25 2b3e ea67 833e bc3d 283e 389e 3c3e
00000020: e9a2 b93e b070 d53e d6a9 e83e 2e04 2a3e
00000030: 5353 a03e 73a6 713e 3b64 c93e 638b d13e
00000040: 2bec eb3e f892 883e ef4e 993e 97a0 103f
00000050: 0236 15bd adc8 09be b4ca 11be 013b c13d
00000060: b9bd 3bbd a35f 3bbe 478c 2bbe 5b12 41be
00000070: 47d0 babd bc7e 883e 64fa 813e a8cd 14be
00000080: 432f 1a3e c3bc 87bd 7153 2fbe c2d8 793e
00000090: 88d1 4abe b74f e1bd 2147 abbd 3649 51be
000000a0: 895b 9b3e 4123 d23e 850e c1be 628b 42be
000000b0: 399f 93be d287 9abe d26b b93e 6fee 72be
000000c0: 5e77 45be cd5f ba3e 0f58 a33e c3ac 7e3e
000000d0: 0602 953e 6eb7 c13e 4724 913e 2566 f63e
000000e0: bdc9 90be 060f ae3e 0f64 a9be 5cb8 7d3e
000000f0: ecd0 ac3e fb26 a53e f74d 973d 72aa 8e3e
00000100: 2e0c eb3e caad de3e fed0 803e 516b a13e
00000110: ef1a 2d3e 08f5 7c3e 646a 803e 6fca ae3e
00000120: a93e 693e 36e5 f83d c1a6 d43e 327f 5c3e
00000130: b35a fe3e 4290 ed3e 3af5 183e 7787 593e

lstm.weight_hh_l0 f4 [80, 20]
0.10010985 0.11359927 0.1458746 0.20865895 -0.19687052 0.107048884 -0.0053573954 0.18191327
0.29836166 0.14946492 0.19710064 0.18006667 0.12297451 0.27383855 0.12138705 0.28876686
-0.08224411 0.15405686 0.04225607 -0.08064865 0.016646631 0.0845494 0.20207788 -0.09667809
0.11939159 0.22614048 -0.28102264 0.15436439 0.20133631 -0.18948947 0.010061234 -0.11884799
-0.32726368 -0.08795182 -0.13001032 0.045017328 0.14413732 -0.09627504 0.2670621 -0.23523019
0.057412162 -0.016713237 0.106055625 0.3705025 0.18394685 -0.038264673 -0.20074134 0.23431632
0.39458102 0.07930679 0.07090956 -0.11255398 -0.13677615 0.004194316 0.16356236 0.017108615
0.13905567 -0.10020753 -0.10286787 -0.26203406 0.18770555 0.06666669 0.21621473 0.07650214
0.14405604 -0.17981963 -0.101894744 -0.10574554 -0.26876348 0.076905705 0.010409 0.2128105
-0.03743881 -0.17347299 -0.16618907 0.021749837 -0.11573092 0.10356272 0.1649078 0.23431657
0.040804975 -0.007697818 -0.32638782 0.11561312 -0.08930444 -0.27092847 -0.041639443 -0.22565016
0.3890427 0.17908521 0.2611957 0.29088333 0.08911121 0.3517317 0.37524667 0.123089835
0.2338697 0.01290656 -0.06749517 -0.39488342 0.041291174 -0.12470412 -0.1848384 0.3421124
-0.17938212 0.038605053 -0.11430196 -0.15955558 -0.023153733 -0.032323617 0.13434242 -0.09687722
0.14726701 -0.13302128 -0.054689087 0.13983716 0.28716278 -0.108966924 0.016242683 -0.28369802
0.18953538 0.20732775 0.015717007 -0.033245556 0.07253523 -0.3329391 0.048192 0.0057905763
0.2612416 0.347216 0.107043445 0.23695739 -0.078757785 0.06176254 0.18918797 0.17721806
0.09165091 0.31744236 -0.33134 -0.342019 0.10874327 -0.10459427 -0.0064460523 0.37858358
-0.13777144 0.03826068 -0.02077921 0.21907192 0.45170066 -0.11229638 0.13937792 0.17973278
-0.15448469 0.14334379 -0.049716968 0.17335932 0.11189375 0.10526361 -0.06991091 -0.35423425
-0.023933941 -0.13199462 -0.15577632 -0.17273474 -0.08869408 0.02132705 0.13962579 -0.082432136
-0.058966056 0.06671545 -0.0102250315 0.07357643 0.04681154 -0.16526762 -0.10674192 0.11915494
-0.03629719 0.071213946 -0.09700242 0.14672121 0.27972537 0.010201706 -0.123428956 0.15157834
0.15182379 -0.0017497124 -0.058429193 0.05523695 0.27392095 -0.00090102415 0.31547713 -0.01027296
0.018643068 -0.028762486 0.07724622 0.034133475 -0.14648399 -0.01065867 -0.1550753 -0.13598989
0.2827626 0.05456262 0.024337966 0.22064051 -0.015924674 -0.05111929 -0.1069677 0.19347988
0.2970166 0.22726613 0.19654626 0.27819514 -0.00766 0.134578 0.27960786 -0.023517225
-0.022271013 0.23505908 -0.19671892 -0.1587841 0.17608215 0.1402938 0.17881835 0.07359323
-0.034475815 -0.19349034 0.2034147 0.10091578 0.33036262 -0.08432352 -0.056759547 -0.02312363
0.19529727 0.031130807 0.28486335 0.27336544 0.11457561 -0.10376273 0.11578472 -0.6707886
0.2638443 0.16260134 -0.22544397 0.078193136 -0.12299541 -0.2795161 -0.059184354 0.068830475
0.17273204 -0.0913192 0.0924665 0.16229154 -0.016024167 -0.059001084 0.14901689 -0.04951826
00000000: 6506 cd3d bca6 e83d 2760 153e b1aa 553e
00000010: 6d98 49be 723c db3d 178d afbb 7947 3a3e
00000020: dcc2 983e 550d 193e c0d4 493e 6663 383e
00000030: 0fda fb3d 9134 8c3e c699 f83d 40d9 933e
00000040: 9a6f a8bd 15c1 1d3e b314 2d3d 1f2b a5bd
00000050: 845e 883c 3c28 ad3d 81ed 4e3e 2aff c5bd
00000060: 9483 f43d 5f91 673e 33e2 8fbe b311 1e3e
00000070: 1b2b 4e3e 8709 42be e0d7 243c 9366 f3bd
00000080: 1b8f a7be 1520 b4bd 6d21 05be 1764 383d
00000090: bc98 133e d92b c5bd 5dbc 883e 2fe0 70be
000000a0: 0429 6b3d 33ea 88bc b133 d93d 81b2 bd3e
000000b0: 905c 3c3e 6bbb 1cbd 238f 4dbe 9ef0 6f3e
000000c0: 8606 ca3e 996b a23d 0839 913d b382 e6bd
000000d0: 0c0f 0cbe 7970 893b e47c 273e 5e27 8c3c
000000e0: 9c64 0e3e 9b39 cdbd 64ac d2bd 5429 86be
000000f0: e235 403e 8c88 883d 6567 5d3e 27ad 9c3d
00000100: 6d83 133e a322 38be 31ae d0bd 1e91 d8bd
00000110: 5e9b 89be bd80 9d3d 838a 2a3c ffea 593e
00000120: 7059 19bd e7a2 31be 782d 2abe b72c b23c
00000130: 5504 edbd b118 d43d 97dd 283e aff0 6f3e
00000140: 1e23 273d fa3d fcbb 4e1c a7be 92c6 ec3d
00000150: 3fe5 b6bd 23b7 8abe 1f8e 2abd d610 67be
00000160: 9b30 c73e 1d62 373e 71bb 853e a9ee 943e
00000170: f07f b63d 2d16 b43e 5520 c03e 8616 fc3d
00000180: 8a7b 6f3e 0976 533c e83a 8abd 292e cabe
00000190: ef20 293d e064 ffbd 4746 3dbe 5b29 af3e
000001a0: f2af 37be 5520 1e3d 2517 eabd 8a62 23be
000001b0: e6ac bdbc c565 04bd 0f91 093e 9067 c6bd
000001c0: 2acd 163e bb36 08be aa01 60bd 7931 0f3e
000001d0: 0007 933e 0d2a dfbd 600f 853c de40 91be
000001e0: 9015 423e ba4d 543e f4c0 803c 7e2c 08bd
000001f0: 5a8d 943d fe76 aabe f964 453d e0be bd3b
00000200: 76c1 853e 4cc6 b13e 9839 db3d f5a4 723e
00000210: c34b a1bd b8fa 7c3d 7eba 413e a778 353e
00000220: 79b3 bb3d ce87 a23e 65a5 a9be 1d1d afbe
00000230: cbb4 de3d 8535 d6bd 6839 d3bb b5d5 c13e
00000240: f513 0dbe 3bb7 1c3d 2939 aabc 6454 603e
00000250: 4f45 e73e a5fb e5bd 16b9 0e3e df0b 383e
00000260: 3c31 1ebe b7c8 123e 05a4 4bbd 1b85 313e
00000270: 8d28 e53d 7394 d73d 742d 8fbd 315e b5be
00000280: 1d11 c4bc 9929 07be d483 1fbe 60e1 30be
00000290: 3ea5 b5bd 11b6 ae3c 10fa 0e3e 2ed2 a8bd
000002a0: 6486 71bd 1ca2 883d e486 27bc 3daf 963d
000002b0: 75bd 3f3d ea3b 29be 829b dabd 8107 f43d
000002c0: 5dac 14bd 9ed8 913d 34a9 c6bd 163e 163e
000002d0: 2a38 8f3e 0e25 273c 52c8 fcbd 5a37 1b3e
000002e0: b277 1b3e 9b56 e5ba 7353 6fbd 2440 623d
000002f0: 5e3f 8c3e b532 6cba 3886 a13e eb4f 28bc
00000300: 59b9 983c 4e9f ebbc 4433 9e3d 8bcf 0b3d
00000310: e6ff 15be b4a1 2ebc 0fcc 1ebe ef40 0bbe
00000320: 42c6 903e 0e7d 5f3d 6a60 c73c 96ef 613e
00000330: 7674 82bc 7662 51bd e211 dbbd 971f 463e
00000340: 8f12 983e 74b8 683e 6c43 493e 986f 8e3e
00000350: bd00 fbbb d1ce 093e c328 8f3e 32a7 c0bc
00000360: b371 b6bc 54b3 703e af70 49be 4d98 22be
00000370: e14e 343e 2ea9 0f3e 281c 373e 0cb8 963d
00000380: 8336 0dbd 5522 46be f14b 503e efac ce3d
00000390: 4a25 a93e cfb1 acbd b37c 68bd c46d bdbc
000003a0: 02fc 473e 0906 ff3c 9cd9 913e 8ef6 8b3e
000003b0: 9ea6 ea3d 8e81 d4bd 8a20 ed3d cdb8 2bbf
000003c0: 9a16 873e f780 263e c9da 66be b923 a03d
000003d0: 04e5 fbbd bc1c 8fbe 4b6b 72bd fef6 8c3d
000003e0: abe0 303e 9005 bbbd 145f bd3d c12f 263e
000003f0: 1d45 83bc 1fab 71bd e297 183e a9d3 4abd

lstm.bias_ih_l0 f4 [80]
0.42247707 0.094270214 0.39839664 0.12548593 0.2706631 0.2141655 0.4081482 0.50602895
0.3013428 0.45013765 0.32892945 0.27240038 0.3835201 0.33722642 0.3504247 0.47434506
0.25390145 0.49120694 0.28645453 0.34741732 -0.08661215 -0.2720112 -0.08258144 -0.081863575
-0.13067248 0.035378337 0.21139476 0.011333081 -0.18982676 0.25700486 -0.0047915964 0.10597182
-0.098828584 0.2684326 -0.065859675 0.047458615 0.064722225 0.005889747 0.18526416 -0.2308685
0.35949236 0.38307765 -0.31006503 -0.19676854 -0.093866125 -0.07344905 0.41800582 -0.058322106
-0.20207046 0.09528471 0.2971133 0.24080265 0.15613542 0.23726329 -0.010678806 0.05382952
-0.22939767 0.085014045 -0.00053975394 0.21134886 0.08835435 0.26002562 0.41024956 0.29127765
0.15888712 0.22855566 0.22905304 0.22599082 0.15389597 0.31527692 0.14992356 0.30715057
0.21398187 0.33396488 0.21606393 0.43618873 0.3907817 0.21849813 0.32043388 0.39044896
00000000: ea4e d83e be10 c13d a5fa cb3e 627f 003e
00000010: 5b94 8a3e 334e 5b3e cdf8 d03e 1d8b 013f
00000020: 9a49 9a3e 7178 e63e 7169 a83e 1078 8b3e
00000030: bf5c c43e f1a8 ac3e de6a b33e 5bdd f23e
00000040: 5fff 813e 7a7f fb3e 2baa 923e afe0 b13e
00000050: b661 b1bd 0d45 8bbe 7520 a9bd 17a8 a7bd
00000060: 02cf 05be e0e8 103d de77 583e 63ae 393c
00000070: f261 42be 2496 833e d302 9dbb c107 d93d
00000080: a466 cabd ff6f 893e 70e1 86bd f763 423d
00000090: 168d 843d c7fe c03b e3b5 3d3e cb68 6cbe
000000a0: 620f b83e c122 c43e d8c0 9ebe b17d 49be
000000b0: e23c c0bd 756c 96bd dc04 d63e 29e3 6ebd
000000c0: 8feb 4ebe a124 c33d 3c1f 983e f894 763e
000000d0: f7e1 1f3e 26f5 723e 29f6 2ebc 587c 5c3d
000000e0: 39e7 6abe d81b ae3d 467e 0dba d66b 583e
000000f0: 20f3 b43d 1422 853e 3b0c d23e 5822 953e
00000100: 4eb3 223e 7f0a 6a3e e18c 6a3e 236a 673e
00000110: e896 1d3e fa6b a13e 9085 193e d742 9d3e
00000120: 101e 5b3e 72fd aa3e dd3f 5d3e 2154 df3e
00000130: 8a14 c83e f9bd 5f3e e90f a43e ede8 c73e

lstm.bias_hh_l0 f4 [80]
0.40126947 0.32562572 0.09517761 -0.060466975 0.3405696 0.12553304 0.18742765 0.3869361
-0.080933936 0.47489595 0.124611676 0.16029078 0.22500755 0.5033679 0.32222307 0.57606643
0.1459061 0.3525823 0.21620226 0.15832365 -0.13607994 -0.08728938 -0.07813713 0.13158774
0.12676176 -0.11271481 -0.034521483 -0.22874975 0.12743358 0.006908048 0.23701893 -0.091068015
-0.19464108 0.031585176 -0.10647393 -0.109615564 0.20229654 -0.18084462 0.13398856 0.03313187
0.3052341 0.2888464 -0.035198543 -0.34865943 -0.21463321 -0.18977863 0.08867829 -0.2484212
-0.35374245 0.13791591 0.12997791 0.10727662 0.14115138 0.43434566 0.19056717 0.30274293
0.048989058 0.19649947 -0.031764884 0.3494013 0.21437855 0.42137724 0.23557533 0.3118833
0.33858505 0.30147883 0.1189451 0.15140535 0.22350696 0.18728855 0.1881088 0.4474715
0.24080803 0.44812948 0.29559904 0.36681312 0.52022433 0.4289857 0.14000756 0.14320917
00000000: 3173 cd3e 6ab8 a63e 7bec c23d 38ac 77bd
00000010: 235f ae3e bc8b 003e 09ed 3f3e 7d1c c63e
00000020: b1c0 a5bd 9025 f33e 6834 ff3d 4423 243e
00000030: 6168 663e b8dc 003f 6cfa a43e 1779 133f
00000040: 6968 153e ab85 b43e 2064 5d3e 981f 223e
00000050: 8a58 0bbe c6c4 b2bd 5c06 a0bd f0be 063e
00000060: d6cd 013e 06d7 e6bd 6666 0dbd 603d 6abe
00000070: f37d 023e e85c e23b 17b5 723e de81 babd
00000080: fe4f 47be 755f 013d 010f dabd 207e e0bd
00000090: d326 4f3e 552f 39be 4c34 093e 49b5 073d
000000a0: a547 9c3e ade3 933e 592c 10bd 7d83 b2be
000000b0: cfc8 5bbe 5455 42be f79c b53d 2162 7ebe
000000c0: bb1d b5be d439 0d3e ee18 053e d8b3 db3d
000000d0: fd89 103e 8e62 de3e 0a24 433e 1f01 9b3e
000000e0: c0a8 483d 2837 493e e51b 02bd bae4 b23e
000000f0: 0d86 5b3e c2be d73e a93a 713e 2baf 9f3e
00000100: 055b ad3e 6f5b 9a3e 7d99 f33d 010a 1b3e
00000110: 02df 643e 92c8 3f3e 989f 403e fc1a e53e
00000120: 6196 763e 3a71 e53e c258 973e eece bb3e
00000130: 6c2d 053f 03a4 db3e 245e 0f3e 6da5 123e

linear.weight f4 [1, 20]
0.4255721 0.35545576 -0.39396966 -0.24777977 -0.31911027 -0.38651156 0.378351 -0.3424162
-0.2827828 0.30000985 0.29152507 0.36343825 0.40995127 0.341021 0.35666236 0.27329308
-0.37706256 0.31710452 -0.3687137 0.3490169
00000000: 96e4 d93e 4cfe b53e 64b6 c9be fbb9 7dbe
00000010: 6c62 a3be d8e4 c5be 39b7 c13e 2d51 afbe
00000020: e8c8 90be e49a 993e c642 953e 9414 ba3e
00000030: 22e5 d13e 4e9a ae3e 739c b63e 12ed 8b3e
00000040: 580e c1be 865b a23e 0bc8 bcbe 58b2 b23e
