m1/time_series_pattern_recognition/src_final/parameters/NN/model_2_200.pth (torch, 2327 bytes, 5 tensors)

lstm.weight_ih_l0 f4 [12, 1]
0	0x3efdd6a4	0.4957782
1	0x3f2c7cf5	0.6737817
2	0x3f691417	0.9104628
3	0x3deb23f8	0.1148147
4	0x3e55b082	0.20868114
5	0x3da2dd0d	0.07952318
6	0x3ef73376	0.4828145
7	0x3e9cb072	0.30603367
8	0xbf004f88	-0.50121355
9	0x3f358d9b	0.709192
10	0x3ef2b110	0.47400713
11	0x3f8ce887	1.1008462

lstm.weight_hh_l0 f4 [12, 3]
0	0x3e660327	0.2246214
1	0x3ffa3f38	1.9550543
2	0x3f37f3ee	0.7185658
3	0x3f0f3e5f	0.55954546
4	0xbf395961	-0.72402006
5	0xbf24cf5a	-0.64378893
6	0x3f6623cd	0.8989838
7	0x3fa3024f	1.273508
8	0x3f1dae2d	0.61593896
9	0xbe8510b9	-0.2598932
10	0xbe2b365c	-0.16719955
11	0x3eb16a29	0.34651306
12	0x3f4d53ef	0.802062
13	0x3f0fccb2	0.56171715
14	0xbf9bbe5f	-1.2167472
15	0x3f3bb7e9	0.733275
16	0x3e897765	0.26848903
17	0xbf2960c6	-0.6616329
18	0xbf977fec	-1.1835914
19	0xbf36ff79	-0.7148357
20	0x3f1a4974	0.6026833
21	0x3e5572a8	0.20844519
22	0xbf0c5242	-0.54813015
23	0xbe26db76	-0.16294655
24	0xbd3a9070	-0.045547903
25	0x3eca72c5	0.39540687
26	0xbf665f09	-0.8998876
27	0x3f547789	0.82994896
28	0x3f67ce62	0.9054929
29	0x3d9c11bc	0.0762057
30	0x3f5093e0	0.8147564
31	0x3ed82308	0.42214227
32	0xbf3282f7	-0.69731086
33	0x3f6e4bf1	0.9308463
34	0x3f963fec	1.1738257
35	0x3f08a915	0.53383

lstm.bias_ih_l0 f4 [12]
0	0x3ed56808	0.41680932
1	0x3be37d21	0.0069424068
2	0x3e21dbb8	0.15806472
3	0xbe084273	-0.13306598
4	0x3f055ad1	0.520917
5	0xbe77246c	-0.24134988
6	0xbef53681	-0.47893146
7	0x3eb28801	0.34869388
8	0x3fc82c21	1.5638467
9	0x3f0fe7fc	0.56213355
10	0x3f71f744	0.9451792
11	0x3ed4f4a1	0.41592887

lstm.bias_hh_l0 f4 [12]
0	0xbcecfe3e	-0.028929826
1	0x3dfa9b63	0.12236669
2	0x3ef2fdc6	0.4745924
3	0xbbda7f24	-0.0066679884
4	0x3d7f5532	0.062337108
5	0xbe80220b	-0.25025973
6	0xbf318c89	-0.69355065
7	0x3eb1390f	0.34613845
8	0x3fb06424	1.378056
9	0xbdaf4906	-0.0855885
10	0x3f51f442	0.8201333
11	0x3f1b4438	0.6065097

linear.weight f4 [1, 3]
0	0x4023f3e7	2.5617616
1	0x4026ec7e	2.6081843
2	0xbff1d04d	-1.8891693
