m1/time_series_pattern_recognition/src_final/parameters/NN/model_1_2800.pth (torch, 9367 bytes, 5 tensors)

lstm.weight_ih_l0 f4 [80, 1]
0	0x3d9fd912	0.07805075
1	0x3eaa9620	0.3331766
2	0x3e6a894a	0.22903934
3	0x3ec9c379	0.39406946
4	0x3e322d84	0.17400175
5	0x3e779014	0.24176055
6	0x3e275cb8	0.16343963
7	0x3e3fd451	0.18733336
8	0x3ecb56b3	0.39714584
9	0x3edad253	0.4273859
10	0x3eef4236	0.46730202
11	0x3e104a77	0.14090906
12	0x3e9c50d4	0.30530417
13	0x3e80f8dd	0.25189868
14	0x3ec29133	0.38001403
15	0x3ed965cc	0.42460477
16	0x3edcca87	0.43123266
17	0x3e7dc766	0.24783096
18	0x3e948891	0.29010442
19	0x3f0944d1	0.5362063
20	0xbd53952c	-0.051655933
21	0xbe07bc7a	-0.13255492
22	0xbe0ffa0b	-0.14060228
23	0x3dc008e8	0.09376699
24	0xbd9520a4	-0.07281616
25	0xbe4fe114	-0.20300704
26	0xbe403784	-0.18771178
27	0xbe411e8f	-0.18859313
28	0xbdd4550e	-0.103677854
29	0x3e7dcddf	0.24785565
30	0x3e6fa94b	0.23404424
31	0xbe1b8cd4	-0.1519044
32	0x3e17c945	0.14822872
33	0xbdb45ec0	-0.08807135
34	0xbe3d8386	-0.18507203
35	0x3e6dc13c	0.23218244
36	0xbe42bf38	-0.19018257
37	0xbe0365e9	-0.12831844
38	0xbdd4687d	-0.10371492
39	0xbe4c2125	-0.19934519
40	0x3e9a385f	0.30121133
41	0x3ecb4991	0.39704564
42	0xbec53b34	-0.3852173
43	0xbe58b3bb	-0.21162312
44	0xbe961578	-0.29313254
45	0xbe989c57	-0.29806778
46	0x3eba4b55	0.363856
47	0xbe74dc84	-0.23912245
48	0xbe5e97cc	-0.21737593
49	0x3ebd97c9	0.37029865
50	0x3ea710f4	0.32630122
51	0x3e7108db	0.23538534
52	0x3e9524a7	0.29129526
53	0x3ec6c527	0.3882229
54	0x3e8b5f42	0.27221113
55	0x3efb0289	0.49025372
56	0xbe935686	-0.2877695
57	0x3ead5f86	0.3386194
58	0xbead3898	-0.3383224
59	0x3e686a2e	0.22696754
60	0x3ea84fb8	0.3287332
61	0x3e9c4a3e	0.30525392
62	0x3db0501a	0.08609028
63	0x3e9b2661	0.30302718
64	0x3ee2d009	0.44299343
65	0x3ed571b0	0.416883
66	0x3e70b69c	0.2350716
67	0x3ea2eabd	0.31819716
68	0x3e433fbe	0.19067284
69	0x3e757f88	0.2397443
70	0x3e7e8a10	0.24857354
71	0x3ea1f5c5	0.3163282
72	0x3e63a794	0.22231895
73	0x3df8fb99	0.121573634
74	0x3eca80d9	0.39551428
75	0x3e5ede9d	0.21764608
76	0x3ee88fbe	0.45422167
77	0x3ee91742	0.45525557
78	0x3e1a51e8	0.15070307
79	0x3e4f499e	0.20242926

lstm.weight_hh_l0 f4 [80, 20]
0	0x3dbf9ae6	0.093557164
1	0x3dd66e82	0.104702964
2	0x3e1dfb26	0.15427837
3	0x3e659265	0.22419126
4	0xbe407b9a	-0.1879715
5	0x3dea9ba9	0.11455471
6	0xbc774c11	-0.015093819
7	0x3e42d5ad	0.19026823
8	0x3ea10d62	0.31455523
9	0x3e0e1d20	0.13878298
10	0x3e3f1841	0.18661596
11	0x3e2fd48c	0.17170924
12	0x3df09eea	0.117490605
13	0x3e88225c	0.26588714
14	0x3deed7c9	0.116622515
15	0x3e8e266b	0.27763686
16	0xbd9e2e79	-0.07723708
17	0x3e149ee1	0.14513732
18	0x3d57ed6a	0.05271665
19	0xbdb763a1	-0.089545496
20	0x3ccac2db	0.024751117
21	0x3db99e26	0.090633675
22	0x3e477527	0.19478284
23	0xbdd2a2ee	-0.102849826
24	0x3de583af	0.11206757
25	0x3e60fb79	0.21970929
26	0xbe8c197d	-0.27363196
27	0x3e1869e3	0.14884143
28	0x3e478173	0.19482975
29	0xbe3af3d7	-0.1825708
30	0x3c833cf2	0.016020272
31	0xbde58d1f	-0.11208557
32	0xbea41759	-0.32049063
33	0xbda34f1b	-0.079740725
34	0xbdf8725c	-0.12131187
35	0x3d559bb0	0.05215043
36	0x3e0c4941	0.13699819
37	0xbdb615c9	-0.08890874
38	0x3e84e7f5	0.2595822
39	0xbe69a4e6	-0.2281681
40	0x3d83ef08	0.06442076
41	0xbc363502	-0.0111210365
42	0x3dcd4348	0.100225985
43	0x3ebc45ff	0.36772153
44	0x3e367877	0.17819391
45	0xbd353350	-0.04423839
46	0xbe4871b1	-0.1957462
47	0x3e69fd73	0.2285059
48	0x3ec814a1	0.3907824
49	0x3dabd903	0.08391001
50	0x3d99b92b	0.07506021
51	0xbdd90af4	-0.10597792
52	0xbe050f9f	-0.1299424
53	0x3c342650	0.010995463
54	0x3e2fa6b1	0.17153431
55	0x3cb05280	0.021523714
56	0x3e060865	0.1308914
57	0xbdbfa592	-0.09357752
58	0xbdddd872	-0.10832299
59	0xbe8365c5	-0.25663581
60	0x3e45f28d	0.19330807
61	0x3d93a1b5	0.072085775
62	0x3e57b70e	0.21065924
63	0x3d98a4da	0.07453318
64	0x3e0e5de5	0.13903005
65	0xbe3d2f70	-0.18475127
66	0xbdc6e086	-0.09710793
67	0xbde2801e	-0.11059593
68	0xbe8ad16d	-0.27112904
69	0x3da7261e	0.08161567
70	0x3c689458	0.014195524
71	0x3e5e9c88	0.217394
72	0xbd02f28e	-0.0319696
73	0xbe2be095	-0.1678489
74	0xbe24c095	-0.16089089
75	0x3cd22390	0.025651723
76	0xbdf9821b	-0.12183019
77	0x3dde60ab	0.10858282
78	0x3e2435b7	0.16036116
79	0x3e74db15	0.23911698
80	0x3cfe6b8d	0.031057144
81	0xbcd41a82	-0.025891546
82	0xbe9fd11e	-0.3121423
83	0x3e0ad0e5	0.1355625
84	0xbd92ef9b	-0.07174607
85	0xbe839fc9	-0.25707844
86	0xbd6ab608	-0.057302505
87	0xbe5647bf	-0.20925806
88	0x3ed1ae38	0.4095323
89	0x3e285628	0.16439116
90	0x3e7e0039	0.24804772
91	0x3e8cd2bf	0.27504537
92	0x3da2a57c	0.0794172
93	0x3ead5fc5	0.3386213
94	0x3ebbd4df	0.36685845
95	0x3de094b6	0.10965864
96	0x3e81fe70	0.25389433
97	0xbb2f97f2	-0.0026793447
98	0xbd53645d	-0.051609386
99	0xbed3f8cd	-0.41400757
100	0x3ce57847	0.028011454
101	0xbe0f4b9f	-0.13993691
102	0xbe2d4ce9	-0.1692387
103	0x3ebb4507	0.365761
104	0xbe26c356	-0.16285452
105	0x3d5f3202	0.05449105
106	0xbe056af5	-0.13029082
107	0xbe136345	-0.14393337
108	0x3aa22082	0.0012369307
109	0xbd4cad28	-0.049969822
110	0x3dedaf8b	0.11605748
111	0xbde83ef6	-0.11340134
112	0x3e0a43fd	0.13502498
113	0xbe17f455	-0.14839299
114	0xbd87bb39	-0.06627507
115	0x3df80ab4	0.121114165
116	0x3e9a78f1	0.30170396
117	0xbe005e48	-0.12535965
118	0x3d07c535	0.033147056
119	0xbe98be6a	-0.29832774
120	0x3e2ff97b	0.17185013
121	0x3e38143a	0.17976466
122	0x3d1bc41d	0.038028825
123	0xbc049ee5	-0.008094524
124	0x3dc16b3e	0.09444283
125	0xbe9f5fb7	-0.31127712
126	0x3ccf5ac7	0.02531184
127	0x3cf52735	0.029925922
128	0x3e92cb2f	0.28670642
129	0x3ea6cd2b	0.32578406
130	0x3db178a0	0.086655855
131	0x3e5c4141	0.21509267
132	0xbdc7fc15	-0.09764878
133	0x3d2abbec	0.041683123
134	0x3e321522	0.17390874
135	0x3e206e76	0.15667138
136	0x3ded2cbe	0.115807995
137	0x3e976c57	0.29574844
138	0xbe9e4258	-0.3090999
139	0xbebba832	-0.3665176
140	0x3de3dd28	0.111261666
141	0xbdce8230	-0.10083425
142	0xbc08bc37	-0.008345655
143	0x3ec4ca11	0.38435414
144	0xbe0dee04	-0.13860327
145	0x3d156ede	0.036482684
146	0xbca3849c	-0.019960694
147	0x3e5f3f53	0.218015
148	0x3eeae48b	0.4587749
149	0xbde7fbdd	-0.11327336
150	0x3e0d0fc2	0.13775542
151	0x3e38814d	0.18018074
152	0xbe1940c8	-0.14966118
153	0x3e13f57f	0.14449118
154	0xbd3b5e21	-0.045744065
155	0x3e2f9c50	0.17149472
156	0x3dddb0fb	0.10824772
157	0x3dd8f3c3	0.10593369
158	0xbd8f9344	-0.070105106
159	0xbeb3efe3	-0.35143957
160	0xbc90b082	-0.01766229
161	0xbe017484	-0.12642103
162	0xbe24ae1e	-0.16082045
163	0xbe2e5898	-0.17025983
164	0xbdbed677	-0.0931825
165	0x3c840c87	0.016119255
166	0x3e1276d8	0.14303148
167	0xbdb51ad5	-0.088430084
168	0xbd5fa73d	-0.05460285
169	0x3d8e1abc	0.06938693
170	0xbbfc4d66	-0.0076996563
171	0x3d9eb9fb	0.07750317
172	0x3d611021	0.054947022
173	0xbe240982	-0.16019252
174	0xbdcc9385	-0.099890746
175	0x3df7e428	0.12104064
176	0xbd30a09b	-0.043121915
177	0x3d99ead5	0.07515494
178	0xbdcde582	-0.10053541
179	0x3e19ed6d	0.15031977
180	0x3e8daf24	0.27672684
181	0x3ba38d01	0.004991174
182	0xbdf33434	-0.11875191
183	0x3e26cfe7	0.16290246
184	0x3e21ff00	0.15819931
185	0x3b5c316f	0.00335988
186	0xbd856296	-0.065129444
187	0x3d780935	0.060555656
188	0x3e9214d9	0.2853153
189	0xbc05895c	-0.008150425
190	0x3e9e145e	0.30874914
191	0xbc848f67	-0.01618166
192	0x3c852a80	0.016255617
193	0xbd08b43b	-0.033375006
194	0x3d99e86d	0.07515035
195	0x3cde7dc2	0.027159575
196	0xbe122715	-0.14272721
197	0xbc88d0f8	-0.016701207
198	0xbe17ce02	-0.1482468
199	0xbe116f64	-0.14202648
200	0x3e8dae42	0.2767201
201	0x3d305f37	0.043059554
202	0x3d0e5a51	0.0347541
203	0x3e6bee63	0.23040156
204	0xbb322af5	-0.002718625
205	0xbd24c46f	-0.040226396
206	0xbdf29da1	-0.118464716
207	0x3e5363e8	0.2064358
208	0x3e9e3a64	0.30903924
209	0x3e5d8668	0.21633303
210	0x3e401dde	0.18761393
211	0x3e87bdee	0.26512092
212	0xbc5e2d67	-0.013560629
213	0x3e0050a5	0.12530763
214	0x3e8ca1a1	0.27467063
215	0xbd04e351	-0.03244335
216	0xbc12cfff	-0.008960723
217	0x3e64263e	0.22280213
218	0xbe3d2d42	-0.18474296
219	0xbe2fbe19	-0.1716236
220	0x3e2ef79d	0.17086644
221	0x3e0a5e8e	0.13512632
222	0x3e3e6eb5	0.18596919
223	0x3daeaecd	0.08529434
224	0xbce4a2fd	-0.02790975
225	0xbe401703	-0.18758778
226	0x3e48df0a	0.19616333
227	0x3ddaf2b7	0.106908254
228	0x3eaf3b84	0.34225094
229	0xbdbcc770	-0.09217727
230	0xbd846c02	-0.06465913
231	0xbcfc1260	-0.03077048
232	0x3e441200	0.19147491
233	0x3ccdd45a	0.025125671
234	0x3e8fe34c	0.281031
235	0x3e875be7	0.26437303
236	0x3df83a8f	0.12120544
237	0xbde1c3a4	-0.110236436
238	0x3dfb57e6	0.12272625
239	0xbf2d4dea	-0.6769701
240	0x3e89ef6b	0.26940474
241	0x3e2d2564	0.16908795
242	0xbe6c2690	-0.23061585
243	0x3d9cfae8	0.07665044
244	0xbe02485f	-0.1272292
245	0xbe919936	-0.28437203
246	0xbd5d9487	-0.054096725
247	0x3d83d82c	0.06437716
248	0x3e2fcbe1	0.17167617
249	0xbdb31a72	-0.087452784
250	0x3dc30a29	0.09523422
251	0x3e2ae18b	0.166876
252	0xbc40abd4	-0.011759717
253	0xbd5cbad0	-0.053889096
254	0x3e1e046f	0.15431379
255	0xbd3cffc7	-0.046142366

lstm.bias_ih_l0 f4 [80]
0	0x3ed58cad	0.4170889
1	0x3dba39a8	0.09093028
2	0x3ed135ce	0.40861362
3	0x3e239890	0.15976167
4	0x3e8e09fd	0.27741995
5	0x3e4bf29d	0.19916768
6	0x3ed08093	0.40723094
7	0x3f024c07	0.5089726
8	0x3eabf2f1	0.33583787
9	0x3eebcf75	0.46056715
10	0x3eaf04fe	0.34183496
11	0x3e7d17bc	0.24716085
12	0x3ec05ef3	0.3757244
13	0x3eb4cefe	0.35314173
14	0x3eac8573	0.33695564
15	0x3efabad9	0.48970678
16	0x3e659c5c	0.22422928
17	0x3ef1a8b0	0.4719901
18	0x3e8de30f	0.27712294
19	0x3ea31dff	0.31858823
20	0xbdd10edd	-0.10207913
21	0xbe8a3ba3	-0.26998624
22	0xbda5a8a1	-0.08088804
23	0xbda91b6a	-0.08257182
24	0xbe21a7bf	-0.15786646
25	0x3c78baf3	0.015181291
26	0x3e4398a2	0.19101194
27	0x3c37b5d2	0.011212783
28	0xbe4f68e9	-0.20254864
29	0x3e73d0ed	0.23810168
30	0xbccbae62	-0.024863426
31	0x3dcb7035	0.09933511
32	0xbdcf2283	-0.101140045
33	0x3e7c88ec	0.24661607
34	0xbda3949a	-0.07987328
35	0x3d108720	0.035285115
36	0x3d946ec6	0.07247691
37	0xbc4f22ab	-0.012642543
38	0x3e291fe9	0.16516079
39	0xbe67792d	-0.22604819
40	0x3eb6f208	0.3573153
41	0x3ebd4e7e	0.36973947
42	0xbea2e610	-0.3181615
43	0xbe5fa497	-0.2184013
44	0xbdca002b	-0.09863313
45	0xbd8ec884	-0.06971839
46	0x3ed6e26e	0.41969627
47	0xbd76693e	-0.06015896
48	0xbe6807e1	-0.22659256
49	0x3dcfee0a	0.10152824
50	0x3e9bd862	0.30438524
51	0x3e68df4b	0.2274143
52	0x3e202f9a	0.15643159
53	0x3e7d11e1	0.24713852
54	0xbcb4e232	-0.022080515
55	0x3d80bbb6	0.06285803
56	0xbe6fdba1	-0.23423626
57	0x3dab40af	0.08361947
58	0xbc03771a	-0.0080240015
59	0x3e43126f	0.1905
60	0x3da27229	0.079319306
61	0x3e789c70	0.24278426
62	0x3ed84029	0.4223645
63	0x3ea1887a	0.31549436
64	0x3e11ec64	0.14250332
65	0x3e575ca9	0.21031441
66	0x3e596980	0.21231651
67	0x3e6a345d	0.22871538
68	0x3e336dab	0.17522304
69	0x3e9d92ff	0.30776212
70	0x3e170501	0.14748003
71	0x3e905c5b	0.28195462
72	0x3e5590f6	0.2085608
73	0x3eaafcb4	0.33395922
74	0x3e48b543	0.19600396
75	0x3ee05741	0.4381657
76	0x3eb234af	0.3480582
77	0x3e5692fe	0.2095451
78	0x3ea4bc11	0.32174733
79	0x3ec29cd9	0.3801029

lstm.bias_hh_l0 f4 [80]
0	0x3ecab0f4	0.3958813
1	0x3ea502a7	0.32228586
2	0x3dd7d90f	0.105394475
3	0xbcd68f33	-0.02619133
4	0x3eb1d4c5	0.34732643
5	0x3de26045	0.11053518
6	0x3e3efc69	0.18650974
7	0x3ec79e5d	0.3898801
8	0xbd3e367b	-0.046438675
9	0x3ef87c94	0.48532546
10	0x3e0cd161	0.13751747
11	0x3e0a4aa6	0.13505039
12	0x3e5e6cd5	0.21721204
13	0x3f04efc0	0.5192833
14	0x3e9e1501	0.308754
15	0x3f1767db	0.59142846
16	0x3dee0c39	0.11623425
17	0x3eaaaee0	0.33336544
18	0x3e53d5dd	0.20687051
19	0x3e049a1f	0.12949418
20	0xbe1b2f27	-0.15154706
21	0xbdae9ef0	-0.08526409
22	0xbd9c8e89	-0.07644374
23	0x3e06054e	0.13087961
24	0x3dcbea35	0.09956781
25	0xbe081a0a	-0.13291183
26	0xbd60e354	-0.054904297
27	0xbe6a5cda	-0.22886983
28	0x3deaee22	0.114712015
29	0xbc448758	-0.011995159
30	0x3e5e2761	0.2169471
31	0xbdc8196a	-0.09770472
32	0xbe49adf9	-0.19695272
33	0x3c200bb7	0.009768418
34	0xbdf6c22a	-0.120487526
35	0xbdf96c84	-0.12178901
36	0x3e5717a1	0.21005107
37	0xbe4c2961	-0.1993766
38	0x3de93caa	0.11388524
39	0x3d1b73e1	0.037952308
40	0x3e9b2a4b	0.30305704
41	0x3e8d0f6a	0.27550822
42	0xbd3155e7	-0.043294813
43	0xbebd96f0	-0.3702922
44	0xbe60aa73	-0.21940021
45	0xbe3e8367	-0.18604814
46	0x3db9134f	0.09036886
47	0xbe8021d7	-0.25025818
48	0xbec1abd4	-0.37826407
49	0x3e139e81	0.14415933
50	0x3e0c8b40	0.13724995
51	0x3dc04888	0.09388834
52	0x3e10d79f	0.14144753
53	0x3ee370ea	0.44422084
54	0x3e37772e	0.17916557
55	0x3e9fa095	0.31177202
56	0x3d34d704	0.044150367
57	0x3e47c99a	0.19510499
58	0xbd20c3b4	-0.039249137
59	0x3ea83805	0.3285524
60	0x3e52458e	0.20534346
61	0x3eceeae2	0.40413576
62	0x3e7da283	0.24769025
63	0x3eac154e	0.33610004
64	0x3ea4f78f	0.32220122
65	0x3e91048e	0.28323787
66	0x3dd152bc	0.102208585
67	0x3e1dd43b	0.15412991
68	0x3e7ab5c5	0.24483402
69	0x3e381697	0.17977367
70	0x3e3e1f09	0.18566526
71	0x3ed8347f	0.4222755
72	0x3e710948	0.23538697
73	0x3ee5707c	0.4481238
74	0x3e8d137a	0.27553922
75	0x3ebcd20d	0.36879006
76	0x3ef47afc	0.4775008
77	0x3ed70e74	0.42003214
78	0x3e10b67f	0.14132117
79	0x3e080d47	0.13286315

linear.weight f4 [1, 20]
0	0x3ed58cd7	0.41709015
1	0x3ea9da15	0.33174196
2	0xbecf55e3	-0.40495214
3	0xbe815b1f	-0.25264832
4	0xbea12dcb	-0.3148025
5	0xbebcc3e3	-0.368682
6	0x3ebcb159	0.36854056
7	0xbeb05a9d	-0.34444132
8	0xbe909986	-0.2824213
9	0x3e9a7967	0.30170748
10	0x3e965a3f	0.29365727
11	0x3eaad5eb	0.3336633
12	0x3ecca110	0.3996663
13	0x3eb2bad8	0.34908175
14	0x3eb0c11e	0.34522337
15	0x3e905aad	0.2819418
16	0xbeb1a2db	-0.3469456
17	0x3e9c0fc5	0.3048078
18	0xbebcc48b	-0.368687
19	0x3ea37354	0.31923926
