m1/time_series_pattern_recognition/src_final/parameters/NN/model_1_2900.pth (torch, 9367 bytes, 5 tensors)

lstm.weight_ih_l0 f4 [80, 1]
0	0x3d85e854	0.06538454
1	0x3eab9332	0.3351074
2	0x3e5e7b5e	0.21726748
3	0x3ec44778	0.38335776
4	0x3e220259	0.15821208
5	0x3e6ea46b	0.23304908
6	0x3e1b8c4c	0.15190238
7	0x3e3a119b	0.18170778
8	0x3ec1f38e	0.3788113
9	0x3ed64c07	0.4185488
10	0x3eecc81d	0.46246424
11	0x3e0ae610	0.13564324
12	0x3e9b9280	0.30385208
13	0x3e785ece	0.24254915
14	0x3ec14bfb	0.3775328
15	0x3ed72672	0.4202152
16	0x3ed3905e	0.4132108
17	0x3e86c026	0.26318473
18	0x3e9852d3	0.2975069
19	0x3f077b07	0.529221
20	0xbd452a1f	-0.048135873
21	0xbe04271d	-0.12905546
22	0xbe131e0e	-0.14366934
23	0x3dc4be49	0.096066065
24	0xbd969ded	-0.07354341
25	0xbe521c88	-0.20518696
26	0xbe3ec80c	-0.18631
27	0xbe4164ab	-0.18886058
28	0xbde1d925	-0.11027745
29	0x3e81d9eb	0.2536157
30	0x3e7beaba	0.2460126
31	0xbe17dbc9	-0.14829935
32	0x3e21ed64	0.15813214
33	0xbdbb4f81	-0.091460235
34	0xbe37776f	-0.17916654
35	0x3e7b2745	0.24526699
36	0xbe47d2f8	-0.19514072
37	0xbde99574	-0.11405459
38	0xbdc4f5d0	-0.096171975
39	0xbe48f157	-0.19623314
40	0x3e964454	0.29349005
41	0x3ecad1f6	0.39613312
42	0xbec0dedc	-0.37670028
43	0xbe50dd09	-0.20396818
44	0xbe91c2c2	-0.284689
45	0xbe95d37a	-0.29262906
46	0x3eb6d53b	0.35709557
47	0xbe6ffe34	-0.23436815
48	0xbe514cb4	-0.20439416
49	0x3ebabad1	0.36470655
50	0x3ea60712	0.3242727
51	0x3e6d6d34	0.23186189
52	0x3e97312f	0.29529712
53	0x3ec43595	0.3832213
54	0x3e8db148	0.27674317
55	0x3ef96ebb	0.48717293
56	0xbe913f9d	-0.28368846
57	0x3eadb6d2	0.33928543
58	0xbeac25b0	-0.33622503
59	0x3e62889e	0.22122428
60	0x3ea70bd0	0.326262
61	0x3e9bf728	0.30462003
62	0x3d8bd994	0.06828609
63	0x3e9741b9	0.2954233
64	0x3edf8f33	0.4366394
65	0x3ed1ff45	0.41015068
66	0x3e6baf9f	0.23016213
67	0x3e9fbd60	0.3119917
68	0x3e2f51f8	0.17121112
69	0x3e730a6c	0.23734444
70	0x3e814b80	0.25252914
71	0x3e9f2b68	0.31087804
72	0x3e695ebc	0.22790045
73	0x3de748a4	0.11293152
74	0x3ecb1a9b	0.39668736
75	0x3e64f1dc	0.22357887
76	0x3edea56b	0.4348558
77	0x3eec9aeb	0.46211943
78	0x3e1c0b0a	0.15238586
79	0x3e4d3130	0.20038295

lstm.weight_hh_l0 f4 [80, 20]
0	0x3dc8dfbf	0.09808301
1	0x3de32c41	0.11092425
2	0x3e17de07	0.1483079
3	0x3e5fbce6	0.21849403
4	0xbe46630e	-0.19373724
5	0x3ddf2ec6	0.10897593
6	0xbc1f032e	-0.009705348
7	0x3e3ccac6	0.18436727
8	0x3e9dedcb	0.30845484
9	0x3e13cf20	0.1443448
10	0x3e44321a	0.19159737
11	0x3e35be5b	0.17748396
12	0x3dfaa7ca	0.122390345
13	0x3e8afe03	0.2714692
14	0x3df72eda	0.12069483
15	0x3e90ca12	0.28279167
16	0xbdab80de	-0.08374189
17	0x3e1abd91	0.15111376
18	0x3d3f2031	0.04666156
19	0xbdaa33c4	-0.08310655
20	0x3cedabd5	0.0290126
21	0x3dc213a0	0.094763994
22	0x3e436f59	0.19085445
23	0xbdd8118b	-0.10550221
24	0x3dde0c1d	0.10842154
25	0x3e5d13b7	0.21589552
26	0xbe8a300e	-0.26989788
27	0x3e14ba1a	0.14524117
28	0x3e44e678	0.19228542
29	0xbe377cce	-0.17918703
30	0x3c9cb24c	0.019127987
31	0xbddeb027	-0.10873442
32	0xbea1ebfd	-0.31625357
33	0xbd9b1e94	-0.07574192
34	0xbdefe0ad	-0.117127754
35	0x3d62b7b6	0.05535098
36	0x3e083d68	0.13304675
37	0xbdaeaa89	-0.08528621
38	0x3e830e83	0.2559701
39	0xbe65f226	-0.22455654
40	0x3d7ab96c	0.06121199
41	0xbc6776fd	-0.01412749
42	0x3dd2b0de	0.10287641
43	0x3ebcdc15	0.3688666
44	0x3e39180d	0.18075581
45	0xbd29ab83	-0.041423332
46	0xbe4b4827	-0.19851743
47	0x3e6c9d00	0.23106766
48	0x3ec88f13	0.39171657
49	0x3da70718	0.0815565
50	0x3d9542e6	0.072881505
51	0xbdddf3f1	-0.10837544
52	0xbe0867d4	-0.13320857
53	0x3c07e3f2	0.0082940925
54	0x3e2c0ecc	0.1680252
55	0x3c9e264e	0.019305374
56	0x3e08c35b	0.13355772
57	0xbdc52514	-0.09626213
58	0xbdd89f73	-0.105772875
59	0xbe848ba3	-0.25887784
60	0x3e477e1d	0.19481702
61	0x3d976c1a	0.073936656
62	0x3e5609bc	0.20902151
63	0x3d95001a	0.0727541
64	0x3e0cb6bf	0.13741587
65	0xbe3ed492	-0.18635777
66	0xbdc38818	-0.09547442
67	0xbde5c4c8	-0.11219174
68	0xbe8bd347	-0.2730963
69	0x3daa74cc	0.083230585
70	0x3c805629	0.015666084
71	0x3e6034d0	0.21895146
72	0xbcf95df5	-0.03044031
73	0xbe2a3192	-0.16620472
74	0xbe234482	-0.15944102
75	0x3cde9b5f	0.027173696
76	0xbdfd3db6	-0.12365286
77	0x3de1d254	0.11026445
78	0x3e2284fa	0.15871039
79	0x3e76a898	0.24087751
80	0x3cfb818d	0.030701423
81	0xbcd4a0f1	-0.02595565
82	0xbe9ff55b	-0.3124188
83	0x3e09dfc0	0.1346426
84	0xbd929388	-0.071570456
85	0xbe838f5f	-0.2569532
86	0xbd6c0c1f	-0.057628747
87	0xbe56253c	-0.20912641
88	0x3ed11dc9	0.40843037
89	0x3e28696e	0.16446468
90	0x3e7dedf5	0.24797805
91	0x3e8cde77	0.27513477
92	0x3da22608	0.0791741
93	0x3ead6d6f	0.33872554
94	0x3ebb9337	0.36635754
95	0x3de0cf55	0.109770454
96	0x3e81f65e	0.25383276
97	0xbb371bdf	-0.0027940196
98	0xbd549da5	-0.051908154
99	0xbed3b08f	-0.4134564
100	0x3cd2784e	0.025692131
101	0xbe11d644	-0.14241892
102	0xbe2aea46	-0.1669093
103	0x3ebc8a2a	0.3682416
104	0xbe245771	-0.16048981
105	0x3d691745	0.056906957
106	0xbe07c818	-0.13259923
107	0xbe10cb2e	-0.14140007
108	0x3b7254a1	0.0036976712
109	0xbd5671bd	-0.052354563
110	0x3de898b9	0.113572545
111	0xbdecfb58	-0.115713775
112	0x3e07e457	0.13270698
113	0xbe1a4dc9	-0.15068735
114	0xbd8c0b46	-0.06838088
115	0x3df32982	0.11873151
116	0x3e9be091	0.30444768
117	0xbe02dcd0	-0.12779546
118	0x3d10a2c1	0.035311464
119	0xbe99ebc3	-0.30062684
120	0x3e33c9a2	0.17557386
121	0x3e3cac61	0.18425132
122	0x3d0b46c6	0.03400304
123	0xbc2d88f7	-0.010591737
124	0x3db96d8c	0.090540975
125	0xbea15d53	-0.31516513
126	0x3cef43cd	0.029207135
127	0x3cd57ded	0.026061023
128	0x3e919211	0.28431752
129	0x3ea888f5	0.3291699
130	0x3db75339	0.0895142
131	0x3e5ff6ab	0.2187144
132	0xbdc063ae	-0.093940124
133	0x3d3ade15	0.04562195
134	0x3e35c44d	0.17750664
135	0x3e2382d8	0.15967882
136	0x3de4a826	0.11164884
137	0x3e9965ae	0.29960388
138	0xbea0499e	-0.31306165
139	0xbeb99420	-0.36245823
140	0x3de5fa53	0.11229386
141	0xbdcd5f54	-0.10027948
142	0xbc0ed82d	-0.0087185325
143	0x3ec5babe	0.38619035
144	0xbe0e2ed8	-0.13885057
145	0x3d139c82	0.03603793
146	0xbc9f817b	-0.01947092
147	0x3e5f561a	0.21810189
148	0x3eebe36c	0.46071947
149	0xbde85ec7	-0.11346202
150	0x3e0c492c	0.13699788
151	0x3e387fb6	0.18017468
152	0xbe186ad5	-0.14884503
153	0x3e14865d	0.1450438
154	0xbd35c673	-0.04437871
155	0x3e2f130d	0.17097111
156	0x3dde4934	0.10853806
157	0x3dd907d3	0.105971955
158	0xbd9037c6	-0.07041888
159	0xbeb3f39d	-0.351468
160	0xbcb42fa8	-0.02199538
161	0xbe0679a9	-0.13132347
162	0xbe1fefde	-0.15618846
163	0xbe297197	-0.16547237
164	0xbdb5453b	-0.08851095
165	0x3caa17a1	0.02076322
166	0x3e0dc4e1	0.13844635
167	0xbdab59f6	-0.08366768
168	0xbd4ac50d	-0.04950433
169	0x3d847265	0.064671315
170	0xbc4860bb	-0.012230094
171	0x3d9570ea	0.07296927
172	0x3d4ed666	0.050497435
173	0xbe28c484	-0.16481215
174	0xbdd51d57	-0.10405987
175	0x3dee9bb8	0.11650795
176	0xbd1c807e	-0.038208477
177	0x3d900b55	0.070334114
178	0xbdc44d4d	-0.095850565
179	0x3e151600	0.14559174
180	0x3e90793a	0.2821749
181	0x3c3cafaf	0.011516496
182	0xbdffecdc	-0.12496349
183	0x3e213957	0.1574453
184	0x3e1b959b	0.15193789
185	0xbb3013d1	-0.002686728
186	0xbd71e94e	-0.059060387
187	0x3d5e26f0	0.054236352
188	0x3e8f3be5	0.27975383
189	0xbb1b6a4e	-0.0023714486
190	0x3ea0c699	0.31401518
191	0xbc271482	-0.010197761
192	0x3cb26e08	0.021780983
193	0xbcdfe124	-0.027329035
194	0x3da4561c	0.080242366
195	0x3d053358	0.03251967
196	0xbe18dcd7	-0.14927994
197	0xbc2bf8b1	-0.010496304
198	0xbe1e3d64	-0.15453106
199	0xbe0ad847	-0.13559066
200	0x3e9227ce	0.28545994
201	0x3d61cbdc	0.055126056
202	0x3cbeee8a	0.023307104
203	0x3e620bac	0.22074765
204	0xbc6e2c71	-0.014536963
205	0xbd526761	-0.05136812
206	0xbddc2307	-0.107488684
207	0x3e47185a	0.19442883
208	0x3e98cfaa	0.29845935
209	0x3e68acb1	0.22722127
210	0x3e49c042	0.19702247
211	0x3e8da2a5	0.2766315
212	0xbb8f2ff1	-0.0043697287
213	0x3e0b555e	0.13606784
214	0x3e90aced	0.28256932
215	0xbcbb112f	-0.022835342
216	0xbcaf3ead	-0.02139219
217	0x3e704582	0.23464015
218	0xbe495ecf	-0.19665073
219	0xbe231963	-0.15927653
220	0x3e3544ad	0.17701979
221	0x3e1174a8	0.14204657
222	0x3e373a23	0.17893271
223	0x3d9f0538	0.07764667
224	0xbd0d76b4	-0.034537032
225	0xbe46b240	-0.19403934
226	0x3e4f2b2f	0.20231317
227	0x3dccec4a	0.10006006
228	0x3eab5aa3	0.33467588
229	0xbdaf096e	-0.085467204
230	0xbd6cca74	-0.05781026
231	0xbcc5bff0	-0.024139374
232	0x3e4b1353	0.1983159
233	0x3d0218d9	0.031761978
234	0x3e92d97c	0.28681552
235	0x3e8ad69e	0.27116865
236	0x3de8fe11	0.11376584
237	0xbdd37b64	-0.10326269
238	0x3ded249b	0.115792476
239	0xbf2b72d6	-0.669721
240	0x3e8fe2d9	0.2810276
241	0x3e3a5551	0.18196608
242	0xbe791200	-0.24323273
243	0x3d875c54	0.06609407
244	0xbe0e4af2	-0.13895777
245	0xbe97c053	-0.2963892
246	0xbd2eda64	-0.042688742
247	0x3d56d561	0.052449588
248	0x3e24d0ad	0.16095228
249	0xbd9bf6f1	-0.0761546
250	0x3dd888f4	0.10572997
251	0x3e369577	0.17830454
252	0x3951f9e4	0.00020024885
253	0xbd2a7f8b	-0.04162554
254	0x3e291d80	0.1651516
255	0xbd10e10f	-0.035370883

lstm.bias_ih_l0 f4 [80]
0	0x3ecf158f	0.40446135
1	0x3dbe37d3	0.092879914
2	0x3ecb3308	0.3968737
3	0x3e18a8a2	0.14908078
4	0x3e85fa94	0.26167738
5	0x3e431045	0.19049175
6	0x3ecaa366	0.39577788
7	0x3f00dd6d	0.5033787
8	0x3ea295df	0.31754968
9	0x3ee74fe3	0.45178136
10	0x3eac8ec0	0.3370266
11	0x3e77c251	0.2419522
12	0x3ebfa44b	0.37430033
13	0x3eb00dc6	0.34385508
14	0x3eab4009	0.33447292
15	0x3ef8829e	0.48537153
16	0x3e5330ba	0.20624056
17	0x3ef985cf	0.487349
18	0x3e91b607	0.28459188
19	0x3e9f94cb	0.31168208
20	0xbdc9d1be	-0.09854458
21	0xbe8871a6	-0.26649207
22	0xbdabe09a	-0.08392449
23	0xbda47372	-0.08029832
24	0xbe22625d	-0.15857835
25	0x3c55454a	0.013017008
26	0x3e450089	0.19238485
27	0x3c32f43b	0.010922487
28	0xbe562980	-0.20914268
29	0x3e79a21b	0.24378245
30	0xbc538512	-0.012910144
31	0x3dd2e2d2	0.10297169
32	0xbdbae946	-0.091265246
33	0x3e79110b	0.24322908
34	0xbd979299	-0.07401008
35	0x3d45edd8	0.04832253
36	0x3d8a5236	0.06753962
37	0x3ad33e5d	0.0016116608
38	0x3e30ded8	0.17272508
39	0xbe643fbe	-0.2228994
40	0x3eb300a5	0.3496143
41	0x3ebcdcb6	0.3688714
42	0xbe9e8c00	-0.30966187
43	0xbe57d3ec	-0.21076936
44	0xbdb8c2c2	-0.09021522
45	0xbd83adb4	-0.064296156
46	0x3ed3731a	0.41298753
47	0xbd631b9f	-0.055446263
48	0xbe5ac5ea	-0.2136456
49	0x3dc48b53	0.095968865
50	0x3e9ad07d	0.3023719
51	0x3e654cd9	0.22392596
52	0x3e2448cb	0.16043393
53	0x3e77fbfd	0.2421722
54	0xbc9019e9	-0.01759048
55	0x3d74fd10	0.05981165
56	0xbe6bb341	-0.23017599
57	0x3dacaf12	0.084318295
58	0xbbc34a41	-0.0059597795
59	0x3e3d408a	0.18481651
60	0x3d9d7534	0.0768837
61	0x3e780255	0.2421964
62	0x3ecf25b5	0.40458456
63	0x3e9da3f4	0.3078915
64	0x3e0b756f	0.13619016
65	0x3e508117	0.20361744
66	0x3e546754	0.20742542
67	0x3e63e3fb	0.22254936
68	0x3e1f8f20	0.15581942
69	0x3e9c5439	0.30533007
70	0x3e1b162d	0.15145178
71	0x3e8d9947	0.27656004
72	0x3e5b4920	0.21414614
73	0x3ea69542	0.3253575
74	0x3e49e01e	0.197144
75	0x3ee3603a	0.44409353
76	0x3ea852f1	0.3287578
77	0x3e5da554	0.21645099
78	0x3ea5a2b5	0.32350698
79	0x3ec19a8f	0.3781323

lstm.bias_hh_l0 f4 [80]
0	0x3ec439d6	0.38325375
1	0x3ea60232	0.3242355
2	0x3dbfcdea	0.09365447
3	0xbd170750	-0.036872208
4	0x3ea9c55c	0.33158386
5	0x3dd09b94	0.10185924
6	0x3e334211	0.17505671
7	0x3ec4c12b	0.38428625
8	0xbd848f9b	-0.06472703
9	0x3ef3fd02	0.47653967
10	0x3e07e4e1	0.13270904
11	0x3e04f53b	0.12984173
12	0x3e5cf780	0.21578789
13	0x3f028f21	0.5099965
14	0x3e9ccf97	0.30627128
15	0x3f164bbf	0.5870933
16	0x3dc934eb	0.098245464
17	0x3eb28bff	0.34872434
18	0x3e5b7bcc	0.21433944
19	0x3dfb0f75	0.122588076
20	0xbe17909a	-0.14801255
21	0xbda776eb	-0.08176979
22	0xbda2c682	-0.079480186
23	0x3e085946	0.13315305
24	0x3dca74f8	0.09885591
25	0xbe0a5162	-0.13507608
26	0xbd5b43bf	-0.053531405
27	0xbe6aa8f3	-0.22916012
28	0x3ddd6cef	0.10811793
29	0xbbcee8b1	-0.00631436
30	0x3e6a64db	0.22890036
31	0xbdc0a6cd	-0.09406815
32	0xbe3f915a	-0.18707791
33	0x3bd11b1d	0.006381406
34	0xbdeac029	-0.11462433
35	0xbddeb92e	-0.10875164
36	0x3e520955	0.20511372
37	0xbe3d90bd	-0.18512245
38	0x3df8ba88	0.12144953
39	0x3d2859b9	0.04110119
40	0x3e9738e9	0.29535607
41	0x3e8c9da2	0.27464014
42	0xbd0e85a9	-0.034795437
43	0xbeb9ae9e	-0.36266035
44	0xbe580bc2	-0.21098235
45	0xbe38f600	-0.18062592
46	0x3dab55fe	0.08366011
47	0xbe7b7042	-0.24554542
48	0xbebb0ad4	-0.365317
49	0x3e0ded27	0.13859998
50	0x3e0a7b72	0.13523653
51	0x3db923a5	0.09040002
52	0x3e14f0d0	0.14544988
53	0x3ee0e5ed	0.4392542
54	0x3e3c1032	0.18365553
55	0x3e9e114d	0.30872574
56	0x3d457897	0.048210707
57	0x3e4880cd	0.19580384
58	0xbd184f3d	-0.037184943
59	0x3ea54f12	0.32286888
60	0x3e4fc70c	0.20290774
61	0x3ece9dd6	0.40354794
62	0x3e6b6d94	0.2299102
63	0x3ea830c8	0.32849717
64	0x3ea1bc14	0.31588805
65	0x3e8d96c8	0.276541
66	0x3dc74e6b	0.09731754
67	0x3e1783d9	0.1479639
68	0x3e66d73a	0.2254304
69	0x3e359905	0.17734154
70	0x3e423035	0.18963702
71	0x3ed5716b	0.41688094
72	0x3e76c172	0.24097231
73	0x3ee1090a	0.4395221
74	0x3e8da8e5	0.2766792
75	0x3ebfdb06	0.3747179
76	0x3eea993e	0.4582004
77	0x3eda979d	0.42693797
78	0x3e1283d2	0.14308098
79	0x3e0608b8	0.13089263

linear.weight f4 [1, 20]
0	0x3ecf45eb	0.4048303
1	0x3ea8c54d	0.3296303
2	0xbec65542	-0.38736922
3	0xbe806a45	-0.25081077
4	0xbe9a55bc	-0.30143535
5	0xbeb75e2f	-0.35814044
6	0x3eb89d40	0.36057472
7	0xbeadaec1	-0.3392239
8	0xbe8a88e4	-0.27057564
9	0x3e96c42b	0.2944654
10	0x3e96e6fb	0.294731
11	0x3ea804b5	0.3281609
12	0x3ecc58f1	0.39911607
13	0x3eadeb0c	0.3396839
14	0x3ead6c12	0.33871514
15	0x3e916ca9	0.28403214
16	0xbeaa9ace	-0.33321232
17	0x3ea0ad54	0.3138224
18	0xbebda1ba	-0.3703745
19	0x3ea4c4e5	0.3218147
