m1/time_series_pattern_recognition/src_final/parameters/NN/model_1_200.pth (torch, 2327 bytes, 5 tensors)

lstm.weight_ih_l0 f4 [12, 1]
000000 b7 36 cb 3e 5b f2 5a 3f 2d 32 1e 3f 21 fb 8e 3e
       0.39690182 0.85526055 0.6179531 0.2792597
000010 22 9c 7f bf 99 77 0d bf 57 ed 95 be c6 ce 0d be
       -0.99847615 -0.55260617 -0.29282638 -0.13848409
000020 76 f4 54 3e 55 73 0b 3f 57 27 d6 3e 6b 58 e1 3e
       0.2079638 0.5447286 0.4182689 0.4401277

lstm.weight_hh_l0 f4 [12, 3]
000000 ae 32 30 bf 9c 3d 36 3c 4e 6d a6 3e 9d 72 ab 3f
       -0.6882733 0.011123087 0.32505268 1.3394352
000010 be 4f 99 3f 9e 14 bf be 67 41 92 3f 85 e8 d1 3f
       1.197746 -0.37320417 1.1426209 1.6399084
000020 13 c2 dd be 8b 99 aa bd 2a 6b bc 3f 9e 1a 5a 3e
       -0.4331213 -0.08330067 1.4720204 0.21299216
000030 73 3f 49 3e cc a9 43 3f 1c b9 10 bf c7 2a 3e 3f
       0.1965311 0.76430964 -0.56532454 0.74284023
000040 2b 85 d8 3f ba 64 43 bf 8e 5d 48 be 66 e5 9e bf
       1.691564 -0.7632557 -0.19566938 -1.2413757
000050 7f b5 3c 3f d4 75 64 3f 87 8d 54 3f b0 e8 01 bf
       0.7371444 0.8924229 0.83028454 -0.5074568
000060 90 f2 01 bf 1a 8b 3b 3f e7 95 ac 3e 25 6b 6b be
       -0.50760746 0.7325913 0.33708116 -0.22990091
000070 fb 1c cb 3e de 76 22 bd 8f 51 cb be 3a 63 84 bf
       0.39670548 -0.03966414 -0.39710662 -1.0342782
000080 fc f1 31 3f cb c5 8b be 48 6f 05 bf 3d 58 d7 bc
       0.69509864 -0.27299342 -0.52122927 -0.026287192

lstm.bias_ih_l0 f4 [12]
000000 96 d2 f0 3e b0 30 1c bf ed 9b 82 3e 5c 70 42 3d
       0.47035664 -0.6101179 0.25509587 0.047470436
000010 ea 4a 00 bf d5 f2 55 bf 21 cd 6c bd d3 b6 7d bd
       -0.5011431 -0.8357366 -0.057812814 -0.061941933
000020 8e 93 33 3e 8e 68 b5 be 00 f3 a2 3d 09 cd ba 3e
       0.17536756 -0.3543133 0.07956505 0.36484554

lstm.bias_hh_l0 f4 [12]
000000 1c b5 12 3f 5c 3e 20 bf 77 8b c3 3e 5f ef 80 be
       0.573076 -0.6259515 0.3819234 -0.25182626
000010 c0 45 7d bf 7e a9 e2 be f9 76 a1 be 52 dc bb be
       -0.98934555 -0.44269937 -0.3153608 -0.3669153
000020 6f fc 36 3e 5c a3 ea 3d 48 44 a6 3e 95 e2 4b 3f
       0.17869733 0.114569396 0.3247397 0.7964261

linear.weight f4 [1, 3]
000000 50 93 00 c0 b7 ec 19 c0 c7 57 e3 3f
       -2.0089912 -2.405073 1.7761163
