m1/time_series_pattern_recognition/src_final/parameters/NN/model_1_1100.pth (torch, 9367 bytes, 5 tensors)

lstm.weight_ih_l0 f4 [80, 1]
000000 a7 e8 c0 3d 13 0b a1 3e ae 0d 77 3e 67 62 9b 3e
       0.09419375 0.3145376 0.24126312 0.30348513
000010 b0 52 35 3e bf cd 80 3e 0c f6 2c 3e b0 dc 62 3e
       0.17707324 0.25156972 0.16890734 0.22154498
000020 3c 77 ab 3e 72 43 d1 3e 9a 21 e6 3e 10 c8 2e 3e
       0.33489406 0.4087177 0.4494751 0.17068505
000030 21 55 aa 3e f1 bd 7b 3e 44 03 ce 3e 29 eb d1 3e
       0.33268073 0.24584176 0.40236866 0.40999725
000040 d2 23 00 3f e0 0d 93 3e 61 72 9e 3e c3 84 11 3f
       0.5005466 0.28721523 0.3094664 0.56843203
000050 fe 33 35 bd 7d 2c 15 be a0 40 02 be ac 36 b8 3d
       -0.044239037 -0.14567752 -0.12719965 0.08994803
000060 77 49 09 bd fb e6 3b be a2 44 30 be a3 f8 2f be
       -0.033517327 -0.18349831 -0.17213681 -0.17184691
000070 1a c9 d9 bd c6 e6 93 3e 2c ce 8d 3e 69 98 07 be
       -0.1063406 0.28887004 0.2769636 -0.13241734
000080 3d cc 1b 3e 1a 3b 98 bd 81 88 2a be 2f 17 94 3e
       0.1521463 -0.07433148 -0.16653635 0.28923938
000090 bb 7a 45 be 24 1f be bd 1f 1b 95 bd f0 ee 41 be
       -0.19285099 -0.09283283 -0.072805636 -0.18938804
0000a0 76 51 9e 3e 8b 89 cd 3e 40 da c4 be 5a 37 1d be
       0.30921525 0.40144 -0.38447762 -0.15353146
0000b0 f9 fd 95 be 66 4e 9a be 7a cd ba 3e 71 d5 80 be
       -0.29295328 -0.30137938 0.3648489 -0.25162843
0000c0 34 51 32 be f5 de b7 3e c4 fe a1 3e 0d f8 7d 3e
       -0.17413789 0.3591229 0.31639683 0.24801655
0000d0 21 00 97 3e 88 9d c4 3e c8 b3 92 3e 28 6f f6 3e
       0.29492286 0.38401437 0.28652787 0.4813168
0000e0 1c 0f 90 be 81 9c b2 3e 81 f2 ab be 01 fb 7e 3e
       -0.28136528 0.34885028 -0.33583453 0.24900438
0000f0 c0 3b ac 3e 66 2c 9b 3e d5 54 d1 3d 92 7c 69 3e
       0.33639336 0.3030731 0.102212586 0.22801426
000100 4b 3c f8 3e af e6 da 3e c2 8c 7b 3e 6e 76 b7 3e
       0.484835 0.42754123 0.24565414 0.35832542
000110 ce b3 00 3e a3 db 7d 3e 25 0f 83 3e 91 93 b2 3e
       0.1256859 0.24790816 0.25597492 0.3487821
000120 dc ad 7d 3e 97 05 fb 3d be c9 d9 3e 24 02 71 3e
       0.24773353 0.122569256 0.4253673 0.23535973
000130 4c cd 08 3f 80 ff f7 3e c3 96 25 3e 04 ef 6a 3e
       0.5343826 0.4843712 0.16170792 0.2294274

lstm.weight_hh_l0 f4 [80, 20]
000000 5e bb bf 3d 31 2c cc 3d a7 ff 1f 3e 7f eb 63 3e
       0.09361909 0.09969366 0.15624867 0.22257803
000010 ad 90 3b be e9 d2 f4 3d 5f c9 a4 bc 27 af 4a 3e
       -0.18316908 0.119542904 -0.020115552 0.19793378
000020 6b f2 a1 3e ae ef 0a 3e c4 c6 3e 3e 6f fb 29 3e
       0.31630263 0.13567993 0.1863051 0.1659982
000030 52 8c ee 3d a3 84 86 3e 76 89 e9 3d e7 0d 8e 3e
       0.11647858 0.2627307 0.11403172 0.27744982
000040 03 1b 8f bd 1e 3d 0e 3e 52 6b 6b 3d 7d a7 c8 bd
       -0.06987574 0.13890502 0.057475396 -0.09797571
000050 3a 40 03 3a f7 e3 86 3d 4a 32 5f 3e da b6 89 bd
       0.0005006824 0.065864496 0.21796528 -0.06724329
000060 e7 41 0b 3e 29 0f 7a 3e c7 cf 9a be 32 df 30 3e
       0.13599358 0.24419846 -0.30236647 0.17272642
000070 0e a6 6e 3e 72 47 57 be c4 4e 27 bc 52 d4 0b be
       0.23305532 -0.21023348 -0.01021165 -0.13655213
000080 2a e8 ae be b5 66 db bd b1 bf 17 be 44 8e ca 3c
       -0.34161502 -0.10712949 -0.14819218 0.02472604
000090 94 a2 23 3e 23 60 ed bd ef bb 92 3e 32 2f 83 be
       0.15979987 -0.11590602 0.28659007 -0.25621945
0000a0 71 5c 9c 3d 79 5c cb 3b f2 64 ac 3d 78 d5 ba 3e
       0.07634819 0.006206092 0.08417691 0.3649099
0000b0 c0 64 2b 3e 9a bb 5d bd 8a be 40 be 66 27 60 3e
       0.16737652 -0.05413399 -0.18822685 0.2189003
0000c0 c9 ed c6 3e 67 8b ba 3d df 5f a6 3d 46 32 c5 bd
       0.3885329 0.0910862 0.08123755 -0.096287295
0000d0 59 45 ed bd 41 a1 ad 3c a5 46 37 3e df 4f ed 3c
       -0.11585493 0.021195056 0.17898043 0.02896875
0000e0 65 2f e6 3d 33 39 ad bd ac 66 f1 bd b9 fc 7c be
       0.112395085 -0.084581755 -0.11787161 -0.24705781
0000f0 86 53 40 3e a1 15 87 3d b7 34 5e 3e 04 71 a2 3d
       0.18781862 0.06595922 0.21699797 0.07931712
000100 8a d5 14 3e 69 11 37 be 95 83 d2 bd 6c 34 d4 bd
       0.14534584 -0.17877735 -0.102790035 -0.10361561
000110 b4 9f 86 be 0a 12 9a 3d 10 fe 11 3c 43 dd 58 3e
       -0.2629372 0.07522972 0.008910671 0.21178155
000120 0b 49 18 bd 58 1b 32 be eb 8b 2a be 6e c9 a3 3c
       -0.037179034 -0.17393243 -0.16654937 0.01999351
000130 b2 2f ec bd 91 5e d0 3d 1b f0 2a 3e 07 e6 6d 3e
       -0.11532535 0.10174287 0.16693155 0.2323228
000140 e8 9f 33 3d fb e6 ec 3b 67 4a aa be 09 09 fe 3d
       0.04385367 0.0072296835 -0.3325989 0.12404067
000150 c2 f2 c5 bd 13 0e 8c be b2 89 20 bd e8 ef 6d be
       -0.09665443 -0.27354488 -0.039193816 -0.23236048
000160 79 a5 cb 3e 94 8d 36 3e 16 c4 84 3e 68 e1 97 3e
       0.39774683 0.17827445 0.25930852 0.2966416
000170 0e 37 be 3d 5c 6f b5 3e fc b3 c0 3e 31 24 fa 3d
       0.092878446 0.35436523 0.37637317 0.12213934
000180 bc e8 4e 3e c1 f4 83 3c d3 72 8e bd 78 ec bd be
       0.20205969 0.016107919 -0.06955495 -0.37094474
000190 c3 3c 11 3d a5 b4 08 be 5d 98 36 be 2a 5d b5 3e
       0.035458338 -0.1335016 -0.1783156 0.3542264
0001a0 56 b3 2f be d9 7e 3c 3d 43 93 fc bd c2 c7 19 be
       -0.17158255 0.04601941 -0.123327754 -0.15017608
0001b0 ee 63 19 bc 00 50 28 bd d6 33 01 3e ac c7 d5 bd
       -0.009362204 -0.04109192 0.1261743 -0.10438475
0001c0 56 92 11 3e 33 08 10 be cf 42 7c bd 98 a0 06 3e
       0.14215979 -0.14065628 -0.06158715 0.13147199
0001d0 87 12 96 3e ac fc f0 bd 3e 0f d5 3c 2d ef 95 be
       0.2931101 -0.11766943 0.026008245 -0.2928404
0001e0 36 1e 41 3e c6 29 4f 3e b4 ec 93 3c 59 55 8f bc
       0.18859181 0.20230779 0.018057205 -0.017496752
0001f0 48 3a a1 3d 8d 04 a8 be 8b f6 24 3d f3 0f 71 3c
       0.078724444 -0.32815972 0.040274184 0.014713275
000200 72 ec 8f 3e f3 87 ad 3e ca da cc 3d a1 51 6b 3e
       0.2811008 0.33892784 0.10002668 0.22980358
000210 c7 6b a1 bd 3a b7 6b 3d 10 96 3f 3e c6 21 2f 3e
       -0.07881885 0.057547785 0.18709588 0.17102727
000220 04 34 c4 3d f7 6e 9e 3e 20 8a a5 be 57 08 b6 be
       0.09580234 0.30944034 -0.32331944 -0.35553238
000230 99 fb 1a 3e 35 03 41 bd bb 06 5f bd f4 73 ab 3e
       0.1513504 -0.0471222 -0.054449778 0.33486903
000240 4a f5 40 be 12 54 f5 bb 81 0b d1 3c a1 e8 2c 3e
       -0.1884357 -0.0074868286 0.02551818 0.16885616
000250 e2 8a d0 3e 18 e6 91 bd 0a 3c 35 3e 1e 13 6b 3e
       0.4073096 -0.07123965 0.17698684 0.22956511
000260 7a a5 e7 bd e3 0d 41 3e c6 90 73 bc d0 61 58 3e
       -0.11310859 0.18852954 -0.01486606 0.21131063
000270 38 4c 33 3d 6a 72 1e 3e 58 6c ee bd dc d3 98 be
       0.04377386 0.15473333 -0.11641759 -0.29849136
000280 5e 5a b4 bc 29 56 05 be 37 f9 1f be b8 c4 2a be
       -0.022015747 -0.13021149 -0.15622412 -0.16676605
000290 ec 5c b4 bd a2 2e b0 3c 63 d0 0c 3e 3d fb a5 bd
       -0.08806786 0.021506611 0.13751368 -0.081045605
0002a0 2a 06 51 bd 8c 4f 82 3d 9b f2 55 bc 9c dc 94 3d
       -0.05103127 0.063628286 -0.01305833 0.072686404
0002b0 45 72 48 3d db 69 29 be 23 69 d9 bd 91 3d ee 3d
       0.0489371 -0.16544287 -0.10615756 0.116328366
0002c0 dc c8 1f bd 42 72 8e 3d e2 e0 c2 bd 1b 13 14 3e
       -0.039009914 0.06955387 -0.09515549 0.14460413
0002d0 47 d6 96 3e 07 75 20 3d 94 81 14 be c1 18 0f 3e
       0.29460356 0.039174106 -0.14502555 0.13974287
0002e0 85 3a 02 3e dd 5b b3 bc b2 5d 15 bd a6 76 f8 3c
       0.12717636 -0.02189439 -0.036466308 0.030330013
0002f0 a4 31 85 3e b1 80 87 3c 0c 07 a8 3e 0c bc 5d 3c
       0.26014435 0.016540857 0.32817876 0.013533603
000300 1c 1d 0b 3d c7 b1 22 bc 1d 00 b7 3d c8 28 45 3d
       0.033963308 -0.009930081 0.089355685 0.048134595
000310 90 c3 38 be 1d 98 3d 3c 06 29 35 be d9 6e db bd
       -0.18043351 0.011571911 -0.1769143 -0.10714502
000320 23 8e 94 3e 30 d4 97 3d 3e 08 28 3c 60 84 5d 3e
       0.29014692 0.074135184 0.010255871 0.21632528
000330 ae ec 1a bd 3e df 85 bd 1d 60 b9 bd 13 aa 2f 3e
       -0.03782337 -0.06536721 -0.09051535 0.17154722
000340 a4 19 95 3e bc af 74 3e 31 dc 50 3e 52 33 99 3e
       0.29121125 0.23895162 0.20396496 0.29921967
000350 e6 fd 14 b9 c6 a5 15 3e 19 0a 92 3e 11 62 82 bc
       -0.00014208964 0.14614019 0.2852333 -0.015915902
000360 e1 c4 4c bd ee cf 81 3e de 91 5a be 2a 04 06 be
       -0.049992446 0.2535395 -0.21344706 -0.13087526
000370 30 47 4e 3e d1 14 39 3e ae b0 17 3e 04 5d 66 3d
       0.20144343 0.18074347 0.14813492 0.05624105
000380 20 17 7c bd 0a 92 61 be e6 39 6e 3e 11 09 94 3d
       -0.06154549 -0.22028366 0.23264274 0.07228292
000390 54 39 a0 3e 8d 78 7d bd be d8 20 bd f4 ee ba 3b
       0.31293738 -0.061882544 -0.0392692 0.005704755
0003a0 90 ad 63 3e b6 7a 70 3d 52 aa 9c 3e 54 e9 95 3e
       0.22234178 0.058710776 0.30598694 0.29279578
0003b0 cf e9 8a 3d ec ea 9b bd 11 54 b8 3d 9c 3e 23 bf
       0.06782877 -0.07613167 0.090004094 -0.6376741
0003c0 51 75 85 3e ee b7 22 3e f5 54 65 be a6 5f af 3d
       0.26066068 0.15890476 -0.2239569 0.08563165
0003d0 8f 9c f7 bd df 3a 8d be 06 f8 82 bd 5c 40 93 3d
       -0.12090408 -0.27583978 -0.06394963 0.0719001
0003e0 c3 37 38 3e 1b 0e c4 bd ee 78 b4 3d 35 ab 23 3e
       0.17990021 -0.09573003 0.08812128 0.15983279
0003f0 99 e8 8e bc 70 fe 7f bd 2d e6 14 3e 90 4c 5b bd
       -0.017444896 -0.06249851 0.1454093 -0.053539813

lstm.bias_ih_l0 f4 [80]
000000 c5 c7 dd 3e 38 2d 94 3d ec 78 d7 3e 18 b4 8d 3d
       0.43316475 0.07235187 0.42084444 0.06919116
000010 ea a6 8f 3e 78 1f 56 3e 9d 58 d3 3e d6 1c 0b 3f
       0.28057033 0.20910442 0.41278544 0.54340875
000020 57 39 8c 3e 63 4b e2 3e 50 e1 a5 3e d9 c7 8d 3e
       0.27387497 0.4419814 0.32398462 0.27691534
000030 9a 66 ce 3e 4f b2 b1 3e c3 11 b8 3e 13 42 f3 3e
       0.40312654 0.3470635 0.3595105 0.47511348
000040 b9 61 96 3e 91 01 03 3f 42 d3 97 3e 51 b8 b3 3e
       0.2937143 0.51174265 0.29653364 0.3510156
000050 95 49 c1 bd 1b ec 90 be a0 30 8a bd c6 c5 b0 bd
       -0.09437863 -0.28305134 -0.06747556 -0.08631472
000060 d3 8b f2 bd 1d fa 0e 3d 50 a2 53 3e 02 82 e5 3c
       -0.118430756 0.034906495 0.20667386 0.028016094
000070 00 f4 51 be 9d f3 8e 3e d3 0b 96 3c cf 37 f3 3d
       -0.20503235 0.27920237 0.018316185 0.11875879
000080 7f 2b c7 bd e3 56 85 3e e7 3c 7a bd 4e 08 be 3d
       -0.09725093 0.26042852 -0.061093237 0.09278928
000090 3c 44 8f 3d 7a 09 bd 3c 7d d0 48 3e c8 1f 5d be
       0.069954365 0.023075808 0.19610782 -0.21594155
0000a0 14 04 bb 3e 0b 8d bf 3e 4b 87 a2 be 0f 28 24 be
       0.3652655 0.37412295 -0.31743845 -0.16030906
0000b0 20 b5 c9 bd 77 82 95 bd 41 69 d7 3e 1f f5 94 bd
       -0.09849 -0.07300275 0.4207249 -0.07273316
0000c0 0b f0 3b be a9 22 b9 3d a4 c5 96 3e 24 ce 75 3e
       -0.18353288 0.09039814 0.29447663 0.24004418
0000d0 26 e8 23 3e 2b bf 78 3e c5 c2 f7 bb a6 d9 5c 3d
       0.16006526 0.24291675 -0.00756106 0.053918503
0000e0 c2 78 69 be 57 61 c0 3d db c9 b5 bb 78 c1 59 3e
       -0.22799972 0.09393566 -0.0055477447 0.21265209
0000f0 2a b8 b2 3d 40 62 76 3e 4b 81 e0 3e 37 65 76 3e
       0.08726533 0.24060917 0.43848643 0.24062048
000100 36 d9 3c 3e 4a 90 62 3e ea 67 64 3e 97 c4 89 3e
       0.18442234 0.22125354 0.22305265 0.269078
000110 82 95 e2 3d 8f d2 a1 3e 45 d8 1e 3e 85 f8 a0 3e
       0.110636726 0.31605956 0.15512188 0.31439605
000120 7a 9f 6f 3e 5b 86 ab 3e f0 a6 67 3e 64 a2 e9 3e
       0.23400679 0.33500943 0.22622275 0.45631707
000130 81 5d db 3e 64 b0 74 3e 48 66 aa 3e f2 a4 d0 3e
       0.42844775 0.23895413 0.3328116 0.40750843

lstm.bias_hh_l0 f4 [80]
000000 0c ec d2 3e 86 7f 9b 3e b0 e5 f0 3d bf 20 ef bd
       0.41195714 0.3037073 0.117625594 -0.11676168
000010 b2 71 b3 3e 06 ba f6 3d be ac 44 3e ee 3f d9 3e
       0.3504768 0.120472 0.19206521 0.42431587
000020 7d 01 de bd 82 f8 ee 3e e4 13 f5 3d d5 c2 28 3e
       -0.108401276 0.4667397 0.119666845 0.16480573
000030 16 7c 7a 3e 6c 61 03 3f 52 a1 a9 3e 71 ab 13 3f
       0.24461398 0.5132053 0.3313089 0.57683474
000040 1d 2d 3e 3e 6d 09 bf 3e 6a b6 67 3e d7 ce 25 3e
       0.18571897 0.3731188 0.22628179 0.16192184
000050 75 4c 13 be e3 60 c9 bd 87 16 81 bd 17 30 02 3e
       -0.14384635 -0.09832933 -0.06303125 0.12713657
000060 da 56 0e 3e 64 ce e7 bd be bc 20 bd 0b 28 59 be
       0.13900319 -0.11318663 -0.0392425 -0.21206681
000070 d4 d7 e5 3d eb 6d ee 3c 4c 2f 85 3e cd 51 a0 bd
       0.112228066 0.029105147 0.26012647 -0.07828102
000080 70 b2 45 be 0c 2c c1 3c fc 4b d0 bd c7 a7 83 bd
       -0.1930635 0.023580573 -0.10170743 -0.06428485
000090 6a 82 54 3e 19 96 27 be e6 4e 14 3e 43 d9 44 3d
       0.20752874 -0.16365851 0.14483222 0.04805876
0000a0 57 3c 9f 3e f8 4d 8f 3e d3 5f 2e bd aa d8 9f be
       0.31100723 0.27989173 -0.042571854 -0.3121999
0000b0 f0 84 60 be 4e e0 41 be 75 2e bb 3d e4 91 86 be
       -0.21925712 -0.18933222 0.0913972 -0.2628318
0000c0 ff 9f ab be e4 38 08 3e c1 65 02 3e 1e 26 da 3d
       -0.33520505 0.13302952 0.12734129 0.106518015
0000d0 2c 90 14 3e 94 47 e1 3e 60 55 46 3e d1 0c 9b 3e
       0.14508122 0.43999922 0.19368505 0.30283216
0000e0 68 62 4e 3d e6 59 52 3e 2b 9f 16 bd 98 8f b3 3e
       0.050386816 0.20542106 -0.03677289 0.3507049
0000f0 93 68 5a 3e cf cd cd 3e 65 12 87 3e 6f bf 85 3e
       0.21328954 0.40196082 0.2638122 0.26122615
000100 f2 6d ba 3e 60 9e 96 3e 9f 4f e7 3d 15 29 47 3e
       0.36412007 0.29417706 0.112944834 0.19449265
000110 dc 92 38 3e d0 95 40 3e 4d f2 45 3e aa d0 e8 3e
       0.18024772 0.18807149 0.19330712 0.45471698
000120 e3 8b 85 3e 23 fa e5 3e 5a 8c 9c 3e 32 1d c6 3e
       0.26083288 0.44917402 0.3057583 0.3869415
000130 e5 d1 0e 3f 3a 1d e6 3e f8 0a 1c 3e 86 1d 24 3e
       0.55789024 0.44944173 0.15238559 0.16026887

linear.weight f4 [1, 20]
000000 32 79 df 3e a5 0c ad 3e 0f 33 da be f9 d9 45 be
       0.43647152 0.3379871 -0.4261708 -0.19321431
000010 85 fe ab be 4d 2a c4 be 76 e3 c1 3e 52 56 c7 be
       -0.3359262 -0.38313523 0.3786885 -0.38933045
000020 ac 05 78 be 94 8e 97 3e c3 bd 97 3e 9f da be 3e
       -0.24220914 0.29600966 0.29636964 0.3727617
000030 35 3c e0 3e 9a d7 b1 3e 97 b6 bd 3e 71 48 94 3e
       0.43795934 0.34734803 0.37053367 0.28961518
000040 a4 15 d8 be ed d0 b0 3e cc 64 c3 be c6 19 bc 3e
       -0.4220401 0.34534398 -0.3816284 0.36738414
