m1/time_series_pattern_recognition/src_final/parameters/NN/model_1_900.pth (torch, 2327 bytes, 5 tensors)

lstm.weight_ih_l0 f4 [12, 1]
0	0x3ee91b15	0.45528474
1	0x3f684d42	0.90742886
2	0x3f1d772a	0.61509955
3	0x3e91a298	0.28444362
4	0xc01faeb8	-2.495039
5	0xbfdde4bc	-1.7335429
6	0xbeb85b34	-0.36007082
7	0xbe423d6d	-0.18968745
8	0x3ea0ff70	0.31444883
9	0x3f192281	0.59818274
10	0x3ec0dfdf	0.376708
11	0x3f169665	0.58823234

lstm.weight_hh_l0 f4 [12, 3]
0	0xbf29082c	-0.66028094
1	0xbdf1b1b3	-0.118014716
2	0x3eeca45c	0.46219146
3	0x3fe48049	1.785165
4	0x3fba18cb	1.4538816
5	0xbf1b5691	-0.60678965
6	0x3fbaf776	1.4606769
7	0x3fe6f058	1.8042097
8	0xbf1b1b38	-0.6058841
9	0x3e3e7153	0.18597917
10	0x3fce0f4a	1.6098416
11	0x3d86f811	0.06590284
12	0x3f90d9ec	1.1316504
13	0x3fcf0838	1.6174383
14	0xbfa64c31	-1.2992002
15	0x3ff28340	1.8946304
16	0x402ce2fb	2.7013538
17	0xbfd9064c	-1.6955047
18	0xbe9ae2cf	-0.30251166
19	0xbf9acae7	-1.2093171
20	0x3f347d56	0.7050375
21	0x3f277744	0.6541636
22	0x3f53694e	0.8258256
23	0xbf1811bd	-0.59402066
24	0xbecf98c0	-0.40546227
25	0x3f287653	0.6580555
26	0x3edc4a5c	0.43025482
27	0xbe08900f	-0.13336204
28	0x3ea43deb	0.3207849
29	0x3d31511b	0.04329024
30	0xbf172b96	-0.5905088
31	0xbfba3314	-1.4546838
32	0x3f96e8c9	1.178979
33	0xbe4e45ba	-0.20143786
34	0xbf204f5d	-0.626211
35	0x3db5d42f	0.088783614

lstm.bias_ih_l0 f4 [12]
0	0xbcd6af45	-0.026206622
1	0xbf99dd5f	-1.2020682
2	0xbdbf373e	-0.093367085
3	0xbe37dd5f	-0.1795554
4	0xbfdf8348	-1.7461939
5	0xc00ccd89	-2.2000449
6	0x3e6c30ff	0.23065566
7	0x3e45d10b	0.19318025
8	0xbeeb28a6	-0.4592945
9	0xbf5f5f59	-0.87254864
10	0xbebbad86	-0.36655825
11	0xbdb04e84	-0.08608726

lstm.bias_hh_l0 f4 [12]
0	0x3d9cb226	0.076511666
1	0xbf9be437	-1.2179021
2	0x3d090e02	0.033460625
3	0xbef52bb0	-0.47884893
4	0xc00f001b	-2.2343814
5	0xbfe74bff	-1.8070067
6	0xbcdc4ade	-0.026891168
7	0xbde4f431	-0.11179388
8	0xbee97432	-0.45596462
9	0xbeceacb1	-0.40366128
10	0xbdf89629	-0.12138016
11	0x3eb0e3ee	0.34548897

linear.weight f4 [1, 3]
0	0xc01d3adb	-2.4567173
1	0xc03fe174	-2.9981356
2	0x4016cf0c	2.3563871
