m1/time_series_pattern_recognition/src_final/parameters/NN/model_1_1000.pth (torch, 2327 bytes, 5 tensors)

lstm.weight_ih_l0 f4 [12, 1]
00000000: 0c89 e63e 2379 6a3f 3c2e 1e3f fbff 8e3e
00000010: d7fd 22c0 2c44 f2bf 8252 bebe 5fbc 43be
00000020: a778 a43e 1d52 1a3f 5eab b83e 3680 163f
0.45026433 0.9159109 0.617893 0.27929673 -2.5467432 -1.8927054 -0.37172323 -0.19114827
0.321233 0.60281545 0.36068243 0.58789384

lstm.weight_hh_l0 f4 [12, 3]
00000000: 2674 29bf 0cab 0cbe ed15 f63e a441 e93f
00000010: 920d be3f b556 23bf b2f4 bd3f 991d e93f
00000020: c538 1fbf 292b 5e3e 1c17 d13f 22ed 2f3d
00000030: 4ebb 913f 23a5 cf3f 2ff0 a6bf 8263 f73f
00000040: 3f9b 2e40 769f dcbf f704 9fbe bc33 9abf
00000050: 82f4 323f 983c 2a3f 66fc 5b3f be6f 20bf
00000060: 3610 ccbe da91 253f 9e49 e23e 2dd6 fdbd
00000070: d52d a23e 7ad3 413d 4f21 27bf 4063 c4bf
00000080: 3ceb a03f 1b5b 57be 38aa 26bf d939 e93d
-0.66192853 -0.13737124 0.48063603 1.8223157 1.4847891 -0.6380418 1.48403 1.8212157
-0.62196 0.21696152 1.6335177 0.042950757 1.1385286 1.6222271 -1.3042048 1.9327242
2.7282255 -1.7236164 -0.31058475 -1.2047038 0.6990434 0.6649871 0.85932004 -0.62670505
-0.39856118 0.64675677 0.4419679 -0.123943664 0.31675592 0.04732082 -0.652852 -1.5342789
1.2571788 -0.21030848 -0.65103483 0.11387987

lstm.bias_ih_l0 f4 [12]
00000000: 817a 39bd b662 9bbf 05d4 c9bd d9d8 42be
00000010: fd1b e1bf 36f0 10c0 e39c 6f3e 4127 403e
00000020: 7ba3 f2be 436f 64bf b9a7 c7be 1b0e dcbd
-0.045282844 -1.2139499 -0.09854893 -0.19028033 -1.7586666 -2.2646613 0.23399691 0.18764974
-0.4739035 -0.8923227 -0.3899515 -0.10744878

lstm.bias_hh_l0 f4 [12]
00000000: 7041 6b3d 9069 9dbf 85a8 e73c 6fa9 fabe
00000010: 78cc 0fc0 5f91 efbf c0ec c0bc e247 f0bd
00000020: 0aef f0be 95cc d8be a63f 14be 34f4 a53e
0.057435453 -1.229784 0.028278599 -0.48957393 -2.2468548 -1.8716239 -0.023550391 -0.117324606
-0.47057372 -0.42343584 -0.14477405 0.32412875

linear.weight f4 [1, 3]
00000000: 6322 1dc0 cca8 40c0 9a27 1740
-2.4552238 -3.0103025 2.361792
