m1/time_series_pattern_recognition/src_final/parameters/NN/model_1_2500.pth (torch, 9367 bytes, 5 tensors)

lstm.weight_ih_l0 f4 [80, 1]
0.07161464 0.34466952 0.21925315 0.38756776 0.17419988 0.24755578 0.16744542 0.17488787
0.37140808 0.4239644 0.46513113 0.14839636 0.3055963 0.24327125 0.38796604 0.4288278
0.43652624 0.24572477 0.30081636 0.5549175 -0.039083894 -0.12458904 -0.1450756 0.091101155
-0.059961837 -0.19370666 -0.16148624 -0.1943972 -0.12733069 0.24994984 0.23308042 -0.1585581
0.15567745 -0.07959629 -0.17528771 0.25063983 -0.20687535 -0.12893347 -0.08842493 -0.20105861
0.29669592 0.4100223 -0.37769604 -0.20853178 -0.29238105 -0.29855832 0.36304858 -0.23549828
-0.20460509 0.36839437 0.32454753 0.24021702 0.29226512 0.38289228 0.28189737 0.49225983
-0.27501908 0.33725128 -0.33343935 0.24067672 0.33343697 0.32454482 0.07368015 0.3001324
0.45195314 0.42428067 0.26057968 0.305511 0.16250032 0.24027467 0.24832648 0.32217848
0.22582398 0.11853569 0.40931928 0.23374249 0.47300288 0.45265242 0.15236466 0.21106672
00000000: b2aa 923d 8678 b03e e683 603e 486f c63e
00000010: 7461 323e 437f 7d3e d076 2b3e ce15 333e
00000020: 3329 be3e dd11 d93e ab25 ee3e 37f5 173e
00000030: 1e77 9c3e 191c 793e 7ca3 c63e 518f db3e
00000040: 5e80 df3e 469f 7b3e 9a04 9a3e 130f 0e3f
00000050: 6f16 20bd 8a28 ffbd b38e 14be 3e93 ba3d
00000060: 8b9a 75bd 0a5b 46be a65c 25be 0f10 47be
00000070: fa62 02be daf2 7f3e a2ac 6e3e 0e5d 22be
00000080: e969 1f3e 6103 a3bd 9f7e 33be dd53 803e
00000090: 22d7 53be 2307 04be 2118 b5bd 4fe2 4dbe
000000a0: 87e8 973e 71ee d13e 6061 c1be 5b89 55be
000000b0: f8b2 95be a3dc 98be 81e1 b93e 7626 71be
000000c0: ff83 51be 309e bc3e 182b a63e 73fb 753e
000000d0: c6a3 953e 750a c43e da54 903e 7b09 fc3e
000000e0: 4dcf 8cbe 33ac ac3e 90b8 aabe f573 763e
000000f0: 40b8 aa3e bd2a a63e 9ee5 963d f4aa 993e
00000100: 6766 e73e 513b d93e b36a 853e f06b 9c3e
00000110: 7c66 263e 900a 763e 4c49 7e3e 94f4 a43e
00000120: 673e 673e d7c2 f23d 4c92 d13e 315a 6f3e
00000130: 6f2d f23e 0fc2 e73e 7b05 1c3e e021 583e

lstm.weight_hh_l0 f4 [80, 20]
0.10176405 0.11683035 0.1431357 0.20928852 -0.20048086 0.103975154 -0.0040059513 0.17801155
0.29751915 0.15130626 0.1985101 0.1835413 0.12545055 0.27641073 0.12331667 0.28947145
-0.08820428 0.15704286 0.040446132 -0.07758221 0.028637573 0.095911205 0.18996485 -0.11185937
0.10705219 0.21477379 -0.26856592 0.14362851 0.18570586 -0.1769176 0.022199197 -0.107252486
-0.31640452 -0.075221874 -0.118069954 0.058529247 0.13240469 -0.08373214 0.25445172 -0.222908
0.056977857 -0.017833093 0.106370695 0.36948612 0.18355359 -0.038084444 -0.20147777 0.23419307
0.3919445 0.0794733 0.07112733 -0.111587554 -0.13770638 0.004622442 0.16392568 0.017657563
0.1389231 -0.099299505 -0.10307163 -0.26251042 0.18518755 0.06275144 0.21888235 0.07960288
0.14684266 -0.17669043 -0.10490936 -0.10267452 -0.26520455 0.07415359 0.00784519 0.20987993
-0.040228263 -0.17628565 -0.16857168 0.01927259 -0.111690335 0.1005297 0.16770208 0.23089987
0.035809923 -0.01651074 -0.3196238 0.12330794 -0.08079898 -0.26435214 -0.04947276 -0.21785152
0.39709884 0.17257585 0.2558623 0.2831727 0.08443578 0.34542423 0.37103418 0.11731579
0.24480684 0.005694416 -0.05992415 -0.4042283 0.033254962 -0.1325372 -0.17637298 0.35225725
-0.17082386 0.04722681 -0.123071 -0.15165241 -0.012836341 -0.04119869 0.12558186 -0.10587925
0.1404548 -0.14179486 -0.06222902 0.13071622 0.2956259 -0.11790845 0.0251364 -0.29072973
0.1955216 0.21444899 0.0077695455 -0.04617828 0.062162165 -0.3405926 0.056662634 -0.0025221903
0.24661647 0.35659394 0.11572271 0.24616677 -0.07433959 0.07045637 0.19505553 0.1864727
0.08348489 0.32710183 -0.34137833 -0.33280462 0.09572337 -0.11714847 0.0062913354 0.39455506
-0.12443643 0.051332165 -0.034817345 0.23176542 0.46748957 -0.12628779 0.12556623 0.16653784
-0.16534548 0.12966773 -0.061667632 0.15895268 0.124047734 0.09164306 -0.055981047 -0.36621535
-0.04738467 -0.15992424 -0.1298277 -0.14337839 -0.062306076 0.047624007 0.111533105 -0.057542898
-0.02692373 0.039317843 -0.035316415 0.047251422 0.024962703 -0.19168 -0.12914501 0.09271814
-0.009791318 0.04359548 -0.06942458 0.11880242 0.27292672 0.00063069985 -0.114918165 0.16332452
0.16183923 0.0071580405 -0.06883347 0.064263985 0.28534985 -0.010727344 0.3068671 -0.019795991
0.012483831 -0.037162144 0.07136961 0.025017722 -0.13772807 -0.020320002 -0.14467715 -0.14589982
0.2712619 0.035644032 0.041025423 0.23271321 0.003915378 -0.03383307 -0.12502165 0.2128955
0.31112564 0.21108164 0.18389548 0.2588867 -0.019013217 0.119137995 0.26961643 -0.036594994
-0.000903106 0.21631673 -0.17837119 -0.17867318 0.15448026 0.11826023 0.20117366 0.09521837
-0.01297912 -0.1723944 0.18097603 0.121459134 0.3511323 -0.105329506 -0.07683396 -0.04467047
0.17481524 0.009744512 0.2648373 0.25190842 0.13830574 -0.12484569 0.1374416 -0.69213647
0.27335253 0.17385937 -0.23524351 0.070841596 -0.13230674 -0.28909093 -0.04971596 0.059757113
0.1657903 -0.082553566 0.100230195 0.17143525 -0.0071345656 -0.049413186 0.15779664 -0.041306444
00000000: ac69 d03d c044 ef3d 2a92 123e bb4f 563e
00000010: db4a 4dbe edf0 d43d 5b44 83bb a948 363e
00000020: 6e54 983e 07f0 1a3e 3b46 4b3e 40f2 3b3e
00000030: 1c76 003e b585 8d3e 738d fc3d 9a35 943e
00000040: 72a4 b4bd d8cf 203e d8aa 253d 6ce3 9ebd
00000050: 5899 ea3c 186d c43d 2586 423e 8616 e5bd
00000060: 2e3e db3d a9ed 5b3e 7981 89be 5a13 133e
00000070: ad29 3e3e e329 35be 17db b53c 31a7 dbbd
00000080: c6ff a1be ed0d 9abd a9ce f1bd 5dbc 6f3d
00000090: 1895 073e c27b abbd 7f47 823e ff41 64be
000000a0: 9d61 693d b516 92bc e1d8 d93d 492d bd3e
000000b0: 79f5 3b3e 6ffe 1bbd 3050 4ebe 4fd0 6f3e
000000c0: f3ac c83e e6c2 a23d 35ab 913d 0488 e4bd
000000d0: e702 0dbe db77 973b 22dc 273e 98a6 903c
000000e0: db41 0e3e 8a5d cbbd 3817 d3bd c467 86be
000000f0: cea1 3d3e d483 803d b222 603e d606 a33d
00000100: ec5d 163e 56ee 34be b8da d6bd 0547 d2bd
00000110: e4c8 87be d6dd 973d 1d89 003c c4ea 563e
00000120: 64c6 24bd 3a84 34be 0e9e 2cbe 8de1 9d3c
00000130: e7bd e4bd 84e2 cd3d 18ba 2b3e 0471 6c3e
00000140: 6dad 123d 8841 87bc bba5 a3be e088 fc3d
00000150: f079 a5bd 2a59 87be f3a3 4abd 7814 5fbe
00000160: 8a50 cb3e b9b7 303e 6200 833e 03fc 903e
00000170: abec ac3d 72db b03e 31f8 bd3e 4343 f03d
00000180: a5ae 7a3e 3998 ba3b 0773 75bd 03f7 cebe
00000190: 5b36 083d d5b7 07be 1e9b 34be 105b b43e
000001a0: 73ec 2ebe e670 413d a60c fcbd c54a 1bbe
000001b0: 844f 52bc f5bf 28bd 8898 003e 38d7 d8bd
000001c0: 62d3 0f3e ac32 11be dbe3 7ebd 79da 053e
000001d0: 475c 973e fc79 f1bd daea cd3c 87da 94be
000001e0: d036 483e 8498 5b3e ac97 fe3b 7025 3dbd
000001f0: c19d 7e3d 2762 aebe 1417 683d 554b 25bb
00000200: 0789 7c3e 7b93 b63e 0700 ed3d 2413 7c3e
00000210: 5b3f 98bd 6e4b 903d a3bc 473e b3f2 3e3e
00000220: 20fa aa3d e479 a73e 24c9 aebe 5e65 aabe
00000230: 9d0a c43d 89eb efbd 8c27 ce3b 1f03 ca3e
00000240: 87d8 febd ad41 523d a29c 0ebd ea53 6d3e
00000250: cb5a ef3e 9651 01be 6f94 003e e588 2a3e
00000260: 5350 29be 9ec7 043e 3397 7cbd 7ec4 223e
00000270: bd0c fe3d 5baf bb3d 624c 65bd 9480 bbbe
00000280: 6d16 42bd 2ec3 23be 8df1 04be c9d1 12be
00000290: a834 7fbd 6411 433d 786b e43d 1ab2 6bbd
000002a0: 278f dcbc bf0b 213d f2a7 10bd b58a 413d
000002b0: 957e cc3c c347 44be 973e 04be 02e3 bd3d
000002c0: c46b 20bc 2d91 323d 792e 8ebd af4e f33d
000002d0: 0dbd 8b3e 8d55 253a 375a ebbd 8b3e 273e
000002e0: 2fb9 253e ff8d ea3b 90f8 8cbd d69c 833d
000002f0: 6019 923e bec1 2fbc af1d 9d3e 342b a2bc
00000300: fb88 4c3c 5537 18bd 3b2a 923d f7f1 cc3c
00000310: 9608 0dbe 2276 a6bc 3f26 14be c366 15be
00000320: d7e2 8a3e 7aff 113d 460a 283d 5f4c 6e3e
00000330: 924c 803b 8c94 0abd ad05 00be 4701 5a3e
00000340: dc4b 9f3e c925 583e 194f 3c3e cc8c 843e
00000350: 9bc1 9bbc 9ffe f33d 2a0b 8a3e a2e4 15bd
00000360: 6bbe 6cba 2282 5d3e f0a6 36be 1af6 36be
00000370: 1330 1e3e 6b32 f23d 7800 4e3e d901 c33d
00000380: 60a6 54bc 2888 30be c851 393e 91bf f83d
00000390: 9dc7 b33e ffb6 d7bd 205b 9dbd 62f8 36bd
000003a0: c402 333e 72a7 1f3c c198 873e 24fa 803e
000003b0: 05a0 0d3e 19af ffbd 7ebd 0c3e db2f 31bf
000003c0: ddf4 8b3e 3108 323e ade3 70be 6615 913d
000003d0: 6b7b 07be ba03 94be f6a2 4bbd e0c3 743d
000003e0: efc4 293e d811 a9bd 7d45 cd3d b98c 2f3e
000003f0: 13c9 e9bb 7b65 4abd 7195 213e f230 29bd

lstm.bias_ih_l0 f4 [80]
0.4105782 0.1023953 0.39884055 0.1532085 0.2776532 0.20499237 0.41120648 0.496556
0.31009918 0.45720473 0.33964336 0.25463432 0.37600502 0.34450036 0.34493288 0.49392924
0.229426 0.46990982 0.28782004 0.337319 -0.08951389 -0.26203763 -0.08534864 -0.08511512
-0.14497653 0.024543589 0.21729396 0.0054400796 -0.22607802 0.24018589 -0.025768332 0.09267557
-0.093772285 0.25508177 -0.070045575 0.05384856 0.055883158 -0.013233005 0.18047187 -0.22764294
0.35275394 0.38270083 -0.31065 -0.21525913 -0.09789644 -0.070195965 0.4188651 -0.05652062
-0.21378715 0.099659115 0.30262268 0.232235 0.1573603 0.2417996 -0.012358267 0.06486145
-0.22158913 0.082251176 -0.003123176 0.20421433 0.08400367 0.26204175 0.4099653 0.31267837
0.15153393 0.21777879 0.2378688 0.2160602 0.14717165 0.30833727 0.1472755 0.28780237
0.21200489 0.3309291 0.20986423 0.45436892 0.36678746 0.20696746 0.32339486 0.3889134
00000000: 4e37 d23e a1b4 d13d d434 cc3e b0e2 1c3e
00000010: 8f28 8e3e 85e9 513e a889 d23e 973c fe3e
00000020: 52c5 9e3e bd16 ea3e bce5 ad3e 6e5f 823e
00000030: bb83 c03e 5a62 b03e 0b9b b03e 4be4 fc3e
00000040: a6ee 6a3e 0598 f03e 265d 933e 13b5 ac3e
00000050: 0f53 b7bd cc29 86be 45cb aebd d650 aebd
00000060: ba74 14be a30f c93c 4f82 5e3e b242 b23b
00000070: ff80 67be 4af3 753e 1c18 d3bc b0cc bd3d
00000080: af0b c0bd 149a 823e 0e74 8fbd 4f90 5c3d
00000090: bde5 643d 3fcf 58bc 9ecd 383e 3b1b 69be
000000a0: 2a9c b43e 5df1 c33e 840d 9fbe e46c 5cbe
000000b0: ee7d c8bd e7c2 8fbd 7d75 d63e 2a82 67bd
000000c0: 05eb 5abe 141a cc3d 5cf1 9a3e 03cf 6d3e
000000d0: 0f23 213e 509a 773e 547a 4abc 14d6 843d
000000e0: 43e8 62be 4e73 a83d 33ae 4cbb 901d 513e
000000f0: 1e0a ac3d 562a 863e f9e6 d13e 6117 a03e
00000100: b62b 1b3e 6701 5f3e e193 733e e33e 5d3e
00000110: 2ab4 163e 62de 9d3e 64cf 163e d55a 933e
00000120: cf17 593e 8a6f a93e a6e6 563e 0ba3 e83e
00000130: 91cb bb3e 47ef 533e 0394 a53e a81f c73e

lstm.bias_hh_l0 f4 [80]
0.3893706 0.33375075 0.09562163 -0.032744404 0.34755966 0.11635993 0.19048546 0.37746367
-0.07217748 0.48196304 0.13532566 0.14252414 0.21749264 0.51064205 0.31673124 0.5956507
0.121430755 0.33128518 0.21756747 0.14822535 -0.13898171 -0.07731535 -0.08090434 0.12833633
0.11245773 -0.12354951 -0.028622333 -0.23464252 0.091182694 -0.009911024 0.21604222 -0.10436427
-0.18958491 0.018234234 -0.11065982 -0.10322564 0.19345732 -0.19996716 0.12919627 0.036357537
0.29849568 0.28846958 -0.035783336 -0.36715 -0.21866347 -0.18652555 0.089537695 -0.2466198
-0.36545897 0.14229025 0.13548748 0.09870892 0.14237624 0.43888196 0.18888776 0.31377518
0.056797553 0.19373667 -0.034348305 0.34226662 0.21002792 0.42339322 0.2352908 0.33328402
0.33123183 0.29070216 0.12776095 0.14147474 0.21678263 0.18034887 0.18546075 0.42812327
0.23883104 0.4450937 0.28939915 0.38499328 0.49623007 0.4174545 0.14296854 0.14167371
00000000: 955b c73e 61e1 aa3e 46d5 c33d ff1e 06bd
00000010: 57f3 b13e 1d4e ee3d 9f0e 433e eb42 c13e
00000020: c9d1 93bd dcc3 f63e cf92 0a3e d9f1 113e
00000030: 64b6 5e3e 70b9 023f 992a a23e 907c 183f
00000040: b0b0 f83d 369e a93e 02ca 5e3e 63c8 173e
00000050: 3951 0ebe 8357 9ebd 2db1 a5bd 996a 033e
00000060: 3d50 e63d 8707 fdbd 6279 eabc 2146 70be
00000070: febd ba3d d961 22bc 2c3a 5d3e efbc d5bd
00000080: 8c22 42be f65f 953c 9ea1 e2bd f767 d3bd
00000090: ad19 463e 31c4 4cbe 074c 043e a4eb 143d
000000a0: 6dd4 983e 49b2 933e 8c91 12bd 16fb bbbe
000000b0: 51e9 5fbe 8e00 3fbe 8a5f b73d e789 7cbe
000000c0: 701d bbbe 89b4 113e 3bbd 0a3e e727 ca3d
000000d0: 14cb 113e 23b5 e03e cb6b 413e 24a7 a03e
000000e0: 8da4 683d e862 463e cfb0 0cbd 923d af3e
000000f0: 8f11 573e ffc6 d83e 12f0 703e 34a4 aa3e
00000100: 3897 a93e ead6 943e c4d3 023e c1de 103e
00000110: 44fc 5d3e 60ad 383e 6ce9 3d3e f932 db3e
00000120: 2090 743e 52e3 e33e 202c 943e d71d c53e
00000130: de11 fe3e 99bc d53e 5866 123e ea12 113e

linear.weight f4 [1, 20]
0.4131129 0.3533843 -0.3938712 -0.2614652 -0.3208388 -0.37473437 0.38413945 -0.33503932
-0.26824778 0.29846096 0.2940661 0.34504905 0.40171614 0.34293887 0.34934652 0.2941907
-0.35093197 0.30203965 -0.36883226 0.33747318
00000000: 8983 d33e c9ee b43e 7ca9 c9be c4de 85be
00000010: fc44 a4be 2fdd bfbe edad c43e 468a abbe
00000020: c657 89be e0cf 983e d58f 963e 45aa b03e
00000030: bdad cd3e af95 af3e 8cdd b23e 2aa0 963e
00000040: 5bad b3be f1a4 9a3e 95d7 bcbe 49c9 ac3e
