m1/time_series_pattern_recognition/src_final/parameters/NN/model_1_1600.pth (torch, 9367 bytes, 5 tensors)

lstm.weight_ih_l0 f4 [80, 1]
000000 05 db b3 3d 43 98 ac 3e 3d e1 63 3e bb 2e b6 3e
       0.08782009 0.33709916 0.2225389 0.35582528
000010 65 ef 32 3e 93 b6 80 3e 4e 09 30 3e 22 08 57 3e
       0.17474134 0.25139293 0.1719105 0.20999196
000020 6f 63 bb 3e d8 14 d9 3e 40 dd e9 3e dc 83 2f 3e
       0.365993 0.42398715 0.45676613 0.17140144
000030 16 3b a7 3e d0 ff 7c 3e 96 52 cd 3e 45 96 d5 3e
       0.32662266 0.2470696 0.4010207 0.4171621
000040 51 58 fa 3e ba 12 84 3e 26 cc 9a 3e cf 43 13 3f
       0.48895505 0.25795537 0.30233878 0.5752534
000050 16 2e 49 bd 62 c9 07 be e7 32 13 be d9 96 b8 3d
       -0.049116217 -0.13260415 -0.14374886 0.09013147
000060 88 6e 91 bd c1 ae 40 be f9 86 22 be 8d b2 40 be
       -0.0710116 -0.18816663 -0.158718 -0.18818112
000070 61 22 cf bd f6 59 8b 3e fa b9 76 3e 57 5d 17 be
       -0.10113979 0.27217072 0.24094382 -0.147817
000080 fd a9 12 3e 9a 93 93 bd 97 b3 28 be f9 b8 77 3e
       0.14322658 -0.07205887 -0.16474758 0.24191655
000090 11 ea 4c be 16 34 f3 bd 46 b1 b0 bd 4f 01 48 be
       -0.20011164 -0.11875169 -0.08627562 -0.19531749
0000a0 33 d8 9c 3e 93 b5 d3 3e 11 8c c1 be c4 76 3f be
       0.30633697 0.41349468 -0.37802175 -0.18697649
0000b0 2c 37 96 be 80 6d 9a be 06 06 bb 3e ac 5c 81 be
       -0.29338968 -0.30161667 0.36528033 -0.25266016
0000c0 6d 93 47 be 98 3a bc 3e 9a aa a3 3e 32 94 7f 3e
       -0.19489832 0.36763453 0.31966096 0.24958876
0000d0 2c d5 94 3e 6c d9 c4 3e e0 e0 93 3e 06 bd f8 3e
       0.29068887 0.3844713 0.28882504 0.48581713
0000e0 f2 e7 8d be 51 d3 af 3e 65 78 ac be 99 98 81 3e
       -0.27716023 0.3434091 -0.33685604 0.25311735
0000f0 74 42 a7 3e ef 3c a7 3e b6 fb b4 3d 63 50 8a 3e
       0.32667887 0.32663676 0.088370726 0.27014455
000100 12 88 e1 3e 76 a2 da 3e d1 4c 87 3e 4d 32 b1 3e
       0.44049126 0.42702073 0.26425794 0.3460869
000110 e0 fb 26 3e 90 83 83 3e 07 39 7e 3e fb 4d b2 3e
       0.1630702 0.25686312 0.24826442 0.3482512
000120 8a f6 71 3e f9 fc 00 3e ab e9 d9 3e cf 55 64 3e
       0.23629203 0.12596501 0.42561087 0.22298358
000130 6e 05 06 3f 0f da ee 3e cc fb 22 3e f3 5a 6f 3e
       0.52352035 0.4665074 0.15916365 0.23374538

lstm.weight_hh_l0 f4 [80, 20]
000000 6c 3a b6 3d 6a f0 ba 3d e6 01 27 3e 0f bc 68 3e
       0.08897862 0.091278866 0.16309318 0.22727989
000010 c4 1c 35 be 6a 38 01 3e 1f b8 dd bc a0 42 51 3e
       -0.17686754 0.12619177 -0.027065335 0.20435572
000020 62 ab a4 3e b9 0b 05 3e 0f 48 3a 3e 45 0a 23 3e
       0.32162005 0.12992753 0.1819155 0.15921886
000030 5c d5 e4 3d d4 64 83 3e fa f0 e0 3d bd bb 8b 3e
       0.111735076 0.25662863 0.10983463 0.2729167
000040 3f 3d 7c bd a0 e8 07 3e 27 57 82 3d e6 eb d5 bd
       -0.061581846 0.13272333 0.06364279 -0.10445385
000050 89 94 81 3c 73 ea a9 3d 0b 32 50 3e 32 34 ba bd
       0.015817897 0.08296671 0.2033159 -0.09091987
000060 e1 86 f8 3d a5 bc 69 3e 87 7a 91 be d2 e7 20 3e
       0.12135101 0.22825868 -0.28413793 0.15713432
000070 df ce 54 3e 90 4d 45 be 3b f1 e1 3b 23 8b f7 bd
       0.2078204 -0.19267869 0.006895212 -0.12087085
000080 d1 e9 a7 be b2 d9 b8 bd 7e 4c 07 be 74 e7 2b 3d
       -0.32795575 -0.09025897 -0.13212773 0.041968778
000090 18 ac 13 3e 2f 62 ca bd 8a 53 8a 3e 3a d9 73 be
       0.14421117 -0.09882008 0.2701686 -0.23813334
0000a0 4c c2 4c 3d 69 6d db bc 72 5c e9 3d be f0 c7 3e
       0.049989983 -0.02678557 0.11394586 0.3905086
0000b0 1b a0 46 3e 16 5a dd bc 0d 32 5b be 66 5f 7c 3e
       0.19397013 -0.027020495 -0.21405812 0.24645767
0000c0 3d 8a d5 3e 76 45 86 3d f3 b2 6b 3d e8 ea fb bd
       0.4170703 0.06556217 0.057543706 -0.12300664
0000d0 51 c0 12 be 4c eb d2 bb 36 e8 1c 3e f9 b7 6d 3b
       -0.14331175 -0.006436741 0.15322956 0.0036272986
0000e0 e0 47 15 3e 47 5c e5 bd 99 00 b8 bd 95 42 8c be
       0.145782 -0.11199241 -0.08984489 -0.27394548
0000f0 33 19 43 3e 42 9e 8f 3d 3e b1 5a 3e 76 59 9d 3d
       0.19052581 0.07012607 0.21356675 0.07683079
000100 9c e9 10 3e f0 6d 3a be a0 60 cc bd fe ac dc bd
       0.14151615 -0.18206 -0.09979367 -0.10775183
000110 ff e2 88 be 86 d7 a0 3d 2c 7d 42 3c d7 74 5c 3e
       -0.26735684 0.07853608 0.011870664 0.21528946
000120 0b 81 0d bd 1e 01 2f be 80 02 28 be 63 ea be 3c
       -0.034546893 -0.1709027 -0.16407204 0.023305124
000130 37 3d f6 bd e5 ba d8 3d 57 e9 26 3e 75 50 72 3e
       -0.120233946 0.10582522 0.1629995 0.23663504
000140 2a 2d fa 3c 3d 05 f5 bc 5c 5a 9f be 91 a2 11 3e
       0.030539114 -0.029909724 -0.31123626 0.1422217
000150 f1 73 8f bd 55 28 82 be 23 39 7d bd e5 4a 50 be
       -0.07004536 -0.25421396 -0.061822068 -0.2034107
000160 c3 05 d7 3e 80 0e 25 3e c3 62 7c 3e 39 3d 8b 3e
       0.41996583 0.16118813 0.2464705 0.27195147
000170 52 b6 a2 3d 81 33 ac 3e 57 d1 ba 3e 7e b0 dd 3d
       0.07944931 0.33633044 0.3648784 0.10824679
000180 a8 61 83 3e e6 44 dc bb b2 a6 3f bd 91 b5 d7 be
       0.25660443 -0.0067220805 -0.046789832 -0.42130712
000190 0d c7 0b 3d b4 b9 09 be a1 ae 34 be 88 0a b7 3e
       0.034125376 -0.13449746 -0.1764474 0.35750222
0001a0 37 9e 2d be d1 d3 45 3d cb 95 00 be 90 50 18 be
       -0.16954885 0.048297707 -0.12557141 -0.14874482
0001b0 5f 7a cf bb f6 b7 32 bd 01 0c fd 3d 5f ba d9 bd
       -0.0063317264 -0.04363247 0.12355805 -0.106312506
0001c0 0d e8 0f 3e 54 20 12 be 9c 28 81 bd 6c 41 04 3e
       0.14053364 -0.14270145 -0.06306574 0.12915581
0001d0 27 f0 96 3e a1 af f4 bd 57 37 e3 3c ba d4 96 be
       0.29480097 -0.11947561 0.027736349 -0.29459172
0001e0 b9 eb 4a 3e 2a ca 62 3e c4 78 a7 3b c2 62 18 bd
       0.19816484 0.22147432 0.005110832 -0.037203558
0001f0 8f fa 7c 3d 16 51 af be d5 ce 6b 3d e0 5e 80 bb
       0.06176239 -0.3424155 0.057570297 -0.00391756
000200 4b 19 84 3e 7c 66 b5 3e 1f df e6 3d 18 0e 7d 3e
       0.25800547 0.35429752 0.11273026 0.24712408
000210 48 39 8f bd 38 73 91 3d 5f c2 48 3e 94 2c 3c 3e
       -0.069933474 0.07102054 0.19605397 0.1837638
000220 7b 6b 9b 3d ca 73 a7 3e 5c 17 ae be c7 35 a9 be
       0.0758886 0.32705528 -0.34002197 -0.3304884
000230 bd 37 dd 3d a6 62 e0 bd a3 6c 3c bb 8f 65 c9 3e
       0.10801647 -0.10956316 -0.0028751276 0.39335296
000240 ee 50 08 be 85 8d 34 3d 7f 0a f2 bc 00 d6 67 3e
       -0.13312122 0.044080276 -0.02954602 0.22640228
000250 5f b0 ef 3e 2a 83 f8 bd f5 85 06 3e e7 fb 31 3e
       0.46814248 -0.121343926 0.13137038 0.1738125
000260 3e 96 1f be e1 20 0d 3e cf d9 5f bd fc a9 28 3e
       -0.15584657 0.13782074 -0.054651078 0.16471094
000270 51 99 e4 3d 25 0f ca 3d f7 8b 7c bd 25 8a b9 be
       0.11162055 0.0986617 -0.06165692 -0.36238208
000280 11 29 c3 bc ee 32 08 be ff c5 1e be 25 7a 2c be
       -0.023823293 -0.13300678 -0.15505217 -0.1684347
000290 57 8c b3 bd 37 36 b9 3c 9a 6b 0c 3e df d2 a4 bd
       -0.08767002 0.02260886 0.13712922 -0.08048033
0002a0 c0 fb 59 bd 60 3a 83 3d 1f ce 49 bc 59 8d 93 3d
       -0.053218603 0.064076185 -0.0123172095 0.07204694
0002b0 16 ea 3f 3d 42 7f 2a be fc 63 dc bd b3 3a ef 3d
       0.0468541 -0.16650108 -0.10761258 0.11681118
0002c0 9d b0 14 bd 0a 34 8e 3d 17 2c c2 bd d0 ed 13 3e
       -0.036301244 0.069435194 -0.09481066 0.14446187
0002d0 f7 55 92 3e 64 6f a6 3c 75 9b 06 be b1 0d 17 3e
       0.2858121 0.020316787 -0.1314524 0.14751317
0002e0 0f 88 12 3e bc 40 17 bc 75 6c 4f bd ca 6b 40 3d
       0.14309715 -0.0092317425 -0.050640542 0.046977796
0002f0 3a 2c 8a 3e 7b a9 b4 3b 2a 0a a4 3e 9c c5 ef ba
       0.26986867 0.0055133677 0.32039005 -0.0018293145
000300 4a bd cb 3c 22 f5 b0 bc 89 42 a8 3d fb 4e 22 3d
       0.024870533 -0.021601263 0.082158156 0.039626103
000310 87 8d 21 be 86 f7 36 bb 65 74 26 be 3f 06 02 be
       -0.15776645 -0.0027918532 -0.16255338 -0.12697695
000320 44 cd 8e 3e 82 fc 41 3d b6 ac f9 3c 79 42 6a 3e
       0.2789098 0.04735995 0.030477863 0.2287692
000330 4b 4b ff bb a2 f9 32 bd 97 74 ec bd 32 e5 4f 3e
       -0.007790958 -0.0436951 -0.11545675 0.20302275
000340 26 7d 9d 3e ec 72 60 3e fa 21 43 3e bd 55 8a 3e
       0.30759543 0.21918839 0.1905593 0.27018538
000350 27 03 3c bc 5d 5b 03 3e e1 11 8d 3e 84 99 f2 bc
       -0.011475361 0.12827821 0.27552703 -0.029614218
000360 e5 b9 83 bc df 92 67 3e 17 f8 3f be b2 a9 2c be
       -0.016079852 0.2261462 -0.18746983 -0.16861609
000370 8a 9f 2f 3e 5c 64 08 3e 91 c9 3d 3e 9c 37 b4 3d
       0.17150703 0.13319534 0.18533923 0.08799669
000380 ce 48 d5 bc 7c 9b 3d be 7b c2 46 3e 9d 74 e0 3d
       -0.026035693 -0.18516344 0.19410126 0.10959742
000390 1c 49 b1 3e 1b f3 c0 bd 21 60 88 bd 65 1c fe bc
       0.3462609 -0.09421369 -0.0665896 -0.031019399
0003a0 1e ed 43 3e 9f 6d be 3c e0 a0 8e 3e 37 46 87 3e
       0.19133422 0.02324563 0.27857113 0.26420757
0003b0 59 df f2 3d 03 33 e6 bd 87 63 00 3e 8e 03 2e bf
       0.118590064 -0.112401985 0.12537967 -0.67974174
0003c0 47 c3 81 3e d0 42 17 3e dd e6 59 be e4 aa bc 3d
       0.25344297 0.1477158 -0.21279474 0.09212282
0003d0 6e 87 e0 bd b5 38 88 be 87 0f 96 bd d9 73 a9 3d
       -0.10963331 -0.26605764 -0.0732718 0.08274049
0003e0 67 af 40 3e 0d e6 d6 bd 38 fa a4 3d c0 a8 18 3e
       0.1881691 -0.104930975 0.08055538 0.14908123
0003f0 1c 38 d4 bc 05 e7 92 bd 3a 25 0e 3e 2c 56 7c bd
       -0.025905661 -0.0717297 0.13881388 -0.061605617

lstm.bias_ih_l0 f4 [80]
000000 b6 83 da 3e 9c 01 c2 3d a4 d9 cd 3e d6 0a f9 3d
       0.42678612 0.09472963 0.4020511 0.1216027
000010 12 78 8e 3e ab dc 55 3e 9b e2 d4 3e b9 21 08 3f
       0.2782598 0.2088496 0.41579136 0.53176457
000020 44 17 9c 3e c5 1b ea 3e 58 9d a9 3e f3 29 8e 3e
       0.304865 0.4572431 0.33127856 0.2776638
000030 b6 48 cb 3e 40 53 b2 3e 2e 58 b7 3e 4e eb f6 3e
       0.39703912 0.3482914 0.35809463 0.48226398
000040 02 74 90 3e 8d fd f6 3e 66 20 94 3e 54 32 b7 3e
       0.28213507 0.4824032 0.28930968 0.35780585
000050 55 65 cb bd 83 4a 8a be 1d 2d ac bd 55 89 b0 bd
       -0.09931437 -0.27009973 -0.08407042 -0.08619944
000060 d5 b7 1f be e4 c6 f6 3c 1e 52 61 3e 3c e2 3e 3c
       -0.1559747 0.030124135 0.22003981 0.011650618
000070 46 97 4c be 7e 55 86 3e 5f 05 92 bc d1 bb d3 3d
       -0.19979581 0.262371 -0.017824827 0.103385575
000080 c2 85 d9 bd 95 76 86 3e db 30 73 bd e5 05 3a 3d
       -0.106212154 0.26262346 -0.059372764 0.045415778
000090 a2 26 80 3d 04 17 3b bb 85 f2 3a 3e bf 32 63 be
       0.062573686 -0.0028547654 0.18256576 -0.22187327
0000a0 a3 8a b9 3e c6 b1 c5 3e 25 32 9f be cf 74 46 be
       0.36238584 0.38612193 -0.31092945 -0.19380496
0000b0 f7 9d ca bd 5b fc 95 bd 47 a2 d7 3e d3 08 97 bd
       -0.09893411 -0.073235236 0.42115995 -0.0737473
0000c0 92 1b 51 be df 8f ca 3d a2 71 98 3e 52 6d 77 3e
       -0.20420673 0.098907225 0.29774195 0.24162796
0000d0 f6 87 1f 3e 4d 37 79 3e 49 ac ae bb bf 3f 6f 3d
       0.15579209 0.24337502 -0.0053305966 0.058410402
0000e0 39 10 65 be 82 2e b5 3d 1a f8 d6 bb d3 f2 5d 3e
       -0.2236947 0.08846761 -0.0065603377 0.21674661
0000f0 02 ac 9e 3d 48 31 87 3e 1a 69 d9 3e cb bd 90 3e
       0.07747652 0.26404786 0.42463 0.282698
000100 f5 75 0f 3e 32 df 61 3e 04 64 77 3e e9 73 83 3e
       0.14009841 0.22057799 0.24159247 0.2567437
000110 f4 81 17 3e 49 5b a6 3e a2 d5 16 3e 63 b8 a0 3e
       0.14795667 0.3249152 0.14729932 0.31390676
000120 4b d8 63 3e 38 3e ad 3e ed c6 67 3e fa 45 e3 3e
       0.22250478 0.33836532 0.22634478 0.44389325
000130 99 cc d5 3e 13 53 62 3e 75 10 a9 3e 8b d8 d2 3e
       0.41757658 0.22102003 0.33020368 0.41180834

lstm.bias_hh_l0 f4 [80]
000000 fd a7 cf 3e a4 f4 a6 3e 80 68 ca 3d 01 ca 83 bd
       0.40557852 0.3260852 0.09883213 -0.064350136
000010 da 42 b2 3e 64 34 f6 3d ad c0 47 3e a9 49 d3 3e
       0.3481663 0.120217115 0.19507094 0.41267136
000020 03 8a 9e bd e4 c8 f6 3e f8 01 02 3e 00 87 29 3e
       -0.077411674 0.48200142 0.12696064 0.16555405
000030 58 40 74 3e e5 b1 03 3f bc e7 a8 3e 0d 80 15 3f
       0.2385267 0.5144332 0.329893 0.58398515
000040 a7 51 32 3e be 03 b0 3e 99 50 60 3e f0 c2 2c 3e
       0.1741396 0.34377855 0.21905746 0.16871238
000050 58 5a 18 be a3 da ae bd 04 13 a3 bd 4f 4e 02 3e
       -0.14878213 -0.085377954 -0.07962611 0.12725185
000060 f6 c9 cf 3d b9 99 f1 bd db fa d3 bc 26 ea 69 be
       0.10145943 -0.117968984 -0.025876453 -0.22843227
000070 41 91 f0 3d 85 18 49 3c 81 5c 65 3e cd cd bf bd
       0.11746455 0.012273912 0.22398569 -0.09365425
000080 8e df 4e be 9c 27 d3 3c fc c5 cc bd 26 ad e4 bd
       -0.20202467 0.025775723 -0.099987 -0.11165838
000090 9b f3 4c 3e a2 23 42 be ee 70 06 3e 75 8d 2c 3d
       0.20014803 -0.18958905 0.13129017 0.04212709
0000a0 e6 c2 9d 3e b2 72 95 3e 8f b6 13 bd 10 ff b0 be
       0.30812758 0.29189068 -0.036062773 -0.34569597
0000b0 62 f9 60 be 42 1d 42 be b6 12 bc 3d d5 16 87 be
       -0.21970132 -0.18956473 0.09183256 -0.26384607
0000c0 c3 35 b6 be 84 ef 10 3e b9 bd 05 3e 83 64 dd 3d
       -0.35587892 0.14153868 0.13060655 0.10810187
0000d0 fc 2f 10 3e a7 83 e1 3e 0e 9e 48 3e 90 59 9d 3e
       0.14080805 0.44045755 0.19591543 0.30732393
0000e0 ab 04 60 3d 76 c0 4c 3e ec c4 1a bd 3a a8 b5 3e
       0.05469195 0.19995293 -0.037785456 0.3547991
0000f0 7f 62 50 3e f6 cd d9 3e 61 f4 7f 3e 9e 4a 9b 3e
       0.20350073 0.42539948 0.24995567 0.30330366
000100 52 bc a3 3e d0 45 96 3e e4 a3 06 3e b5 87 3a 3e
       0.31979614 0.29350138 0.13148457 0.1821583
000110 0e ca 5e 3e 2b a7 49 3e aa ef 3d 3e 88 90 e8 3e
       0.21756765 0.19692676 0.18548456 0.4542277
000120 97 50 7f 3e 00 b2 e7 3e 4c 9c 9c 3e c8 c0 bf 3e
       0.24933086 0.4525299 0.30587995 0.37451768
000130 72 09 0c 3f 8a ee dc 3e 46 5f 19 3e bd 84 28 3e
       0.5470191 0.4315074 0.1497775 0.16456886

linear.weight f4 [1, 20]
000000 2d ca da 3e ef ef b8 3e e2 0a d2 be 8d d8 6c be
       0.42732373 0.36120555 -0.41023928 -0.23129483
000010 e3 6e a3 be ce e3 c3 be bf 68 c7 3e a4 55 c0 be
       -0.31920537 -0.3825974 0.38947102 -0.3756534
000020 ef 19 88 be 07 a3 9e 3e 7d 7a 95 3e ac 75 be 3e
       -0.26582286 0.30983755 0.29195014 0.37199152
000030 4e b8 db 3e 4f 99 b3 3e f5 c4 bb 3e ac d1 90 3e
       0.4291405 0.35077903 0.36673704 0.28284967
000040 36 73 cc be 77 6a a2 3e ca 6d c0 be 8e 23 b8 3e
       -0.3993165 0.3172185 -0.37583762 0.35964626
